actor_checkpoint_multiple.pth (torch_old, 88990 bytes, 10 tensors)

fc1.weight f4 [128, 33]
00000000: d3e9 823e 3008 ec3d bb00 403c fd56 49bd
00000010: 3ec3 87bc 5369 003e ec4d 023d 790d ffbd
00000020: 5654 4cbd f033 0c3b c355 a23d 1c41 323d
00000030: 6791 503c f5db b13d 4950 e6bd 19a6 c8bd
00000040: a29c 033e 2f86 803c be46 f0bd cca9 e1bb
00000050: 91bf a2bd e514 00bd 34ff 29bd 12b8 313e
00000060: f623 883d 5d26 1c3e f7b9 6cbe 3f38 8e3e
00000070: 0fcd f9bd dc7e d03d b505 57be da7a 313e
00000080: 2987 c23d e529 ff3d 6642 ff3e 4e5f 86be
00000090: da04 8a3d cb33 85be 0501 0dbe 92f0 81bd
000000a0: 2da6 69be 3c5b 88be 633a a8be 25e6 673b
000000b0: ee4b 0ebe 5524 2eba c739 253e a047 0b3d
000000c0: 04eb d53d 2171 32be edc4 f13d 279b 48bd
000000d0: 4d88 a0bd 3aff f93d a635 073e 1ce0 97bd
000000e0: e003 e73d c8fd a93d c7a2 1abd f942 ea3d
000000f0: b245 843b 9a16 163e 801c 0f3b 87df 46be
00000100: ec40 2e3d 6d4d c4be 0e23 cc3c e2ca efbe
00000110: ef32 b53e 1a07 47be 5f1b da3d eeea 1c3e
00000120: 6031 343d 735c 9f3d c2c5 2abe bc04 f0bd
00000130: 23bf 803c ff0a 8dba fbb3 583d 331f 723d
00000140: 8865 033d 4b8d 86be 3f18 433d 756a f73c
00000150: df76 583c 4cd7 8e3d d8cc 653e b7da 3f3d
00000160: 04cf 923d 8595 1fbe 3e7a a2bc 2e1d 5cbd
00000170: 8843 d4bd 49b7 753d 7b2a 273e ae9f 6fbd
00000180: c8ed 86bd 2fdc 16be 15da 473f f39a 8e3e
00000190: 96ed 873d 7a27 0dbd 3d9f 193e ce66 d53d
000001a0: f373 b2bc 4dd9 893c 4c48 9ebe 00fa 84bd
000001b0: 4eb0 e4bd 7ab5 c53d 09e7 26be ad1e e63d
000001c0: 868e e23d 8021 f33c b716 5f3e 096c 2ebd
000001d0: 0ef2 98bd dccb 0cbe f847 8d3d 87d0 103e
000001e0: ee51 853e bc89 e9bd 0f17 143d 93a1 5dbe
000001f0: 1c67 003e 5e1c cfbe 6ea1 1a3e 90d3 8e3d
00000200: 1c86 a83d e64d 063e a04b a5bc 783d 6fbf
00000210: 26e2 963e 5326 a8be 5120 c93d b77c c7bb
00000220: 6be2 563e d338 ed3d 2717 cabd eb8a f9bd
00000230: d310 97bc 8ac6 193e 99ac 6c3d d24a a83c
00000240: fbaa 343b 839f 9abe c199 363e b0c1 fc3d
00000250: c041 3f3c 6efe c3bd 6ac0 09bd 8bd8 593d
00000260: 42bd 833c 2f73 913d af33 283d cc07 2dbe
00000270: 713d acbc c2ee c43d 7b37 803c 4539 55bd
00000280: ed6e babe 20f4 56bd 8de8 6c3e 40fc 2cbd
00000290: f9bf 03c0 4d19 153e 563e fe3e 6c6e 4bbe
000002a0: 23f2 cb3d e57c 39be 5e67 ad3d 8aae 18be
000002b0: 692c 073e 82f4 96be d52b e13d d459 b03d
000002c0: 7327 883e 70b8 c9bc 5e71 3cbe c7a4 723c
000002d0: 2a18 54be 14b0 68bd 1bcf ba3d 8db5 8b3d
000002e0: 1bbd bc3d 52b5 28be 52ac 17bb 701f d43d
000002f0: 2edd a3be 3447 8b3e 651f 9abd 402e 5abe
00000300: 615b fd3d f0c3 bf3d 9041 343c ec3f f63b
00000310: d0a0 d63c dbb1 0c3d f560 6dbe 97d4 c33e
00000320: 5d5e bebc 0216 2d3d 0fbe 123e 9160 62be
00000330: 8ff9 613e 23d0 ea3d 930f a13a 527c 8c3e
00000340: bb37 41be 9421 183e 58d2 08bd b425 50bc
00000350: 0b90 11be 4faa 4c3e 440b 1abd 69a1 803c
00000360: ee5d a73c e164 ff3b 87c6 89bd 96cb 26bd
00000370: 6868 0d3e 2ffd 24be fbf0 5b3e 15f2 68bd
00000380: 7aec 053d dce3 e23d e736 5fbe 6127 abbd
00000390: de6b 59bd 5ac4 883d eaf0 9cbf 6d5d 5ebe
000003a0: dcea 603e 1ec4 ffbe defe 8fbd b397 20be
000003b0: 68a0 9ebd 6f59 243d 23d3 a53d f49b 81be
000003c0: 6ef2 51be 5dd0 6abe 580c 9ebd ef97 1abc
000003d0: 17d3 f73d 31d3 943e a36c 123c 2134 07bd
000003e0: cce2 c63d fa54 f33d 276c 24bd a36c a0bb
000003f0: acd2 6ebd bbc3 f1bd 7c43 a8bb 7e36 e53d
0.2556902 0.11524999 0.011718924 -0.049155224 -0.01657259 0.12540178 0.031812593 -0.124537416
-0.049885117 0.0021393262 0.07926514 0.043519124 0.012729979 0.086845316 -0.11245782 -0.097973056
0.1285272 0.015688984 -0.11732243 -0.0068866964 -0.07946695 -0.031269927 -0.041503146 0.17355374
0.06647484 0.1524901 -0.23117815 0.27777287 -0.12197315 0.101804465 -0.20998271 0.1733202
0.09498436 0.124591626 0.49855345 -0.26244587 0.067392066 -0.26016077 -0.1376992 -0.06344713
-0.22817297 -0.26632106 -0.32857046 0.003538498 -0.13896152 -0.0006642987 0.16135322 0.034003854
0.10445216 -0.17425968 0.11805139 -0.04897609 -0.07838497 0.12206884 0.13204059 -0.07415792
0.11280036 0.08300358 -0.037752893 0.11438555 0.0040366286 0.1465706 0.0021837056 -0.19421206
0.042542383 -0.3834032 0.02491906 -0.46834475 0.35390422 -0.19436303 0.10649752 0.15323994
0.0439924 0.07781305 -0.16677001 -0.11719653 0.015716141 -0.0010760723 0.052906018 0.059111785
0.03207925 -0.26279673 0.047630545 0.03020213 0.013211935 0.06974658 0.22441423 0.046839442
0.07168391 -0.15584381 -0.01983368 -0.053738765 -0.10364443 0.059989247 0.16324799 -0.05850189
-0.06588322 -0.14732431 0.7806714 0.27852592 0.06637113 -0.034461476 0.15002151 0.10419999
-0.021783805 0.01682725 -0.30914533 -0.06492996 -0.1116644 0.096537545 -0.1629907 0.1123632
0.110623404 0.02967906 0.21786009 -0.0425835 -0.07468043 -0.13749641 0.068984926 0.14142047
0.2603907 -0.11403224 0.036154803 -0.21643667 0.12539333 -0.4045133 0.15100643 0.06973946
0.08228704 0.13115653 -0.020177662 -0.9345317 0.29469413 -0.3284174 0.09820617 -0.006087865
0.20984809 0.11583104 -0.09867697 -0.121846996 -0.01844064 0.15017143 0.05778179 0.02054349
0.0027567733 -0.30199823 0.1783209 0.123416305 0.011673391 -0.09570013 -0.033630766 0.053185027
0.016081456 0.07102048 0.041064914 -0.16897506 -0.021025391 0.09615852 0.015651455 -0.05205657
-0.36412755 -0.05247891 0.23135586 -0.04223275 -2.058592 0.14560433 0.49656934 -0.19866341
0.09958293 -0.1811405 0.08466981 -0.14910331 0.13200535 -0.2948342 0.109946884 0.08610883
0.26592597 -0.02462408 -0.18402621 0.014809794 -0.20712343 -0.056808546 0.091215335 0.068217374
0.092157565 -0.16475418 -0.0023143482 0.10357559 -0.32004684 0.2720276 -0.07525519 -0.21306705
0.12370945 0.09363544 0.011001959 0.0075149443 0.026199728 0.034349304 -0.23181517 0.3824813
-0.023238355 0.042257316 0.14330314 -0.2210715 0.22067855 0.1146548 0.0012287967 0.274386
-0.18868916 0.14856559 -0.033403724 -0.012704302 -0.14215104 0.19986843 -0.0376084 0.015701966
0.020430531 0.007794008 -0.06727319 -0.0407215 0.13809359 -0.16112207 0.21478646 -0.056871492
0.032696225 0.11078617 -0.21798287 -0.0835712 -0.053081386 0.06678076 -1.2261021 -0.21715327
0.21964592 -0.49954313 -0.07031034 -0.15682869 -0.07745439 0.040124353 0.08096912 -0.25314295
-0.20502636 -0.22931047 -0.07717198 -0.009435638 0.12100809 0.29067376 0.008937034 -0.0330087
0.09711227 0.11881442 -0.040142205 -0.004895763 -0.05830638 -0.11804911 -0.005134998 0.11192034

fc1.bias f4 [128]
00000000: 7753 1abe 9bf0 d0bd c80c 31be ff97 1d3d
00000010: 0e19 073a c744 a0bd 8628 33be ffe1 e9bd
00000020: ea15 92bd e9e7 93bd 048a 013e 04e0 7e3d
00000030: 5634 c7bb 514d 6e3d 1bfb 403e 114c 693d
00000040: ea9c a13d 0c57 1b3e 01a0 3abe d4e3 bdbc
00000050: d59c 84be b0f0 633d c64e 533d e672 e3bd
00000060: f5ff 79be 78d9 3fbd 020e 98bd 255b a0bd
00000070: bcd0 bb3d 3e4c 2bbd e7b7 103d b548 d4bd
00000080: d100 653d 0e3a db3b b123 f3bd a0ef a2bd
00000090: a3cf 52bd c56d 883b c86e debd eb3f 193c
000000a0: d0e1 8e3c 9994 bf3c 5735 c4bd 52bd 03bf
000000b0: 46b8 00be edf5 4abe ee43 37bc 422e 2abe
000000c0: 6473 3fbd 153c b13e 837d cb3d 6e57 e23d
000000d0: 5e36 ebbd f950 9d3d 6da1 9dbe 28a3 7bbd
000000e0: f2e8 5bbe cb9b cfbd 70c4 773c 9ccc 5e3d
000000f0: b844 94bc ab0a 8cbd b929 7dbd 5321 013c
00000100: 36c9 0bbe 0677 b43c c158 813d dda0 333e
00000110: 1fe4 82bb 7aab 9a3e 850e e6bd 257d 253d
00000120: b1a7 993c 732f 6ebc 8b77 913d 1fe1 903d
00000130: 4984 a13d 68a4 133e a2b0 f9bc b7f2 ddbd
00000140: 7500 45be 1086 5f3e 4d8e 44be cb20 dd3d
00000150: c666 14be fb91 36be 624f 19be c2b6 6a3d
00000160: 8bcb 1cbe 14a9 53be b529 50be c2af ad3d
00000170: dc53 cdbd bdb1 ecbd 7af8 1ebe 6231 2f3e
00000180: cea7 f63c d8a3 3fbc 4990 7a3e c84f a7bc
00000190: d7b7 c93d 30ce 3cbd b231 28be 25e3 cbbb
000001a0: 90a7 733e 82dd 98be 1989 7cbe 1a60 f83e
000001b0: 5c09 bcbe add3 fbbd d680 143d d224 84bc
000001c0: f5fc 46be b59b debd bcd6 b53d de94 653d
000001d0: 4bc7 87bd 4078 0bbc 86a4 88bd 45fb 863e
000001e0: 614b bb3a cb02 afbe 909d 4bbe eded 28bd
000001f0: 57be 73bd 9549 54be 02da 32be e0e7 1c3d
-0.15070902 -0.10202142 -0.17290032 0.038475033 0.0005153575 -0.07825618 -0.17495927 -0.114200585
-0.07133086 -0.07221968 0.12650305 0.062225357 -0.006079237 0.058179203 0.18845789 0.05695731
0.07891257 0.15169924 -0.18225099 -0.023179926 -0.25900903 0.05564946 0.051588796 -0.111058995
-0.24414046 -0.046838254 -0.07424547 -0.078298844 0.09170672 -0.041820757 0.035331633 -0.1036543
0.05590898 0.0066902703 -0.11872042 -0.07955861 -0.05146755 0.004163476 -0.108609736 0.009353618
0.01744166 0.023386287 -0.09580486 -0.51460755 -0.12570295 -0.19820376 -0.011185629 -0.16619208
-0.046740904 0.3461615 0.09936049 0.11051832 -0.11484979 0.0768146 -0.3078722 -0.061434895
-0.2147558 -0.10137137 0.015122518 0.05439435 -0.018099174 -0.06837972 -0.061807368 0.00788148
-0.13650975 0.022029411 0.063157566 0.17541833 -0.0039944793 0.3020895 -0.11233238 0.04040255
0.01875672 -0.01453768 0.07102879 0.070741884 0.078865595 0.14418185 -0.030479733 -0.1083731
-0.19238456 0.21828485 -0.19194908 0.107972704 -0.1449233 -0.17829125 -0.14971688 0.057303198
-0.1531202 -0.20669967 -0.2032841 0.08480789 -0.100257605 -0.115573384 -0.15524474 0.17108682
0.030109312 -0.011696778 0.24469103 -0.020423785 0.09849518 -0.046095073 -0.16425207 -0.006222146
0.23794389 -0.29856497 -0.24661674 0.4851082 -0.3672589 -0.12296233 0.03625568 -0.016130839
-0.19432433 -0.108695425 0.08878848 0.056050174 -0.06629809 -0.008512557 -0.06672005 0.26363578
0.0014289432 -0.34181818 -0.19884324 -0.04124253 -0.059507694 -0.20731194 -0.17465976 0.03830707

bn1.weight f4 [128]
00000000: c318 7a3f 0763 053f 207c 683f 42ca 6d3f
00000010: 3418 903e e0f4 c33e a89e 1e3f 40a6 9d3e
00000020: 25ae 153f 97f6 043f 5ef8 523f d2ef 0e3f
00000030: 1ea4 ae3e d4c6 1e3e 860b 8d3e 3a95 6e3f
00000040: 9c42 643e cd8c 763f 22f7 ac3e c053 323f
00000050: a096 063f 45b8 753f a0d2 ec3d d97c 673f
00000060: a0a9 2d3d 3181 393f 1a86 c73e d1f6 213f
00000070: 5f13 793f 9833 2e3f 5abe 1d3f 17d1 3d3f
00000080: 524a 953e 4e1b d83e 0c03 e13e 6d96 123f
00000090: 403b 473f 53b7 073f d05b 5b3f 3204 483f
000000a0: 2880 af3e a824 6d3f d63f 8e3e de40 eb3e
000000b0: 2472 183f c48b 1c3e b4b9 2e3f 7b74 043f
000000c0: fb9e 3f3f ba8f f13e 0058 703f 0894 373f
000000d0: a43a e03e b89c a33d 5b37 243f ae58 f03e
000000e0: a2e9 dd3e acf3 563e 8dca 693f 4df5 153f
000000f0: 9eb0 ef3e e89d 993e aca6 463e 30f9 aa3d
00000100: a0e8 ab3d 4a3f 773f c012 9b3c 6827 2f3e
00000110: 5066 3a3d 787a 9f3e 2c0c 703e d4b6 b93e
00000120: 841c 503f da51 a93e 84c1 493f 37fe 653f
00000130: 8fde 293f 40f8 473f b3f3 783f 7e4c 943e
00000140: 9885 de3d b0ed a73d 108b 933d 4892 323e
00000150: 0064 9a3b 8e0c f93e 906e 613d 5643 a23e
00000160: e258 693f 4c06 473e a045 b33c 2924 213f
00000170: ec4d 7d3e 2c01 043f ba66 e63e c280 ad3e
00000180: 2cf6 4f3e a89f 233f c03e 973d 5314 443f
00000190: 0a22 b43e 1aa2 e53e 3b26 373f 8690 2a3f
000001a0: 6482 243f 8e79 c83e 28fb de3d 1032 833d
000001b0: c229 933e 083e 9b3d be66 803e 0c8a 843e
000001c0: 411b 553f 0a98 f13e 8977 163f b8e3 383f
000001d0: deb3 5d3f c3db 343f daac 0a3f 8a95 353f
000001e0: c683 de3e a0a1 e63c aec7 ab3e 057f 5c3f
000001f0: 251e 6f3f 4ae9 8e3e 58ee 103e 8885 033f
0.97694033 0.5210423 0.908144 0.92886746 0.28143466 0.38272762 0.6196084 0.307909
0.5846885 0.51938766 0.8241023 0.55834687 0.34109586 0.15505534 0.27547854 0.9319645
0.22291034 0.96308595 0.33782297 0.6965904 0.52573586 0.959843 0.11563611 0.9042488
0.042398095 0.72462755 0.389695 0.63267237 0.9729518 0.68047476 0.6161858 0.7414717
0.29158264 0.42208332 0.43947637 0.5726078 0.77824783 0.53014106 0.8568697 0.781314
0.34277463 0.9263406 0.27783078 0.45947927 0.59549165 0.15287691 0.6825211 0.51740235
0.7485196 0.47179967 0.9388428 0.7171025 0.4379474 0.07988876 0.64146966 0.46942657
0.4334231 0.20991391 0.9132469 0.58577424 0.46814436 0.30003285 0.19399518 0.0834831
0.08393979 0.96580946 0.01892984 0.17104876 0.04550773 0.31148124 0.23442143 0.362723
0.8129351 0.3307026 0.78810906 0.89841026 0.6635522 0.78113174 0.97246855 0.2896461
0.10865325 0.08199632 0.072042584 0.17438614 0.004711628 0.4864239 0.05503708 0.31691998
0.9115125 0.19435996 0.021883786 0.629458 0.24736756 0.5156429 0.4500025 0.33887297
0.20308751 0.6391549 0.073850155 0.7659351 0.3518222 0.44850236 0.7154271 0.66626775
0.6426146 0.3915524 0.10887748 0.06406033 0.28742796 0.07580191 0.25078386 0.2588657
0.8324471 0.4718631 0.58776146 0.7222247 0.8660258 0.7064783 0.5417 0.70931304
0.4345991 0.02815324 0.3355078 0.86131316 0.9340537 0.2791236 0.14153421 0.5137563

bn1.bias f4 [128]
00000000: 0000 0000 0000 0000 0000 0000 0000 0000
00000010: 0000 0000 0000 0000 0000 0000 0000 0000
00000020: 0000 0000 0000 0000 0000 0000 0000 0000
00000030: 0000 0000 0000 0000 0000 0000 0000 0000
00000040: 0000 0000 0000 0000 0000 0000 0000 0000
00000050: 0000 0000 0000 0000 0000 0000 0000 0000
00000060: 0000 0000 0000 0000 0000 0000 0000 0000
00000070: 0000 0000 0000 0000 0000 0000 0000 0000
00000080: 0000 0000 0000 0000 0000 0000 0000 0000
00000090: 0000 0000 0000 0000 0000 0000 0000 0000
000000a0: 0000 0000 0000 0000 0000 0000 0000 0000
000000b0: 0000 0000 0000 0000 0000 0000 0000 0000
000000c0: 0000 0000 0000 0000 0000 0000 0000 0000
000000d0: 0000 0000 0000 0000 0000 0000 0000 0000
000000e0: 0000 0000 0000 0000 0000 0000 0000 0000
000000f0: 0000 0000 0000 0000 0000 0000 0000 0000
00000100: 0000 0000 0000 0000 0000 0000 0000 0000
00000110: 0000 0000 0000 0000 0000 0000 0000 0000
00000120: 0000 0000 0000 0000 0000 0000 0000 0000
00000130: 0000 0000 0000 0000 0000 0000 0000 0000
00000140: 0000 0000 0000 0000 0000 0000 0000 0000
00000150: 0000 0000 0000 0000 0000 0000 0000 0000
00000160: 0000 0000 0000 0000 0000 0000 0000 0000
00000170: 0000 0000 0000 0000 0000 0000 0000 0000
00000180: 0000 0000 0000 0000 0000 0000 0000 0000
00000190: 0000 0000 0000 0000 0000 0000 0000 0000
000001a0: 0000 0000 0000 0000 0000 0000 0000 0000
000001b0: 0000 0000 0000 0000 0000 0000 0000 0000
000001c0: 0000 0000 0000 0000 0000 0000 0000 0000
000001d0: 0000 0000 0000 0000 0000 0000 0000 0000
000001e0: 0000 0000 0000 0000 0000 0000 0000 0000
000001f0: 0000 0000 0000 0000 0000 0000 0000 0000
0.0 0.0 0.0 0.0 0.0 0.0 0.0 0.0
0.0 0.0 0.0 0.0 0.0 0.0 0.0 0.0
0.0 0.0 0.0 0.0 0.0 0.0 0.0 0.0
0.0 0.0 0.0 0.0 0.0 0.0 0.0 0.0
0.0 0.0 0.0 0.0 0.0 0.0 0.0 0.0
0.0 0.0 0.0 0.0 0.0 0.0 0.0 0.0
0.0 0.0 0.0 0.0 0.0 0.0 0.0 0.0
0.0 0.0 0.0 0.0 0.0 0.0 0.0 0.0
0.0 0.0 0.0 0.0 0.0 0.0 0.0 0.0
0.0 0.0 0.0 0.0 0.0 0.0 0.0 0.0
0.0 0.0 0.0 0.0 0.0 0.0 0.0 0.0
0.0 0.0 0.0 0.0 0.0 0.0 0.0 0.0
0.0 0.0 0.0 0.0 0.0 0.0 0.0 0.0
0.0 0.0 0.0 0.0 0.0 0.0 0.0 0.0
0.0 0.0 0.0 0.0 0.0 0.0 0.0 0.0
0.0 0.0 0.0 0.0 0.0 0.0 0.0 0.0

bn1.running_mean f4 [128]
00000000: 0000 0000 0000 0000 0000 0000 0000 0000
00000010: 0000 0000 0000 0000 0000 0000 0000 0000
00000020: 0000 0000 0000 0000 0000 0000 0000 0000
00000030: 0000 0000 0000 0000 0000 0000 0000 0000
00000040: 0000 0000 0000 0000 0000 0000 0000 0000
00000050: 0000 0000 0000 0000 0000 0000 0000 0000
00000060: 0000 0000 0000 0000 0000 0000 0000 0000
00000070: 0000 0000 0000 0000 0000 0000 0000 0000
00000080: 0000 0000 0000 0000 0000 0000 0000 0000
00000090: 0000 0000 0000 0000 0000 0000 0000 0000
000000a0: 0000 0000 0000 0000 0000 0000 0000 0000
000000b0: 0000 0000 0000 0000 0000 0000 0000 0000
000000c0: 0000 0000 0000 0000 0000 0000 0000 0000
000000d0: 0000 0000 0000 0000 0000 0000 0000 0000
000000e0: 0000 0000 0000 0000 0000 0000 0000 0000
000000f0: 0000 0000 0000 0000 0000 0000 0000 0000
00000100: 0000 0000 0000 0000 0000 0000 0000 0000
00000110: 0000 0000 0000 0000 0000 0000 0000 0000
00000120: 0000 0000 0000 0000 0000 0000 0000 0000
00000130: 0000 0000 0000 0000 0000 0000 0000 0000
00000140: 0000 0000 0000 0000 0000 0000 0000 0000
00000150: 0000 0000 0000 0000 0000 0000 0000 0000
00000160: 0000 0000 0000 0000 0000 0000 0000 0000
00000170: 0000 0000 0000 0000 0000 0000 0000 0000
00000180: 0000 0000 0000 0000 0000 0000 0000 0000
00000190: 0000 0000 0000 0000 0000 0000 0000 0000
000001a0: 0000 0000 0000 0000 0000 0000 0000 0000
000001b0: 0000 0000 0000 0000 0000 0000 0000 0000
000001c0: 0000 0000 0000 0000 0000 0000 0000 0000
000001d0: 0000 0000 0000 0000 0000 0000 0000 0000
000001e0: 0000 0000 0000 0000 0000 0000 0000 0000
000001f0: 0000 0000 0000 0000 0000 0000 0000 0000
0.0 0.0 0.0 0.0 0.0 0.0 0.0 0.0
0.0 0.0 0.0 0.0 0.0 0.0 0.0 0.0
0.0 0.0 0.0 0.0 0.0 0.0 0.0 0.0
0.0 0.0 0.0 0.0 0.0 0.0 0.0 0.0
0.0 0.0 0.0 0.0 0.0 0.0 0.0 0.0
0.0 0.0 0.0 0.0 0.0 0.0 0.0 0.0
0.0 0.0 0.0 0.0 0.0 0.0 0.0 0.0
0.0 0.0 0.0 0.0 0.0 0.0 0.0 0.0
0.0 0.0 0.0 0.0 0.0 0.0 0.0 0.0
0.0 0.0 0.0 0.0 0.0 0.0 0.0 0.0
0.0 0.0 0.0 0.0 0.0 0.0 0.0 0.0
0.0 0.0 0.0 0.0 0.0 0.0 0.0 0.0
0.0 0.0 0.0 0.0 0.0 0.0 0.0 0.0
0.0 0.0 0.0 0.0 0.0 0.0 0.0 0.0
0.0 0.0 0.0 0.0 0.0 0.0 0.0 0.0
0.0 0.0 0.0 0.0 0.0 0.0 0.0 0.0

bn1.running_var f4 [128]
00000000: 0000 803f 0000 803f 0000 803f 0000 803f
00000010: 0000 803f 0000 803f 0000 803f 0000 803f
00000020: 0000 803f 0000 803f 0000 803f 0000 803f
00000030: 0000 803f 0000 803f 0000 803f 0000 803f
00000040: 0000 803f 0000 803f 0000 803f 0000 803f
00000050: 0000 803f 0000 803f 0000 803f 0000 803f
00000060: 0000 803f 0000 803f 0000 803f 0000 803f
00000070: 0000 803f 0000 803f 0000 803f 0000 803f
00000080: 0000 803f 0000 803f 0000 803f 0000 803f
00000090: 0000 803f 0000 803f 0000 803f 0000 803f
000000a0: 0000 803f 0000 803f 0000 803f 0000 803f
000000b0: 0000 803f 0000 803f 0000 803f 0000 803f
000000c0: 0000 803f 0000 803f 0000 803f 0000 803f
000000d0: 0000 803f 0000 803f 0000 803f 0000 803f
000000e0: 0000 803f 0000 803f 0000 803f 0000 803f
000000f0: 0000 803f 0000 803f 0000 803f 0000 803f
00000100: 0000 803f 0000 803f 0000 803f 0000 803f
00000110: 0000 803f 0000 803f 0000 803f 0000 803f
00000120: 0000 803f 0000 803f 0000 803f 0000 803f
00000130: 0000 803f 0000 803f 0000 803f 0000 803f
00000140: 0000 803f 0000 803f 0000 803f 0000 803f
00000150: 0000 803f 0000 803f 0000 803f 0000 803f
00000160: 0000 803f 0000 803f 0000 803f 0000 803f
00000170: 0000 803f 0000 803f 0000 803f 0000 803f
00000180: 0000 803f 0000 803f 0000 803f 0000 803f
00000190: 0000 803f 0000 803f 0000 803f 0000 803f
000001a0: 0000 803f 0000 803f 0000 803f 0000 803f
000001b0: 0000 803f 0000 803f 0000 803f 0000 803f
000001c0: 0000 803f 0000 803f 0000 803f 0000 803f
000001d0: 0000 803f 0000 803f 0000 803f 0000 803f
000001e0: 0000 803f 0000 803f 0000 803f 0000 803f
000001f0: 0000 803f 0000 803f 0000 803f 0000 803f
1.0 1.0 1.0 1.0 1.0 1.0 1.0 1.0
1.0 1.0 1.0 1.0 1.0 1.0 1.0 1.0
1.0 1.0 1.0 1.0 1.0 1.0 1.0 1.0
1.0 1.0 1.0 1.0 1.0 1.0 1.0 1.0
1.0 1.0 1.0 1.0 1.0 1.0 1.0 1.0
1.0 1.0 1.0 1.0 1.0 1.0 1.0 1.0
1.0 1.0 1.0 1.0 1.0 1.0 1.0 1.0
1.0 1.0 1.0 1.0 1.0 1.0 1.0 1.0
1.0 1.0 1.0 1.0 1.0 1.0 1.0 1.0
1.0 1.0 1.0 1.0 1.0 1.0 1.0 1.0
1.0 1.0 1.0 1.0 1.0 1.0 1.0 1.0
1.0 1.0 1.0 1.0 1.0 1.0 1.0 1.0
1.0 1.0 1.0 1.0 1.0 1.0 1.0 1.0
1.0 1.0 1.0 1.0 1.0 1.0 1.0 1.0
1.0 1.0 1.0 1.0 1.0 1.0 1.0 1.0
1.0 1.0 1.0 1.0 1.0 1.0 1.0 1.0

fc2.weight f4 [128, 128]
00000000: 9d69 0cbd bfa4 323e 6fc6 b1bd abbe f53d
00000010: 8bf0 023e 06e2 043e d5d4 d13d bcbf 0dbe
00000020: 5ec0 7abe c6b5 253e ff94 d9bc 980a 13be
00000030: f254 053d 140c af3b 4362 68bb 5a6c c33d
00000040: fb5c f83d 386b cfbd cdad b43d 5f09 213e
00000050: f785 8e3c 731f 963e 0b09 b13d 1775 843d
00000060: f582 d93d 5962 2b3e 1b42 88bd 485c eabd
00000070: cc71 ee3d 8d46 0ebc 25a4 11bd 727a 893d
00000080: 7b4d 5c3e 8543 07be 8d80 44bc 3ba4 14bc
00000090: e15d 6e3e d4c4 64be d944 5bbe 4e0b 513d
000000a0: 1043 cb3d 2e3e 2e3e 6c8e 56be 8edd 1e3b
000000b0: 9b11 2bbd 761e a9bc 2963 b33e 3be8 403e
000000c0: f0e2 113c 170e 823d 5c8f 20be 24e6 be3d
000000d0: c9dd 91bc d947 eabd 1dc3 423e f0bf b4be
000000e0: 8b81 18bd e156 1bbe d4fc 303d ace3 073c
000000f0: a0e1 493d fd50 e93d 0431 be3c c7a3 0f3e
00000100: ab1f 093e 4e66 2c3c 02cf 0dbe 2b28 0a3e
00000110: 8ef4 46be 23b2 4bbe 7300 9bbd ab87 693d
00000120: 6127 cabd 7384 343e 7d0f 4a3d 6693 fcbd
00000130: 1590 96bd 3b08 02ba 30dd f03d df20 abbd
00000140: 9fdd e83d 670f 193d 7e06 3cbd 1098 adbd
00000150: ae19 203e 8569 343e 646e 123e da47 d9bd
00000160: 26bb c73d 83ab 4d3d 9d5f ca3c af53 0d3b
00000170: 2b01 acbe e23e 5e3c 0d85 d83c 0f41 5abd
00000180: 824f c5ba 487c 29be 8950 05be a48c 383d
00000190: 89ad 57bd 9796 b4be 2bba a83d bfe6 42bd
000001a0: b069 68be bf62 9dbc ee99 723e d609 10be
000001b0: d4f8 b53d f98d 003e 5406 07be fcb9 16bd
000001c0: 81af 0cbd 8cd7 39bc 73e1 48be cfd1 163e
000001d0: cf38 b4bd c3dc 2ebe c383 23be a09d 81be
000001e0: 2adc 7ebe d154 993e 65b6 27be 5de5 e3bc
000001f0: cf4e 443e bb88 d6bd 39f4 1d3e 80cf 9d3e
00000200: 50c1 883c 9b17 b1be d1a8 debe fcee 5e3e
00000210: 200e 28be 5e3d a93d e212 57be 167d 85bd
00000220: 1324 df3e 5d06 6cbe 8591 07bd 8d68 c33e
00000230: 2101 853d 8e21 4dbf 4dd1 353d 9391 e6bc
00000240: e378 113d dab7 673e ad8d c0bd f75e 5d3d
00000250: 76fc 903d 80e9 c9bd bc3e f5bd 629e aabe
00000260: a146 8fbe 9684 223d 2dca 0dbe ae07 21be
00000270: 13ff e93d 9fd2 f0bd 0a0c 883e 93f1 873d
00000280: 958e 7dbf bd48 c33d 28ea 2d3d 9be9 6d3e
00000290: fef3 7abd dc95 0b3e 38c9 413d 788f bcbd
000002a0: cfb5 453e 8126 3fbd d943 af3e 2df6 64bd
000002b0: a00e 85bd dcdc ddbd 503a 0bbe a639 2e3b
000002c0: 8e91 7d3d 2a5a 62be 78d1 79bd fa6a e2bd
000002d0: e3a7 b1be b226 913e e408 ebbb 8489 e33c
000002e0: 0fbf 233e 19f2 b4bd ed2e afbd 7992 843e
000002f0: 34d6 323e 7a07 41bc acc9 2b3e ee8f d6be
00000300: e329 59be 6220 403e 015c f4bd e038 04bf
00000310: 6270 0a3e bc38 8a3e 0717 0d3e 1dfb 43bb
00000320: f6de ecbd 88f6 6ebe 78fe 1e3e 13c0 563d
00000330: e60f 60bc 7bcf 423e 8843 9cbd 95a4 a6be
00000340: 111d 773e 2c7c 89bd d268 2ebc b3e3 98be
00000350: 09f5 d7be 2dbb 6cbe 84f8 b6be 2cec 97be
00000360: c3fb 0d3e 464b 0fbe 31eb 03be e537 e03c
00000370: 9019 1c3e 862d ce3d 4e82 023e d6eb a9be
00000380: d2c4 b23c 8b80 dcbd ba23 673e 06e1 2a3d
00000390: 30f0 873d f95d 38be 09f6 ed3d 2fe1 08bf
000003a0: 84b8 3d3e 3e9a c23e 5660 5d3c 6f52 8a3d
000003b0: 7f59 46bc 233a a63d 7eca 273d 5baa 263d
000003c0: ba9d 363d 9e89 89bd 0fb6 2fbe 5682 b73e
000003d0: 2422 e3be f15c f0be d957 95be 56d1 223e
000003e0: 38c7 c7bd edda f2be 9972 e1bd 9242 1f3d
000003f0: cc41 63be e031 50be 919a f6bd e20c 73be
-0.03428041 0.17445658 -0.08680426 0.11999258 0.12787072 0.12976846 0.102456726 -0.13842672
-0.24487445 0.16182622 -0.026560305 -0.1435951 0.032551713 0.005342016 -0.003545896 0.09542151
0.121271096 -0.10127872 0.08822212 0.15726231 0.017397864 0.2932087 0.08644303 0.064676456
0.10620681 0.16736735 -0.066532336 -0.114433825 0.11642799 -0.008683813 -0.03555693 0.06712808
0.21513931 -0.1320935 -0.0119935395 -0.009072359 0.23278 -0.22340709 -0.21412982 0.05103617
0.099249005 0.17015907 -0.20952767 0.0024240944 -0.041764837 -0.020644408 0.3503659 0.18838589
0.008904204 0.06350344 -0.15679687 0.093212396 -0.01780595 -0.11439485 0.19019742 -0.35302687
-0.037232917 -0.1516986 0.043209866 0.008294027 0.04928744 0.113924004 0.023216732 0.1402732
0.13390987 0.010522438 -0.13848498 0.13491885 -0.19429228 -0.19892173 -0.07568445 0.05701415
-0.09870792 0.1762865 0.049331177 -0.123328015 -0.073517 -0.0004960333 0.11760938 -0.08355879
0.11370396 0.037368204 -0.04590463 -0.08476269 0.15634796 0.17618378 0.14299923 -0.10609408
0.097524926 0.050212394 0.024703795 0.0021564772 -0.3359464 0.013564797 0.026430631 -0.0532847
-0.0015053602 -0.16551316 -0.13019003 0.045056 -0.05265573 -0.3527114 0.08238634 -0.047583338
-0.22696567 -0.019212125 0.23691532 -0.14066252 0.08885351 0.12554158 -0.13186008 -0.036798462
-0.03434706 -0.011342894 -0.19617252 0.14728473 -0.08799898 -0.17076401 -0.15968232 -0.2531557
-0.24888673 0.29947522 -0.16378172 -0.02781933 0.19170688 -0.10475298 0.15425195 0.30822372
0.016693741 -0.34588322 -0.43488172 0.21770853 -0.16411638 0.08263658 -0.21003297 -0.06517999
0.4358221 -0.23049302 -0.033097763 0.38165703 0.06494356 -0.80129325 0.044389058 -0.028145587
0.035515677 0.22628728 -0.094020225 0.054045644 0.07079403 -0.0985899 -0.11974856 -0.33323961
-0.27983573 0.039677225 -0.13846655 -0.15725586 0.11425605 -0.11758923 0.26571685 0.066378735
-0.9904569 0.09535358 0.042459637 0.23233645 -0.061267845 0.13631386 0.047311038 -0.09207052
0.19307636 -0.04666758 0.3423145 -0.055898834 -0.0649693 -0.10833141 -0.13596463 0.0026584654
0.06190639 -0.22104707 -0.06099078 -0.110555604 -0.346984 0.28349835 -0.0071726907 0.027775533
0.15990852 -0.08835239 -0.08553872 0.25893 0.17464525 -0.011781568 0.1677615 -0.41906685
-0.21207385 0.18762353 -0.11931611 -0.51649284 0.13519433 0.2699641 0.13778315 -0.0029904314
-0.11565964 -0.23336232 0.1552676 0.05242927 -0.0136756655 0.1902446 -0.07630068 -0.3254744
0.24132182 -0.06713137 -0.010645108 -0.2986122 -0.42179134 -0.23118277 -0.35736477 -0.29672372
0.1386557 -0.13993558 -0.12882687 0.027370403 0.15244126 0.10067277 0.1274502 -0.3318774
0.021822367 -0.10766705 0.22572222 0.041718505 0.06637609 -0.18004598 0.11619193 -0.534686
0.18527418 0.38008302 0.013511738 0.06754004 -0.0121062985 0.081165574 0.040964596 0.040689807
0.044584014 -0.067157015 -0.17159294 0.35841626 -0.44361985 -0.4694591 -0.29168585 0.15900168
-0.09754795 -0.47432652 -0.11008186 0.038881846 -0.22193068 -0.20331526 -0.120412 -0.23735383

fc2.bias f4 [128]
00000000: 1c7c a2bd 4f63 0cbd 06d8 86be c68e 363d
00000010: f5f0 b13c 3f7c d4bc 2b83 ccbc 7a01 9fbc
00000020: 6ab5 36bd 447f 07bd ba6d 8c3d 8c2d 47bc
00000030: 9493 7e3d ec4c dcbd 0869 fb3c 2b4e 0bbd
00000040: aab3 e43d 4427 a4bd 1fbe 5d3c 4e32 8c3c
00000050: 6366 a9bd 3e5e d5bd 6868 4ebc 5744 5a3d
00000060: 34fc 0a3e 3ebb a3bc 6f3d d83d ad40 553d
00000070: ff64 46bd 935e 433d b93f e43b d8ce 3d3c
00000080: 5e5e 3a3c 5428 1ebd 2180 113c 1f9e 8439
00000090: 0a36 81bd 5d43 92be 6a08 debc cec1 ab3d
000000a0: f6ca 63bc d5dd 16bd 2b55 39be ac9b 41be
000000b0: 479d b4bd 29da c4bd 4465 843d b698 71bd
000000c0: 7eab 563d 6be3 123e 0f94 c0bd a5fb f4bd
000000d0: 52df 0bbe 0d2c 043d 705d 473d 68c4 103d
000000e0: 14f2 f33a 12d7 38bd 5ba1 01be 006b f63b
000000f0: 2250 803b 0137 a8bc fc8a 063d 761f 6d3d
00000100: 62f2 a23d 596b 8b3d 4fef fbbd 9f54 773a
00000110: f691 49bd d8ca 8d3c 72a8 50bc e367 2a3d
00000120: 5caf 8abd e5af 413d 8bba 8a3d b8e3 34bb
00000130: ec82 7b3d 3946 5fbd 8621 e53d b364 a8bc
00000140: 0718 46be 7bf7 b8bd f418 0c3b 9134 12be
00000150: 3f12 55bd 60ed 803d 817c 91bd ddad 4abd
00000160: 8ba3 c2bc a11b a3bb b43d e2bc cb42 99bd
00000170: 5009 be3c 331e a03d 9c18 58bd 9e5a 86bd
00000180: 62ac ddbd 7709 5e3d 6173 e0bd 4adb be3b
00000190: b82b 9d3c 23f4 163d e766 d1bc 0f53 32bd
000001a0: 3282 dfbc 273d aa3d ddbe d13b f9b3 a6bd
000001b0: 712c 563d d730 44be 3ece 613c bccd 0a3d
000001c0: 8b7a 08be e43b 76bd 213d 8d3d b715 96bd
000001d0: 2b85 32be 8ed5 923d ad25 21be 8e85 193d
000001e0: 82c0 a83d 52a1 c63d 5d8f 8b3d 46dd 6bbd
000001f0: 2dc9 943b aa29 fc3c 9882 373c b320 933c
-0.07933828 -0.034274396 -0.26336688 0.044569753 0.021721343 -0.025938151 -0.02496489 -0.019409884
-0.044606604 -0.033080354 0.06856866 -0.012156855 0.06215246 -0.10756859 0.030689731 -0.034010094
0.11167081 -0.08015302 0.013534098 0.01711383 -0.08271482 -0.10418366 -0.012598135 0.05328783
0.1357277 -0.019986745 0.105585925 0.052063633 -0.04843616 0.047697615 0.006965604 0.01158496
0.011375038 -0.03861268 0.008880646 0.0002529481 -0.06309135 -0.2856702 -0.027103622 0.08386575
-0.01390337 -0.03683265 -0.18098895 -0.1890704 -0.08819061 -0.09611923 0.064646274 -0.058983527
0.05240964 0.14344566 -0.0940324 -0.1196206 -0.13659409 0.032268573 0.048673093 0.035343558
0.0018611574 -0.045126982 -0.12659208 0.0075200796 0.0039158026 -0.02053404 0.03284739 0.05789133
0.07956387 0.06807584 -0.12301504 0.0009434912 -0.049211465 0.017308637 -0.012735473 0.04160298
-0.067717284 0.047286887 0.067738615 -0.0027601551 0.061404154 -0.05451033 0.11188035 -0.02055583
-0.19345103 -0.09031578 0.0021377178 -0.14277865 -0.052019354 0.06295276 -0.07103825 -0.049482215
-0.023759624 -0.004977659 -0.027617313 -0.07483443 0.0231978 0.0781826 -0.052757844 -0.065602526
-0.10823895 0.054208245 -0.10959507 0.005824481 0.019185886 0.03685392 -0.025561763 -0.043536242
-0.027283762 0.08312445 0.0064009265 -0.08139796 0.052288476 -0.19159256 0.013782082 0.03388761
-0.13327996 -0.06011571 0.06896425 -0.073283605 -0.17433612 0.071696386 -0.15737028 0.037480883
0.08239843 0.09698738 0.06814454 -0.05758407 0.0045405836 0.030781586 0.01120057 0.017959928

fc3.weight f4 [4, 128]
00000000: 78bb ecbd 429f a7be 49c7 853b faf3 3f3d
00000010: beef c8be 60ad b6bd 674d d3be 86c1 753e
00000020: 2934 403f c378 203e 3b77 5bbe 8563 c2be
00000030: ab3c 143d 0d29 a4be c1b3 243e 4a70 10be
00000040: 7684 923d 23b8 a03e 8096 b3be 6e7b 47be
00000050: a2df 1cbe 1a62 ddbe 0d1b 0dbe 6c88 e9bc
00000060: 8c71 8ebe f3d5 6b3e 2272 adbd 2e84 10bd
00000070: cf8e e83e 9107 1f3e 2054 2abe 4a1b 5ebe
00000080: f3e0 623a beff c03c f070 473d 5108 133e
00000090: 887e 6bbe 460a 0d3f c251 853d acbd 6a3e
000000a0: 8052 d6be df6c 2dbd 664f 583f a1f4 adbe
000000b0: 51af 1cbe 06a7 70bd 2ee1 2fbc 6305 1ebf
000000c0: dd65 263d 2853 233e 0654 17bd d354 1dbf
000000d0: d58f d03e f889 2ebe d2f0 793e 0b8b 133f
000000e0: a269 21bd a039 863e f844 d2bd 5897 adbb
000000f0: 6b36 4b3e de8a 75be feab 37be e651 b33d
00000100: 3216 37bf b198 a93e 8636 c23d 1b95 c0be
00000110: 8855 6e3e 9f52 90be 1508 ccbe 22e3 1cbe
00000120: d248 843e 6d1c 7bbe 28d2 143f f912 4cbe
00000130: f804 d93c c974 a2bb cdd1 1abe 2938 33be
00000140: 085d 633e 88ef 6d3d 9bc2 443e 6077 da3c
00000150: 1b88 f1be 2afd 3c3e 866b d13e 22b7 42be
00000160: 1f72 0e3f 5f7f 25bd 3296 67be ea12 9e3e
00000170: 916f 94be 930d babe 51d2 b83e a758 39be
00000180: 2dda 503f 1640 c93e 7ca6 c7bc ed08 d63d
00000190: 48e8 0ebf d92d 7dbe 5334 2f3e f5d2 ec3e
000001a0: fe47 7b3d 3fe1 14bf ebfa b93e e8d6 e7be
000001b0: f975 ab3e 42e8 233e 5aaa 1cbe 8605 1f3f
000001c0: b8cc 4dbd 0894 64be 7e99 03be a6bb e53d
000001d0: 0bea 11be 87d1 b7bd 94e7 833e 2c26 013f
000001e0: 78e5 13be 93c6 3cbd 1b6a aebd 9014 a7be
000001f0: 93c3 873e 58fb 5c3e 8f47 a53d 9f8e d43d
00000200: bc41 df3e 7afe 84be 847d ab3e 2479 873e
00000210: f67f 80be 61b8 a43d 8a1f 89be a5f6 f9be
00000220: 31d5 e63e 0b8a cdbe 719a ebbd 8346 cbbb
00000230: 1dfc 5abd 7573 9b3e d28b 02bf 52eb ecbe
00000240: 4a01 343f 2d3c cf3e af5a 1cbe 7e39 cb3e
00000250: b752 6fbe e867 eb3d 0842 50be 13d7 523f
00000260: 3571 653d 602e 2f3e cc38 c9be 14b4 c83c
00000270: 1242 93be af75 233d 88fd 06be 93ab 00be
00000280: db7d 1a3d 5fc1 2fbf 7b66 f53e 64d6 df3c
00000290: 9556 ad3e 7a74 0cbe bdf3 953d b978 eabe
000002a0: 589d c3bd 02d0 f8be 069d 30bd a958 2bbf
000002b0: 1e65 833e 9c85 97be 4273 633e eaca 08be
000002c0: 13bb 86bd 8e04 a3be 0345 25bd 280b 413c
000002d0: 18ff b6be e8b0 ddbe c0d2 923e 5532 97be
000002e0: c294 39be ee22 5dbc ef8c 3d3e 7479 0a3f
000002f0: ad51 8abd 15d7 68be a43a ed3e 47b2 2a3f
00000300: 5708 dcbd bc90 333f 07ce af3e 4ea3 5abe
00000310: 9c10 02bf fa03 b63e 7f58 193f 1367 8d3e
00000320: 19d2 e33e 8ae6 49be d970 7bbe 5c16 de3e
00000330: 0180 60be 8c28 f53b 3b37 4cbe 00cf 78be
00000340: 368d 24bf 506f 67bd a9bc e3be 376b ca3e
00000350: 7225 9e3d c269 c1bd 9dd8 b83d 3ed4 2abe
00000360: ad7d 0b3e 8c91 c3be 1867 2d3f c783 0e3f
00000370: 51c6 a6bd 8ee7 d4bd fc50 31bf 8996 42be
00000380: 370d af3d 9b56 abbe 3c3e 82be dfc5 4d3f
00000390: 3823 d43e eb3b 54be f9d7 5f3e 2dbf 99be
000003a0: 89f7 9ebe 1856 d4bd 43e5 213e d971 35be
000003b0: 6a6c 023f 5326 87be 516c b33c 65da e6be
000003c0: ebd2 0fbf d74f 903d 246d e7bd e1bd 463c
000003d0: 9c0d 9abd 5c11 8ebe 5f57 3d3e f288 40be
000003e0: 6343 e03d aa1d abbe e701 f63c d8b3 d3bd
000003f0: 6b15 b33e cdeb 91be 8f11 9a3d 244c 65be
-0.11559194 -0.32738692 0.0040825945 0.046863534 -0.3924541 -0.089197874 -0.4126999 0.23999605
0.7507959 0.15671067 -0.21432202 -0.37966552 0.03619067 -0.3206257 0.16084196 -0.14105335
0.07154171 0.31390485 -0.3507576 -0.19480678 -0.15319684 -0.43238908 -0.1377985 -0.028507434
-0.27821004 0.23030834 -0.08469035 -0.035282306 0.45421454 0.1553023 -0.16633654 -0.21690097
0.0008654736 0.023559447 0.04869169 0.14358641 -0.22997487 0.550938 0.06509735 0.22923917
-0.41859818 -0.042340156 0.8449615 -0.339757 -0.15301253 -0.058753036 -0.010734839 -0.6172697
0.04062449 0.1594969 -0.036945365 -0.61457556 0.40734735 -0.17044818 0.24408272 0.5763404
-0.03940738 0.2621584 -0.10267061 -0.0052975826 0.19844978 -0.23978755 -0.17936704 0.08755855
-0.7151824 0.33124307 0.09483056 -0.37613758 0.23274815 -0.28188035 -0.39849916 -0.1532102
0.25836807 -0.24522562 0.58133173 -0.19929112 0.026491627 -0.0049577695 -0.15119095 -0.17501892
0.22203457 0.058089763 0.19214861 0.02666825 -0.47174153 0.1845595 0.40902346 -0.19015172
0.55642885 -0.040404674 -0.22615889 0.30873805 -0.28991368 -0.3633848 0.3609796 -0.18100224
0.8158291 0.39306706 -0.024371378 0.10450921 -0.55823183 -0.2472452 0.17109804 0.46254697
0.061347954 -0.581562 0.36324248 -0.45281148 0.33488443 0.16006568 -0.15299359 0.62117803
-0.050244063 -0.22322094 -0.12851521 0.11217432 -0.14249437 -0.08975511 0.25762618 0.5044887
-0.14443004 -0.046087813 -0.08516332 -0.32632875 0.265164 0.21580255 0.08070289 0.10378765
0.4360484 -0.259754 0.33494198 0.2645961 -0.25097626 0.0804298 -0.26781875 -0.48820987
0.45084527 -0.4014438 -0.11504067 -0.006203474 -0.05346309 0.30361524 -0.509946 -0.46273285
0.70314467 0.40475598 -0.15268968 0.396923 -0.23371397 0.11494428 -0.20337689 0.8235943
0.056016166 0.17107534 -0.39301145 0.02449993 -0.28761345 0.039907154 -0.13182652 -0.1256545
0.03771768 -0.68654436 0.4792975 0.02732391 0.3385512 -0.13716307 0.0732188 -0.4579523
-0.09551495 -0.48596197 -0.0431185 -0.6693216 0.25663084 -0.29594123 0.22211936 -0.13358656
-0.0657865 -0.31839412 -0.040349018 0.011782445 -0.35741496 -0.4329903 0.28676414 -0.29530588
-0.18123153 -0.013497097 0.18510793 0.5409157 -0.0675386 -0.22738297 0.46333802 0.6667828
-0.10743778 0.7014272 0.34336874 -0.21351358 -0.50806594 0.3554991 0.5990066 0.27617702
0.4449623 -0.1971685 -0.24554767 0.43376434 -0.2192383 0.00748164 -0.19942944 -0.24297714
-0.6427797 -0.05650264 -0.44479874 0.39534923 0.07721986 -0.09444 0.09025691 -0.16682526
0.1362216 -0.3819698 0.67735434 0.55669826 -0.081432946 -0.10395728 -0.692642 -0.19002737
0.085474424 -0.33464512 -0.25438106 0.8038005 0.4143312 -0.20725982 0.21859731 -0.30028668
-0.3104823 -0.103679836 0.15810113 -0.1771921 0.50946677 -0.26396427 0.021902235 -0.45088497
-0.5618121 0.07046478 -0.11300114 0.012130232 -0.07522127 -0.2774762 0.1849036 -0.1880224
0.10950353 -0.3342107 0.030030204 -0.10337037 0.34977278 -0.28500214 0.0752288 -0.22392327

fc3.bias f4 [4]
00000000: ebff d4bd ff24 9b3c 6536 bf3d 1cc8 993d
-0.10400375 0.01893854 0.09336547 0.07508871
