actor_checkpoint.pth (torch_old, 54840 bytes, 10 tensors)

fc1.weight f4 [128, 33]
00000000: 0fbb 16bf 71f7 82be 4efd 5fbe 9d27 233c
00000010: 5711 333d 0579 afbe 7e8b 903d e555 62be
00000020: 1ea4 efbd f402 213c ea9f e2bc 3e0a f03d
00000030: f94f d2bc e4df 543f 1680 5c3e b8a4 3f3e
00000040: 559b 173c 5dc1 cf3d fdea eb3c 2e17 583e
00000050: 6fe9 11ba 2af2 05bd 436b 3b3e 0a0b 013e
00000060: c9e2 2d3e c6c0 1bbc eb3e e5be 02ba 493d
00000070: c15d 7ebc a231 573d 8b09 293c ed98 2abd
00000080: 8f02 babf ab7c fc3d a1e7 003f 3fda 103d
00000090: de20 12bf 7c70 68bf da20 c23d 2167 c1bc
000000a0: 003c a5be bdb1 2fbf e176 2cbd e192 bdbd
000000b0: e2b4 bf3e 506e 993e 07b0 91bd 37f4 d83e
000000c0: f1fe 10be 1731 e03e 4cd8 993e 9c46 f83e
000000d0: c17b 323e d6a6 1a3f 7a21 5d3d 5563 343e
000000e0: e169 0ebe 738b ed3d 10f3 f43c 2064 94be
000000f0: 71fc c33b 085f 84be 9083 06bc 4fb2 2f3d
00000100: 07cf ae3d f519 e1bf 2e29 0f3f 2fd0 12bf
00000110: ab7d e13e e981 aebd 068e 6c3e 9c3b f8be
00000120: 18b3 04bf 0a92 2abf 960b b9be f671 2a3c
00000130: f0a4 263e 8920 36be 4ae3 9b3e bcf1 5bbe
00000140: 366c 993e a98f c7be 86fb 0ebf d499 32bf
00000150: e9d4 973e ec05 32be 57c8 663e 3b0f e8be
00000160: 0ffd f1bc 41ca 763e f06e febd e4d6 2bbb
00000170: c88f 343e 709a 0a3d 1a45 ac3e 826b 27bd
00000180: 7db5 82bd 62a5 abbd 2f34 bcbf f92a c1bc
00000190: 1dfa 39be f169 223d ddaa 22be 6a56 96be
000001a0: db99 153e 782b dc3e 58a6 fa3a 1e6c 82be
000001b0: 798b 0e3f 793d 48bd 80b5 c9bd 68b1 cf3d
000001c0: 7dd2 bf3e f8dd 6c3f bd2f 713e 00b1 98be
000001d0: 02b1 783e 56c7 413f 5ffc 64bf ee24 a23d
000001e0: ede7 99bc 4d38 5d3e 6633 2a3d 219d 903e
000001f0: 485d 733c cb9e babe 65ae 683d 896d 4abe
00000200: 76b5 a0bd fa2c 2cbd fca9 0d3d 42d1 ad3f
00000210: f6b3 2a3e a0b5 7fbf 8d3b f8be 4da2 d13e
00000220: 62aa f2be 205e 793e 60a4 9e3e 4fc7 0a3e
00000230: 30ca 2f3e c589 c33e 4589 013e b5e4 d9be
00000240: f766 2bbe 2468 cdbe aa5e ac3e 65c7 b53e
00000250: 5604 f63e b9a7 ccbb 22bc 133d 3fbb 993e
00000260: 6294 3abd f094 373e 523a 94bd ea63 203e
00000270: bcb8 36be c035 fcbd 0492 473f 4821 06bd
00000280: d455 363e 51a5 a23d 234e d03c 2a29 4a3d
00000290: 17b3 843e e6e9 393e 315f 903e 6bfd 353f
000002a0: aa06 00bf f54b 41be 6501 c83e 4038 0abe
000002b0: fbd9 0cbe e320 573d ae03 d9be 9b6b 20bd
000002c0: b1d2 6dbe 6282 d7bd 0de4 36be 9415 c3be
000002d0: 4e55 10bf 8103 383f 13dc 0ebd d323 06be
000002e0: 0fb1 d6be 0659 a03e 3fa1 82be 30cf 8d3e
000002f0: d0ad 2bbe ebcd 82bd 4e19 fbbd 4b0c c1bd
00000300: a279 303d 14e8 b3be 720a 1a3d 0e53 1f3d
00000310: abe2 97bd ae46 d33f 8a0c 1ebf a5a8 a03e
00000320: 6d12 743e 446e fdbb adb5 08be be39 1dbf
00000330: 2271 c83e 3245 89be 37b3 07bd 7f19 a43e
00000340: bb84 47bd 892b 38be 4f1b 993e ea66 1c3f
00000350: 468a b63c 9378 9bbd 66fc 043f bfae 9dbe
00000360: 409e 133e 15a4 243f e242 69bd 3fd3 3cbd
00000370: 5ece 91bc abc5 413f a26b 253d f1fb 27be
00000380: 5161 b3be c942 53bd 386d 3f3e 51c5 b23d
00000390: a482 2fbc 605c a83c 526d 073e cfa9 24bf
000003a0: 23ee b9be d105 853f 46e9 af3e 8311 a1be
000003b0: 30c6 823e 3bea 71be 4ace 903e c1e9 23be
000003c0: 874f 84bd a669 84bc 10cf 9ebe 185e dd3d
000003d0: 2fd6 f13e 3815 3abe 77cc ecbe cf72 74be
000003e0: a557 193e e6a7 253f e0e4 803e edf4 26be
000003f0: d241 c6bd 71df db3c 4854 8a3e c6ea 34be
-0.5887918 -0.25579408 -0.21873972 0.009958175 0.04371771 -0.34272018 0.07057856 -0.22103079
-0.11701225 0.009827364 -0.027664144 0.117207035 -0.0256729 0.8315413 0.21533236 0.18715179
0.009253343 0.10144303 0.028798575 0.21102592 -0.00055660954 -0.03270165 0.18302636 0.12601867
0.16981043 -0.00950641 -0.44774565 0.049249656 -0.015525282 0.052537568 0.010317217 -0.041649748
-1.4532031 0.12328466 0.5035344 0.035364386 -0.570814 -0.9079664 0.09478922 -0.023608746
-0.3227234 -0.6863058 -0.04210556 -0.092565306 0.3744269 0.29966974 -0.07113653 0.4237382
-0.14159752 0.43787453 0.30047834 0.4849137 0.17430021 0.6041082 0.053987004 0.17616017
-0.13907577 0.115988635 0.029901057 -0.2898264 0.005981021 -0.25853753 -0.008210078 0.042894658
0.08535581 -1.7586046 0.5592221 -0.5734891 0.4404119 -0.08520872 0.23101053 -0.48482978
-0.51835775 -0.6662909 -0.36141652 0.010403147 0.16273856 -0.17785849 0.30446845 -0.21478933
0.2996537 -0.38976792 -0.55852544 -0.69765973 0.29654625 -0.17385072 0.22537361 -0.4532412
-0.029539613 0.24100591 -0.124235034 -0.0026220614 0.17632973 0.03383869 0.3364647 -0.04087401
-0.063822724 -0.08381154 -1.4703425 -0.023580061 -0.18161817 0.039651815 -0.15885492 -0.29362804
0.14609472 0.43001914 0.0019123061 -0.25473112 0.5568157 -0.04888675 -0.098490715 0.101412594
0.37465277 0.925262 0.23553367 -0.2982254 0.24286273 0.7569479 -0.8944759 0.079172
-0.018787349 0.21603508 0.041552924 0.2824488 0.014853783 -0.36449274 0.05680694 -0.19768347
-0.07847111 -0.04203508 0.034585938 1.3579485 0.16670212 -0.9988651 -0.48482934 0.40944138
-0.47395617 0.24352312 0.30984783 0.13552593 0.17166972 0.38191047 0.1265002 -0.42557302
-0.16738497 -0.40118515 0.33665973 0.35503688 0.48050183 -0.00624558 0.03606809 0.3002567
-0.045551665 0.17927909 -0.07237686 0.15663114 -0.17843908 -0.123149395 0.7795718 -0.032746583
0.17806178 0.07941688 0.025427883 0.049355663 0.25917885 0.18155631 0.28197625 0.7108981
-0.5001017 -0.18876632 0.39063564 -0.1349802 -0.13755028 0.052521598 -0.4238562 -0.03916512
-0.23224904 -0.105229154 -0.17860432 -0.381024 -0.56380165 0.71880347 -0.034877848 -0.13099603
-0.4193196 0.3131792 -0.25513646 0.27697134 -0.16765523 -0.06386932 -0.12260686 -0.09426173
0.043084748 -0.35138 0.037607618 0.038897566 -0.0741628 1.6505945 -0.61737883 0.31378666
0.23835154 -0.007734092 -0.13350554 -0.6141623 0.39148813 -0.26810604 -0.033129897 0.32050702
-0.048710566 -0.17985357 0.29903647 0.61094534 0.02228273 -0.07591357 0.5194763 -0.30797383
0.14415836 0.6431287 -0.05694855 -0.046099897 -0.017798599 0.7569224 0.04038585 -0.16404702
-0.35035184 -0.051577363 0.18694007 0.08729041 -0.0107122995 0.02055186 0.13225296 -0.6432161
-0.36314496 1.03924 0.3435766 -0.31458673 0.2554183 -0.23624508 0.28282386 -0.16007139
-0.06460481 -0.016163658 -0.3101735 0.108089626 0.47233722 -0.18172157 -0.46249744 -0.23871921
0.1497484 0.6470932 0.25174618 -0.1630437 -0.09680523 0.026839944 0.27017426 -0.17667684

fc1.bias f4 [128]
00000000: fbba f3bd 26a7 0cbe 0bd4 003e 5129 9d3c
00000010: 9f9a cdb9 f251 2cbe 9d4b 1c3e 5769 ecbd
00000020: 362c 9e3d 392f adbc d5a5 be3b c941 ae3d
00000030: 193c 3fbd 4707 48bd 3203 0e3e 936f 08be
00000040: 7b28 9f3d cc55 38bd 3ef5 6ebd 928a ee3d
00000050: e635 ee3c 82f3 25be d4ca 1e3e 3296 b0bd
00000060: d338 1a3e 48d4 5fbd e49c 2d3e 863f 513d
00000070: 7d3b 0cbc 5426 883d 9197 a3bb 8304 afbd
00000080: d074 c33d 45f6 e73d b96f b3bc e18a 273e
00000090: c341 2f3c 32dc bdbd 1489 c2bd b6d4 ee3d
000000a0: 7cf7 8fbd 3f8d e13d 4174 2dbe 2677 c13b
000000b0: f2c3 f6bd 39ff 7b3d 6dba 103e 3304 8b3d
000000c0: 9f01 74bd a6a9 27be 1c4a a9bd 5db4 d2bd
000000d0: a9ff 293e da10 bfbd ca4a 893d 102b 0f3e
000000e0: 68ce 803d d74e 1cbe 93c4 a1bc 1e99 55bd
000000f0: 6c08 e53d 9e25 86bc 5314 13bc 1e5d 1e3e
00000100: 5515 2a3d f0a3 a43d e047 66bd 9c59 e83d
00000110: 8d4a cf3c 283a 0fbd 1af5 083d c84e 0cbe
00000120: b2c4 c83b ec59 a33d 5f2a 27be 8830 bdbd
00000130: d3bc de3d 5485 883b b9b4 c9bb 06b7 933c
00000140: dc2f a0bd 1177 133e 4d3b 8ebc 4cc3 81bd
00000150: 77ac bb3d a093 14be 525b 04bd 96dd 8f3c
00000160: c9f6 5cbd 018b c13d 2c38 18be 40be 4cbd
00000170: 77f6 95bd 1da2 243e 7f26 8c3d c14c 05be
00000180: aa9f 8a3d 7b71 78bb 0621 243e f3f7 c43d
00000190: 1671 d0bd 25d6 1e3e 6af6 febc a05c 22bd
000001a0: 3cfb 533d 8c15 313e c078 573d 6645 2cbe
000001b0: b8e8 62bd ec00 263e 0943 7cbd d1f1 aabd
000001c0: 4b34 0ebe ef48 c3bd 1b94 c3bd bdf0 2a3d
000001d0: 6e73 8e3d 8207 2a3e 616f ea3d d1cb 0c3b
000001e0: ac30 c03d dafc cb3d 8ab3 19be 348e b43d
000001f0: bcc4 f3bd e4a6 093e 015f 9abd 9ece 153d
-0.11900898 -0.13735637 0.12580888 0.01918474 -0.0003921585 -0.16828135 0.15263219 -0.115435295
0.07723276 -0.021140682 0.0058181086 0.08508641 -0.046688173 -0.048835065 0.13868406 -0.13323812
0.07771393 -0.045003697 -0.05833935 0.11647524 0.029078435 -0.16206172 0.1550706 -0.086223975
0.15060739 -0.054645807 0.1695438 0.05108597 -0.008559105 0.066479355 -0.0049924334 -0.085457824
0.095437646 0.11326269 -0.02190386 0.16361572 0.010696831 -0.092705145 -0.09498802 0.11661665
-0.07029626 0.11013269 -0.16938879 0.005904096 -0.12049092 0.061522696 0.14133616 0.0678791
-0.05957186 -0.1637331 -0.08266088 -0.10288308 0.16601433 -0.09329386 0.06703718 0.13981271
0.06289369 -0.1526445 -0.019747054 -0.052147977 0.11183247 -0.01637536 -0.008977014 0.15465209
0.04152425 0.08039081 -0.05622089 0.11345217 0.025304103 -0.03496757 0.033436872 -0.13701928
0.0061269635 0.079761356 -0.16324757 -0.09237772 0.10875859 0.0041662846 -0.006155577 0.018031608
-0.078216285 0.14400889 -0.017362261 -0.06336078 0.091637544 -0.1450944 -0.032313652 0.017561715
-0.05394629 0.09450341 -0.14865178 -0.049986124 -0.073224 0.16077466 0.0684328 -0.1301756
0.06768735 -0.0037909437 0.16028222 0.09617605 -0.101778194 0.15511377 -0.031123359 -0.039639115
0.051753268 0.17293376 0.05260539 -0.16823348 -0.05539772 0.16211289 -0.061587367 -0.08346904
-0.13887136 -0.09535395 -0.09549733 0.041733492 0.0695561 0.16604427 0.11447025 0.0021483789
0.093842834 0.09960337 -0.15009895 0.088161856 -0.119027585 0.1344257 -0.07537652 0.036574

bn1.weight f4 [128]
00000000: fe07 743f 826a 7f3f 6aec 393f fc72 3c3f
00000010: f6d6 863f ebd7 973f 6f9f 2b3f 271a 593f
00000020: 2467 373f cdbd 2f3f d1dc 0e3f 686c 3e3f
00000030: 9456 5a3f 2e4d 443f 6461 543f f27f 213f
00000040: 1a21 0d3f 8a44 273f b190 233f a388 363f
00000050: a4ab 103f 8861 603f fb9a 1f3f 3636 613f
00000060: ca7f 3a3f 0914 0c3f 7ee2 093f 80ac 0a3f
00000070: 2064 8a3f c004 6a3f 98e2 383f a466 863f
00000080: f360 b63f fbf4 513f 3a2e 3d3f 6411 253f
00000090: 81ac 063f b85d 533f 1190 1f3f dd24 a63f
000000a0: 14e0 883f 3377 163f 8a64 253f 5cf0 3a3f
000000b0: 2d12 903f 18dc a33f fc6b 8a3f cbb3 893f
000000c0: 2faf 143f b28f 563f 04dc 793f 823a 253f
000000d0: 94db f53e 20f5 7b3f a941 713f 0651 713f
000000e0: 9edc 673f f204 903f 4fb7 133f 5868 343f
000000f0: f65d 9d3f 51e1 693f b1dd 4d3f d1cd 7c3f
00000100: b36c 743f 4526 133f 7f43 6c3f 7bee 5f3f
00000110: 0f96 313f 5521 19bb 612c 133f b1c1 813f
00000120: 158c 4e3f 009a 703f b8dd 623f 8232 063f
00000130: 031a 4b3f fdd2 233f afd2 2f3f 7b08 753f
00000140: 48e6 fc3e d7f3 4b3f 21a8 123f 2a0b 663f
00000150: dd63 163f 30f0 113f c7f2 8e3f 8440 453f
00000160: 2407 0d3f c084 5e3f 9dc8 fa3e 4e27 883f
00000170: 3520 b53f 0344 513f 4eaf ad3f 024d 593f
00000180: a8e6 183f 162b 3b3f 8748 813f c8ba 7a3f
00000190: 53c4 1e3f de60 663f 2052 413f dfec 65bb
000001a0: 6fdc 5f3f fea2 873f 8fa4 5f3f 2d3f 3c3f
000001b0: e64e 273f b5ca 283f 3f17 883f 8689 373f
000001c0: 89c6 0b3f 97bc 7b3f 3e27 693f 732a 623f
000001d0: 0784 973f d863 3e3f f549 763f 6210 523f
000001e0: 1c9b 2c3f e4cd 1b3f b670 633f 73c6 5d3f
000001f0: 02a2 fe3e 88c4 27bb b8e5 823f 0a7c 883f
0.95324695 0.99771893 0.72626364 0.7361295 1.0534351 1.1862768 0.6704015 0.8480553
0.71641755 0.6864899 0.5580569 0.74384165 0.8528836 0.76680267 0.82961106 0.63085854
0.55128634 0.6533896 0.63892657 0.7130224 0.565119 0.8764882 0.62345856 0.87973344
0.7285124 0.5471807 0.53861225 0.54169464 1.0811806 0.914135 0.72220755 1.0500073
1.4248337 0.82014436 0.7389866 0.6447966 0.5260697 0.8256488 0.623292 1.298
1.0693383 0.58775634 0.64606535 0.7302301 1.1255547 1.2801542 1.0814204 1.0757993
0.5807981 0.8381301 0.9760134 0.645424 0.48019087 0.98420906 0.94240814 0.94264257
0.9057101 1.1251509 0.5770158 0.70471716 1.22943 0.9135943 0.804164 0.9875155
0.9547836 0.5748027 0.9229049 0.8747327 0.69369596 -0.0023365815 0.5748959 1.0137235
0.806825 0.93984985 0.88619566 0.5242082 0.79336566 0.6399382 0.6868085 0.95716065
0.4939444 0.79668945 0.57287794 0.89860785 0.5874613 0.5700712 1.116784 0.7705157
0.5508902 0.8692131 0.4898118 1.0636995 1.4150454 0.817444 1.3569124 0.8488313
0.59726954 0.7311262 1.0100259 0.97941256 0.62018317 0.8999156 0.7551594 -0.0035083813
0.8744573 1.0596616 0.8736047 0.735339 0.65354764 0.65934306 1.0632094 0.7169422
0.54599816 0.9833464 0.91075504 0.8834602 1.1837167 0.743711 0.962066 0.8205625
0.6742418 0.6086104 0.8884386 0.86630934 0.49732977 -0.002559932 1.0226355 1.0662854

bn1.bias f4 [128]
00000000: 7cce dbbe 155d 25bf b3e1 cdbe 5cf9 afbe
00000010: f68e 49be 192c bdbe 76c9 c7be dda2 0bbd
00000020: eb1d 5e3d b803 21bf bdfb 37be cfe2 fdbe
00000030: d2dc 1ebf 2613 7cbe 85cc 05bf 86f5 b1be
00000040: 71a8 22bf 3cb3 cbbe 1e83 18bf c60e 0dbf
00000050: 619c 35b9 08e6 39bf ff18 c63c 2177 0abf
00000060: b3c1 ccbe df86 14bf c007 793d 57a1 bfbd
00000070: cbf6 49bf 3dbd acbe 9cd8 b9be a7af ebbe
00000080: 7b78 b3bd 9001 abbe 9175 62bf 460b 1a3e
00000090: c4ed c3be 23dd 2bbe 97a4 263e 38f2 88be
000000a0: 37f6 86be c9d4 50bf 8089 03bf 7dc0 6bbe
000000b0: d31f 0bbf 4a59 f6be 4a79 2dbf a24f 59bf
000000c0: 7ece 41be a9f0 1ebf c9e5 34be 4418 adbe
000000d0: ce44 1d3f 9488 d6be 797f fabc 3d9e 49be
000000e0: 3d43 33bd 4a18 bdbe acb2 9dbe 6028 2abf
000000f0: cdf1 19bf ed71 06bf 8479 25bf 8755 15bf
00000100: e5bb 18bf b0e4 9ebe a267 c13d ed3b 6ebe
00000110: 4c74 a3be ceeb d7bc 972a 10be 8d04 01bf
00000120: d3d6 4cbf 401d f9be 4843 80ba 93ad 25bf
00000130: e921 b3be 9a1f 9abe af53 5cbc ceef 26bf
00000140: ab31 c4bc 35f3 1dbf 6455 73be 67cb e6be
00000150: 6996 e9be 5ba6 4a3e 6ad7 95be fd62 66be
00000160: 6be1 59be 2889 3dbf ac13 8fbe 2d51 eabe
00000170: 539a c33d 7859 69be 5546 29bf 9742 92be
00000180: 75b4 bbbd 2756 a4be 27cd cabb fa2d d5be
00000190: 25e5 68be 9b67 bfbe 7b00 8fbe 60e1 b7bc
000001a0: 0c95 bfbe 9581 21bf 9536 d5be a249 a3be
000001b0: b189 24bf 3606 86bd 74b0 d9be f16d fcbc
000001c0: 8ce6 8fbe 6261 3bbe b8c9 7cbc cbf7 24bf
000001d0: da39 05bf 68ab 04bf 34ce 04bf e244 e9bd
000001e0: d447 56bf 7884 b1be 9c0c 3abf fb02 4ebf
000001f0: 7fd2 96be 08db a2bc 1f18 a2be ce71 0cbf
-0.42930973 -0.64595157 -0.40211257 -0.34369934 -0.19683442 -0.36947706 -0.3902089 -0.034090865
0.05422775 -0.628963 -0.17967124 -0.49587104 -0.62055695 -0.2461668 -0.522652 -0.34757632
-0.6353827 -0.39785182 -0.5957507 -0.5510067 -0.00017319761 -0.72616625 0.024181841 -0.54088026
-0.3999153 -0.58018297 0.060798407 -0.09356945 -0.788922 -0.33738127 -0.36298072 -0.4603245
-0.08763214 -0.3339963 -0.8846064 0.15043363 -0.38267338 -0.16783576 0.16273724 -0.26747298
-0.26359722 -0.81574684 -0.51381683 -0.23022647 -0.54345435 -0.48114997 -0.677632 -0.84887135
-0.18926427 -0.6208597 -0.17665781 -0.33807576 0.6143311 -0.41901076 -0.030578362 -0.1968927
-0.043765295 -0.36932594 -0.30800378 -0.6646786 -0.60134584 -0.52517587 -0.64638543 -0.5833363
-0.59661704 -0.3103385 0.094435945 -0.23265047 -0.31924665 -0.026357558 -0.14078747 -0.5039757
-0.80015296 -0.48655128 -0.0009785676 -0.6471798 -0.3498681 -0.30102235 -0.013447686 -0.6520966
-0.023949465 -0.6169923 -0.23763043 -0.4507706 -0.45622566 0.19790022 -0.2926591 -0.22498699
-0.21277396 -0.7403741 -0.27944696 -0.45765057 0.095509194 -0.22788036 -0.66122943 -0.2856643
-0.09165279 -0.3209698 -0.006189007 -0.4163664 -0.22743662 -0.37383732 -0.27930054 -0.022446334
-0.374184 -0.6308835 -0.41643205 -0.31892115 -0.642726 -0.065441534 -0.42517436 -0.030814143
-0.2810558 -0.18298867 -0.015428953 -0.644406 -0.520414 -0.51824045 -0.5187714 -0.113900915
-0.8370335 -0.34671378 -0.7267549 -0.804733 -0.2945747 -0.019879833 -0.31659028 -0.5486115

bn1.running_mean f4 [128]
00000000: a12b 983d 479c 25c0 4052 723f 03a9 f2bf
00000010: d62e fe3f e2eb e2be efea 00bf 46e0 a53f
00000020: 196b 923f f04d 6abf 0720 c43f 0f5e 9a3f
00000030: 9bfe 8cbe 1328 2ebf e049 4c3d e65d 613f
00000040: 1217 1bc0 8fde 1cc0 7d86 d4bf 0e82 39bf
00000050: 9484 80bf 2a5f 223e 36ba 6a3e ddc2 67bf
00000060: 9c62 ec3d cb91 233f 8133 1240 4a78 f8be
00000070: ce43 b5bf 6002 b5bd b838 923f 8998 9f3e
00000080: 5123 553f c72a 14c0 f82d 5fc0 2860 c13f
00000090: a17f 1cc0 ab31 c13f 389a 813e 8c52 2fbd
000000a0: 3e7a 953f 95b2 debf 067e 7ebf 2412 963f
000000b0: 2af5 4cbf 4012 75bf c6eb 3dbf 486f 52bf
000000c0: 7a93 503f 1cb4 1ac0 1959 0bbe 1be7 4ebf
000000d0: 9884 5fbc 909d 163f c6f8 063f 27d4 5e3c
000000e0: ef6e efbf 20d6 1d40 2354 e93f 4b78 84bf
000000f0: 7824 24bf 02aa d9bf bbbd 88be 3c85 10bf
00000100: e5b9 683f 4d06 bbbf f1ae b83f 0fdd 90bf
00000110: 3b6b 68bf 56e9 b53c 56f4 853f 98df cebf
00000120: 1416 41be 3658 29c0 003f a1bd c3db 5a3e
00000130: 3ca8 37bf 32c8 edbe ce5e 0d3e e0c0 fabf
00000140: 7f61 3dbf 8567 8c3f 948f 29bf 8c26 93bf
00000150: 359f a63f 24dd bf3f b87e 1ebf e074 01bf
00000160: 4cf6 693f 6f1d 30c0 5ced 96bf 70fb afbf
00000170: f191 493f 5dac 9abf ca31 d5be d38f 90bf
00000180: 0ca4 9d3e 8d00 ed3e d0d3 a7bd c6d0 e6be
00000190: 7a6a 68be aeb1 3cbf a6d5 393f 54eb 633d
000001a0: 19b8 10c0 7eda a5be f96e d3bf 4945 143f
000001b0: 5578 76bf 17cf a33d 563d 263f 467e b03f
000001c0: dc73 25be ed58 d83d 173e 9ebd 762b 983e
000001d0: 4a34 2dc0 a842 c73f 2632 bebf 2144 803e
000001e0: 32f3 423e 8a9d cfbe afc3 08c0 a4ac 33bf
000001f0: 9e2d 30c0 30c0 123e 1dd2 733d bf94 c0be
0.074301966 -2.5876634 0.94656754 -1.8957828 1.9858043 -0.4432059 -0.5035848 1.2959068
1.1438934 -0.91525173 1.5322274 1.2059954 -0.27538 -0.680299 0.04987514 0.880339
-2.423283 -2.451084 -1.6603543 -0.7246407 -1.004046 0.15856615 0.22922596 -0.9053171
0.11542246 0.6389434 2.2843935 -0.48529273 -1.4161317 -0.088383436 1.1423559 0.31171063
0.83257014 -2.315111 -3.4871807 1.510747 -2.4452899 1.5093282 0.25312972 -0.042803332
1.167793 -1.7398249 -0.99411047 1.1724286 -0.8006159 -0.9573097 -0.74187887 -0.8220105
0.8147503 -2.417243 -0.13608207 -0.8082139 -0.013642453 0.5883417 0.5272335 0.013600386
-1.8705729 2.4661942 1.8228801 -1.034921 -0.64118147 -1.7005007 -0.26707253 -0.564533
0.9090865 -1.4611298 1.4428388 -1.1317462 -0.9078862 0.02220599 1.046519 -1.6161985
-0.18856078 -2.646009 -0.078733444 0.21372895 -0.7174108 -0.464418 0.13805696 -1.9590111
-0.7397689 1.0969092 -0.6623471 -1.1496139 1.3017336 1.4989362 -0.6191211 -0.5056896
0.91391444 -2.7517965 -1.1791186 -1.3748608 0.78738314 -1.2083851 -0.4163955 -1.1293892
0.3078922 0.46289483 -0.08194697 -0.45081156 -0.22696868 -0.7370862 0.72591627 0.05564435
-2.2612364 -0.3239326 -1.6518241 0.5791822 -0.9627736 0.07998484 0.6493734 1.3788536
-0.16157478 0.10563836 -0.077266864 0.29720658 -2.7063165 1.5567217 -1.4859054 0.25051978
0.19038084 -0.4054988 -2.1369436 -0.70185304 -2.7527843 0.14331126 0.05952655 -0.37613484

bn1.running_var f4 [128]
00000000: 59a5 f13f 0c52 3641 af0d c340 4be2 7740
00000010: 1427 6c41 03d8 6341 eb5f f140 190a f740
00000020: f791 9b40 5cea 8441 8390 5e41 a210 0041
00000030: 1668 3241 f52e 8541 5f6f ab41 7b0c b541
00000040: 1a51 c041 cc77 df41 e465 f940 6efd 3341
00000050: cdcc fc40 fa26 b541 32c7 6b40 0a99 5941
00000060: deaa 8d41 2998 2241 5b22 3c41 a7f2 3641
00000070: 3521 6841 4f88 3740 f1a2 a940 f02a 5a40
00000080: 716c d940 b101 1b41 0d68 7f41 d116 3741
00000090: f0ec 6240 a3a4 b241 a340 8240 c97e ff3f
000000a0: d51b ca40 57bd 6f40 1509 5d41 87e3 3f41
000000b0: 65ee 7040 bc4c 3c41 cc09 c540 0bea d140
000000c0: ed1e 6241 1881 3441 5a6e 4640 a74e 6941
000000d0: c0d1 8040 3543 c540 2e01 a741 66be 873f
000000e0: 973a 7c41 5994 3241 37ef 9041 efed f440
000000f0: a2dd 6241 8d12 3341 ee37 9040 373c f840
00000100: 2ad5 6b41 f105 0541 e17e 7941 eba6 8640
00000110: 6d4b 1541 605c 913e fc36 3641 6de3 fd40
00000120: 14a4 5e41 a649 c340 1aaf 2641 cbcb 1e41
00000130: e81f 9c40 38e6 b940 ce33 2741 6a22 3841
00000140: 3926 6d41 0064 da40 dfdc b140 43f3 a040
00000150: af72 1a41 ee88 bf41 8c8e 5b41 369a b240
00000160: cd3b b041 74f1 1141 3fdf 5441 b91c 7241
00000170: 81d4 4941 a006 a440 3d95 9c40 d0be 8941
00000180: 1350 a841 7d81 af40 162f d43f 8664 4f41
00000190: 9bf8 6e41 99d5 c040 79bb cf40 bd94 3f3f
000001a0: 1363 fd40 5daa 4041 19fc b340 330a ea40
000001b0: d82c fb40 9fea 2441 055f bf40 b310 8841
000001c0: 97ca 9340 0ba6 d040 c0d6 cc40 080d e941
000001d0: 0c14 1c41 e172 e940 fd92 b740 e25a 0041
000001e0: 40fb ac41 fd1c 8140 a517 6741 61f1 b540
000001f0: b920 3b41 08bf b03e a20c 4e41 817a 5541
1.8878585 11.395031 6.0954204 3.8731868 14.759541 14.240237 7.5429587 7.7199826
4.861568 16.614433 13.910281 8.004061 11.150412 16.647928 21.42938 22.631094
24.0396 27.933495 7.793688 11.2493725 7.9 22.644032 3.684033 13.599863
17.708431 10.162148 11.758388 11.434241 14.508107 2.8676946 5.3011403 3.4088707
6.7944875 9.687913 15.962903 11.44307 3.5457115 22.330389 4.07039 1.9960567
6.3158975 3.7459314 13.814717 11.993049 3.7645504 11.768734 6.157446 6.5598197
14.13255 11.281517 3.1004853 14.581702 4.0256042 6.164454 20.875576 1.060498
15.764304 11.161218 18.116804 7.6540446 14.17911 11.192029 4.5068274 7.7573504
14.739542 8.313951 15.593476 4.2078757 9.3309145 0.2839079 11.388424 7.934012
13.915058 6.1027403 10.417749 9.924754 4.878895 5.809353 10.450148 11.508402
14.821832 6.824707 5.558212 5.029695 9.652999 23.94186 13.7223015 5.5813246
22.0292 9.1214485 13.304503 15.132012 12.614381 5.1258087 4.8932176 17.21817
21.039099 5.4845567 1.657687 12.962042 14.935695 6.026074 6.491635 0.7483633
7.918344 12.041593 5.6245236 7.313745 7.849224 10.307281 5.980349 17.008154
4.61848 6.520269 6.4012146 29.131363 9.754894 7.2952733 5.736693 8.022188
21.62268 4.0347886 14.443273 5.685715 11.695489 0.34520745 12.878084 13.342408

fc2.weight f4 [64, 128]
00000000: ad9d f8bd 9b9f 66be b5e8 163f acc1 023f
00000010: 9840 96bf 7022 0c3f 9d62 d63e 35a2 f73e
00000020: 0f1a f3be a7c3 973e 2e3f b0bd 4390 f7be
00000030: 90a3 0bbf 509e 923e c34b bdbe 0077 b7be
00000040: d33c 583e 18f2 2f3f fc85 63bf 8e7f 8f3d
00000050: 07b6 533f 4d96 223f 7583 7a3e 3f80 5a3d
00000060: 24d4 b63d ef13 0dbf 1f3b 08bf f9f1 5b3e
00000070: 79c3 113f 901f 0a3e fc69 b63e ae17 0d3f
00000080: ef53 a43e 0350 8ebe cb33 d23e 7d60 69bf
00000090: 04a7 e3be 797c 4bbf e8a2 5ebf 8622 e8be
000000a0: 3bad 4d3e 254e 79bf 2c1c 973c fb25 18bf
000000b0: 394d 6abe 818f 783e da72 fdbe eec3 9f3f
000000c0: 53ff 87bf ce18 d2be 0924 9b3e daed f13e
000000d0: 75df 963e d3ca ae3e d76d 86bc a7fd a33e
000000e0: 46da 46bf fccc 773f be72 88bd 40e9 dfbe
000000f0: ccee ac3e d1dc 2e3e 385c c9bc 6cde 5a3e
00000100: 0774 983e 2395 12be 7db6 8b3e 81b3 7f3e
00000110: f094 4abe ec40 d4bd 345a 0fbe 8d11 003f
00000120: 329b 4e3f 1562 dcbe acc3 77be 3f74 cabe
00000130: 99b3 27be 503d e83e 8494 363e dd02 f5be
00000140: f600 12bf 3051 02be 7983 3c3e d25c 943e
00000150: f5a2 d53d 0a5a 9cbe f75c cd3d 580d 92be
00000160: 7f35 c9be c0fd 9b3c f361 cc3e 1218 20bf
00000170: ba61 4dbf d66e 63bf 2306 f1be f4e0 383e
00000180: b00c 57bf 283f 25bf 9779 65bd 0770 58be
00000190: 0d0c 1abf 64b7 9fbf 6c2d dfbd 3f0b cabd
000001a0: e6db 33bf a1c4 c5bd 3a52 7f3e c618 f93e
000001b0: 3bd1 913e f463 203e b215 b93e ee4d 6f3e
000001c0: 0103 9ebc 914e 94bf 0aab 8dbf 8e30 82bc
000001d0: 03d8 a43e 3bc1 4fbb fe59 c13e ea69 ba3e
000001e0: 07e4 ffbe 4a54 2d3f 1a7a 313e 1cbf da3d
000001f0: 62f7 f2be 9d2b 823d 6e1a 2b3e 3975 333f
00000200: c334 86be 75f6 94bf 98c8 683e 83e8 a4be
00000210: 06f6 023f a4b8 00be b63a 21bd f7df 813d
00000220: 5775 8b3d 90b1 8abd b1df e43e d84f af3e
00000230: 1ccf 333e 08ca 2c3f 2944 903e 67eb 193e
00000240: 9d3c b6bd bfe6 b33d 2f38 9b3e 4878 efbe
00000250: e9d0 14bf f89b 88be 8046 353f c4f9 0e3e
00000260: bd86 04bf 3762 db3e 32d0 a9bf 5ed2 10be
00000270: 75bb b5bf 98c6 a73c 2653 8c3e c37e d0be
00000280: 5a0a aabc a4a5 4cbe a9a3 dbbe 6fee 12bf
00000290: 486b a03e d4dd 2dbf b24a 30bd 0efd f33c
000002a0: b1ea 393c 0120 963e ab43 9f3d 3217 1cbf
000002b0: d180 b1be f0a6 523e 134b 22bf fcf5 9c3d
000002c0: e1db 2cbf b82d 083f 9dbf 713f 6f7f 67be
000002d0: dc64 35be 128f cebe 7628 c73e efdb f5bc
000002e0: 1baa 283e e4e5 713e 0f71 85bf 76f1 c13e
000002f0: 48dc 02bf 94fd 00bf 16a3 ea3e 9488 a5be
00000300: 0cb5 d93d 2e9f 863e 2bae 30bf 6615 8b3c
00000310: 6496 22bf 960c e53d 14d4 1ebf 6d93 b63e
00000320: 70b0 bc3e 8ff8 e63d 61d2 093f 52f6 1a3e
00000330: 1786 d2be e35c b63e 8662 f9be ac1c c13b
00000340: e6a5 debe 53bc 84be be47 ea3d 78a3 dfbe
00000350: ea98 ae3e 28e0 4dbe 91a2 5a3b 292e 28bf
00000360: 7456 a4bf 0b1f d23c 1949 c0bd c552 72bf
00000370: 6b8d 473e 5385 123e ebd0 c6be 814b 84be
00000380: 8560 77bf 1872 b6be be95 0a3f 86ff 943e
00000390: 7624 483e 74d3 2cbf 595f 9ebe cab1 c53c
000003a0: 9a40 18be c9c8 f83d 76a3 79be fbb6 8cbe
000003b0: 45e1 a4be 75da 4a3f 12de abbf 4d56 0e3e
000003c0: a047 cebc 1666 36bf 3448 08be 5269 93be
000003d0: ca17 cebe 0525 b7be 172a d63e fffa a8be
000003e0: 7912 d6bb 9968 f5be 112a 9e3d 420e 14bc
000003f0: e89c 103e 5727 3f3d ea61 6a3d 4011 103e
-0.12139449 -0.22521822 0.5894883 0.5107677 -1.1738462 0.5474005 0.4187211 0.48365942
-0.4748082 0.29641458 -0.086058006 -0.4835225 -0.5454645 0.28636408 -0.36971864 -0.35832977
0.21116953 0.6872878 -0.8887632 0.07006751 0.82699627 0.6351059 0.2446421 0.05334496
0.08927181 -0.5510854 -0.5321521 0.21479024 0.5693889 0.13488603 0.35627735 0.5511426
0.32095286 -0.2779542 0.4105514 -0.91162854 -0.4446336 -0.79486805 -0.86967325 -0.4533884
0.20085613 -0.97384864 0.01844605 -0.59432954 -0.2288102 0.24273492 -0.49501687 1.2481668
-1.0624794 -0.4103455 0.3030093 0.4725178 0.2946736 0.34139118 -0.016409798 0.3202946
-0.7767681 0.96797156 -0.0666251 -0.43732643 0.33775938 0.17076422 -0.024580106 0.2137391
0.29776022 -0.14314704 0.27287665 0.24970819 -0.19783378 -0.10363945 -0.13999254 0.5002678
0.8070556 -0.4304358 -0.24195737 -0.39541814 -0.16377105 0.45359278 0.17830092 -0.47853747
-0.57032716 -0.12726283 0.18409528 0.28977066 0.10431472 -0.30537444 0.10027497 -0.28525805
-0.39298627 0.019041896 0.3991848 -0.6253673 -0.80227244 -0.88841 -0.47074994 0.18054563
-0.84003735 -0.64549494 -0.05602416 -0.21136485 -0.6017464 -1.2477841 -0.108973354 -0.09865426
-0.70257413 -0.096566446 0.2493371 0.48651713 0.28479943 0.15663129 0.36149365 0.23369572
-0.019288542 -1.1586477 -1.1067822 -0.015892293 0.32196054 -0.0031700868 0.3776397 0.3640893
-0.4997866 0.6770674 0.17331734 0.106809825 -0.47454363 0.06355975 0.16709301 0.7010074
-0.2621213 -1.1637713 0.2273277 -0.32208642 0.5115665 -0.12570435 -0.03936263 0.06341546
0.0680949 -0.067721486 0.44701913 0.34240603 0.17559475 0.67495775 0.28177002 0.15031205
-0.0889828 0.08784246 0.30316302 -0.46771455 -0.5813127 -0.26681495 0.708107 0.13962466
-0.51768094 0.4284837 -1.3266661 -0.14142749 -1.4197832 0.020480439 0.27407187 -0.40721712
-0.02075689 -0.19985062 -0.428983 -0.5739507 0.3133185 -0.6791661 -0.043039985 0.029783752
0.011347459 0.29321292 0.077765785 -0.60972893 -0.34668592 0.20571494 -0.63395804 0.07664105
-0.6752301 0.5319476 0.94433004 -0.22607206 -0.17714256 -0.4034353 0.38898057 -0.0300121
0.1647114 0.23622853 -1.0425128 0.37879533 -0.5111737 -0.5038693 0.4582755 -0.32330763
0.10630235 0.2629332 -0.6901576 0.016977977 -0.6351073 0.11184041 -0.62042356 0.35659352
0.3685336 0.112778775 0.5383664 0.15133026 -0.41117927 0.35617742 -0.4870798 0.0058933105
-0.43485945 -0.2592493 0.11439465 -0.43679404 0.3410104 -0.2010504 0.0033361057 -0.65695435
-1.2838883 0.025649568 -0.09388942 -0.94657546 0.1948754 0.14308672 -0.38831267 -0.25838855
-0.9663165 -0.35633922 0.5413474 0.291012 0.19545159 -0.6751015 -0.3093212 0.024132628
-0.14868394 0.12147672 -0.24378762 -0.27483353 -0.32203117 0.7923959 -1.3427145 0.13900109
-0.025180638 -0.7124952 -0.13308793 -0.2879129 -0.40252525 -0.3577043 0.41828987 -0.33003995
-0.006532964 -0.47931364 0.07722867 -0.009036602 0.14122355 0.046668377 0.057222284 0.1406908

fc2.bias f4 [64]
00000000: dff4 02bc 64c0 48be be10 e7be 1801 10be
00000010: ca37 bebd 07cc 803e e6f5 6cbe 8d1b 0cbf
00000020: ee24 a6bd 61dc e8bd 935b 78be 2d1e debe
00000030: 25b9 93be 02be 843c 13a1 37be 539a 5abe
00000040: 0e1f 283e 3600 43bf a2ef 0b3f a62d bd3e
00000050: 6e8c 1ebf e083 22bf 909e 8f3e 1d49 82bc
00000060: d7f8 ecbd 5ca8 f3bd c600 60bc 5872 fabe
00000070: fdf6 a9be 7d6b d1be 24d5 2dbe 44c2 62bd
00000080: 3876 a63d 50d2 f4be 27ca c23d 5f69 9fbe
00000090: 6981 4abe b052 36bf 217e 04bf de30 ad3e
000000a0: 5fd8 353e f5c4 283e 4777 92be 15b9 23bf
000000b0: c143 bb3e 7a72 d23d 7e74 b83d f01c 43bd
000000c0: e1be 41be 27c9 9cbd 27e8 69be 0989 7d3e
000000d0: 1400 8abe a04c 5bbd e67e a7be d7e9 84be
000000e0: ab47 563e 87d4 b6be 12aa acbe fbdc c6bd
000000f0: 084b a7be a786 e4be 9217 aabe 400f dd3d
-0.007992952 -0.19604641 -0.4512996 -0.14062917 -0.09287985 0.2515566 -0.23140678 -0.5472954
-0.081125125 -0.11370159 -0.24253683 -0.43382397 -0.28852192 0.016203884 -0.17932539 -0.21347933
0.16418096 -0.76172197 0.54662526 0.3694889 -0.6193303 -0.63482475 0.2805066 -0.015904004
-0.115709 -0.118973464 -0.013672059 -0.48915362 -0.3319625 -0.4090232 -0.16975838 -0.055361047
0.08128017 -0.47816706 0.09511214 -0.3113508 -0.19775929 -0.7121992 -0.5175496 0.33826345
0.1775832 0.16481383 -0.28606626 -0.6395429 0.3657513 0.10275741 0.09006594 -0.04763502
-0.18920471 -0.07655554 -0.22842465 0.24759306 -0.26953185 -0.053539872 -0.32714003 -0.25959656
0.20925777 -0.3570902 -0.33723503 -0.097101174 -0.32674432 -0.44633982 -0.33221108 0.10793924

fc3.weight f4 [4, 64]
00000000: e638 0b3f 959e 83be 912e f23d c5e4 3f3f
00000010: 9a66 153f b3d6 0d3f e239 37be 0b5c 6f3e
00000020: 7ffa 503f af04 75be 6239 1c3e ca0d 633e
00000030: 1be8 443f 638f 46bd f8b5 a73e 615f 143f
00000040: b998 35bf e738 493f a8f7 87bf c93c 4d3f
00000050: 41d5 2f3e 773c b13e 7c06 ddbe aa87 1cbe
00000060: 1593 203f c3fb 26bf 5f8a 90bf c84b edbe
00000070: 422b cdbe e965 e43e 9876 25bf 8651 7ebe
00000080: a8bf fbbe d366 54bf c027 533f 9542 1cbf
00000090: 3b83 ff3e 0c62 b3be 52d4 873e 0457 0bbf
000000a0: d411 af3e 6ec6 453d 5232 17be b404 223e
000000b0: b4e7 9a3e 87af 5b3e ed06 fe3e cc2f d33e
000000c0: 3f03 ee3e 345b 283f 0219 ccbe 3b67 293e
000000d0: 3b36 743d f015 453e 7a97 46be f5a8 6a3e
000000e0: 4bde 1b3f 0378 8fbe 53ae 9d3d 2de9 28bf
000000f0: c253 c7be 3f4d 81bd 942e 9ebe b54b 223f
00000100: 868d ee3c 741f ca3e d6db 51bf b1e6 ab3e
00000110: fcba 06bd 63e2 063e 97e4 40be e33f e3bd
00000120: 215e 453e 6d34 fb3e 0539 0bbe 7cdc a7be
00000130: cfa2 4cbf 07f5 18bf bc6d 7e3d 44a4 b73d
00000140: b7ee e4be 3821 e6be 4470 81bf e970 c83d
00000150: e5a2 423f 5d7c 4ebe 8531 9ebe 0b47 f6be
00000160: 1366 9abd f4c9 e93d 9bec d5be d87a 2abf
00000170: 0dcc 503e 6abb 0abe cd67 e3bd 6118 e4bd
00000180: dadc 19be 5cae 773e 223b 8d3d 273b 04be
00000190: f815 823e bcec 1f3f d975 5fbe a44a b13e
000001a0: 9a5f a23c 1d80 ad3e e1eb 2ebf a1b9 01be
000001b0: 75bb 29be 2d78 a13e 012a b5bc 9a91 453d
000001c0: f0d1 5a3e 4bad a53e 0960 4b3f 734b 3dbf
000001d0: 0711 183e f554 7bbe a560 003f c929 233f
000001e0: b0ca a1bd 440d 493f 81f9 1a3e 6385 38be
000001f0: 5261 3e3f 2d8a ccbd 1c5d fcbe d6ba 383f
00000200: d76f 903f 19ef 25bf f719 92be b2a8 24bd
00000210: cfbe 4a3e 0d37 733e bd50 c13e 11eb 8d3f
00000220: 591c 03bf cdc2 11bf 9d9e 3dbf 414a fbbe
00000230: 0037 303f 6926 24bd 4814 05be 7475 7c3e
00000240: 0689 c8bd 123b 3fbe 9050 823f 0286 4d3f
00000250: 6923 7c3f dca4 5fbf e49d 8e3e a7f2 32be
00000260: c6c7 8ebd aed8 06bf 4661 eb3e 7b9c 7cbe
00000270: a000 27bf 62c7 ec3f bd6c 8c3f e52c f0be
00000280: 3293 e3bd 9715 bd3e 7967 bf3f f303 ef3e
00000290: c942 1e3f 466e 303e ddfc 04be 5ad4 ff3d
000002a0: 9d75 303f 411d 8a3d d9f6 923e 0b77 293f
000002b0: a945 7bbd 7dc3 843f e082 113f dd41 7bbe
000002c0: 0c37 ed3e 92ad 6abd 7a1e da3d 1436 cc3e
000002d0: 150c f93e 2062 a3be d086 5bbf 10d0 2f3e
000002e0: 9be8 a83f 24fd 213f 1829 54bf 4f46 9fbe
000002f0: df5b c9bd de59 abbe 9568 823e 1f46 8a3f
00000300: ad19 683e 5437 46bf b01e 7dbe 5233 003f
00000310: b591 923f b459 36be 62fa fa3f 8a16 ab3d
00000320: 26e9 923e 293f 9a3e 6010 a23e f079 083f
00000330: d328 7bbf d9dd a4bc 9583 88bd 89ee 85bf
00000340: 94e0 2bbf e33f 72bf e177 c43e a659 8ebf
00000350: 6610 883f dceb 90be 8f59 383c b76b 8d3f
00000360: 2cba 893f 3a36 0ebf 2463 7cbe 3346 eb3d
00000370: 3846 ad3d f442 95be ffe1 a43e d02f 80bd
00000380: c25b 8ebd c753 993d 09aa a8be 4583 1e3f
00000390: c14b aa3f 028b af3d d5db 54bf 62e8 54be
000003a0: 99e6 1c3f 0536 94bd 7fa7 223f 9268 203e
000003b0: 6946 fd3e dae0 fcbe bc7c 64be 2c9c b4bf
000003c0: c940 533e df77 e2bd d31f acbe b2b8 2fbf
000003d0: b12d 063f 0f9a 1d3f 4bc0 b63f 2f57 3e3e
000003e0: 4930 73be a98c 39bf f20b d03a d62a 2ebd
000003f0: 5c8b 833e 0c52 513f 0c1f 5dbe c2d1 63be
0.54383695 -0.25706926 0.11825288 0.7495845 0.5835968 0.5540573 -0.17893174 0.23374955
0.81632227 -0.23927568 0.15256265 0.22173229 0.76916665 -0.048476588 0.3275602 0.57958037
-0.7093616 0.7860245 -1.0622454 0.80170876 0.17171194 0.34616444 -0.4316901 -0.15286127
0.6272443 -0.6522791 -1.1292228 -0.4634688 -0.40072066 0.44609 -0.64634085 -0.24835786
-0.4916966 -0.829694 0.8248253 -0.61039096 0.49904808 -0.3503574 0.26529175 -0.5442965
0.3419329 0.04828494 -0.1476529 0.15822107 0.302549 0.21453677 0.4961466 0.41247404
0.46486852 0.65764165 -0.3986283 0.16543286 0.05962203 0.1924665 -0.19393721 0.22916014
0.6088607 -0.2802125 0.07699265 -0.659808 -0.3893109 -0.06313562 -0.3089491 0.6339677
0.029120218 0.39477122 -0.8197607 0.3357444 -0.032893166 0.13172297 -0.188372 -0.1109617
0.19274189 0.49063435 -0.1359597 -0.32785404 -0.79935926 -0.5974888 0.06211637 0.08966878
-0.44713375 -0.4494722 -1.0112386 0.09787161 0.7602981 -0.20164628 -0.30897155 -0.48101076
-0.07539 0.114154726 -0.41782078 -0.66593695 0.20390339 -0.13548055 -0.11103783 -0.111374624
-0.15025654 0.24187607 0.06896044 -0.1291319 0.25407386 0.62470603 -0.21822299 0.3462726
0.019820977 0.33886805 -0.6832867 -0.12668468 -0.16575415 0.31537 -0.022114756 0.04823456
0.21369147 0.32358775 0.79443413 -0.7394325 0.14850245 -0.24544127 0.5014747 0.63735634
-0.07899988 0.78535867 0.1513424 -0.18019633 0.7436725 -0.099872924 -0.49289787 0.7216009
1.1284131 -0.6481796 -0.28535435 -0.040199943 0.1979935 0.23751469 0.3775691 1.1087362
-0.5121513 -0.5693787 -0.7407015 -0.4908009 0.68833923 -0.040075693 -0.12996018 0.2465418
-0.0979176 -0.18674877 1.0180836 0.80282605 0.9849153 -0.8736093 0.27854836 -0.17475377
-0.069716975 -0.52674377 0.4597265 -0.24669068 -0.6523533 1.8498347 1.0970684 -0.46909252
-0.1111206 0.36930534 1.4953452 0.466827 0.61820656 0.17229566 -0.12987085 0.12491675
0.68929464 0.06743861 0.28703955 0.6619727 -0.06134573 1.0372158 0.56840324 -0.24536844
0.4633106 -0.057294436 0.10650344 0.39885008 0.4864203 -0.319108 -0.8575258 0.17169213
1.3195986 0.63276887 -0.82875204 -0.3110833 -0.09831976 -0.33467 0.25470415 1.0802649
0.22666045 -0.77428174 -0.24718738 0.5007831 1.1450716 -0.17807657 1.9607661 0.08353908
0.28693503 0.30126312 0.31653118 0.5331106 -0.9810917 -0.020125316 -0.06665722 -1.046342
-0.67139554 -0.94628733 0.3837271 -1.1121109 1.0630004 -0.28304946 0.011251821 1.1048497
1.075994 -0.55551493 -0.24647194 0.11487999 0.08460659 -0.29152644 0.3220367 -0.062591195
-0.06951095 0.074866824 -0.32942227 0.6191905 1.3304368 0.085714355 -0.8314794 -0.20791772
0.61289364 -0.07236866 0.6353683 0.1566489 0.4946778 -0.49390298 -0.22313207 -1.411016
0.20630182 -0.1105802 -0.3361803 -0.686412 0.5241347 0.615632 1.4277433 0.18587945
-0.23748888 -0.72480255 0.0015872701 -0.04252132 0.2569226 0.8176582 -0.21593875 -0.22247985

fc3.bias f4 [4]
00000000: 3a36 783d 5168 243e 1077 9cbe 2149 a1be
0.06059859 0.16055419 -0.30559587 -0.31501105
