checkpoint_oneArm.pth (torch_old, 57922 bytes, 19 tensors)

hidden_layers.0.weight f4 [64, 33]
00000000: d0a9 7c3e fbde ae3f f16a d2be 8fab 4d3f
00000010: 6877 d53c 0151 babe 5c4b 90be 121b 32bc
00000020: eef8 1ebf 0cdf 51be 3574 903c b322 3a3f
00000030: 9a7b f53c ac16 e3be d6f1 c03e e25d 433e
00000040: f81b c5be 7602 a93f 465a a63f 9184 f4be
00000050: 5e09 74be cb89 8bbe e653 e93d 0357 62be
00000060: cb50 163d a914 8c3e b4b0 1a3f d64a 0b3f
00000070: 8a76 363e 2c02 dd3d ab3c cdbe d415 293e
00000080: d2d3 2640 5d48 12bf ed69 aabf 6562 65bf
00000090: ac6d 64be c323 d73f 1e29 80bf 8e34 15c0
000000a0: a76e 613c e6c1 10bf c296 843e 67d2 4abe
000000b0: 5f81 19bf e0d5 bf3e e0e5 ebbe f29b 14bf
000000c0: 6dde 2f3e 18ed 813f 20d1 02bf acb4 fabf
000000d0: 036a 503e 9561 f53e c033 12bf 1a3f 103f
000000e0: 5e5d 503d 16cf 6fbd 8090 563d 75fe d23d
000000f0: 3c58 3abe 7303 7c3d 4070 d83d 0636 653e
00000100: 80d8 c7bd e14a 72bf f91e 75be 27a2 56be
00000110: 360a 9d3f f1e5 e8be 8a44 83bf 0ac6 00be
00000120: ef22 39be ba73 003e bb95 44bf 1887 4e3e
00000130: 2bfd 07be 7627 da3c f4eb 93bc 54ce 84bd
00000140: 6921 213f 3102 62bf 7606 1ebf 3829 2d3e
00000150: b505 1ebf 140f 4cbd cf4d 5cbc 851f 92be
00000160: c163 1e3e 9d6c 4dbe 1d94 893e 2a2b 01be
00000170: 2401 1bbe 5cdf a13e 3db6 373f 9527 a9bd
00000180: 7c23 5cbe c86f ff3c 996b 2a40 0d93 33be
00000190: 6c53 213e 61cd db3e 3905 043e 4f8f 933f
000001a0: 0534 313f 9ff9 c73e 9a37 a8bd e71d 77bf
000001b0: b959 793e c2b2 80bd 9947 1f3e 3587 69be
000001c0: 7141 0b3e 3a43 1c3e 4a19 26bf bebe a23f
000001d0: cff2 0f3f c1f3 60be 82fd 7dbf dcd8 3abe
000001e0: bb5b 2e3e 715b c53c e3bb b93c a487 303e
000001f0: 5921 08be b4ae 28bd 5783 563f dc27 4b3f
00000200: 4c69 cd3d 6d0a 57bf 3e68 ddbd 54ff 6ec0
00000210: 5ab5 0b3f e238 55bf bc21 19be d179 593f
00000220: b790 5d3f aebe 47bf f108 523f 6c2a f8be
00000230: ff50 62bd defb 363f 2e8b c7be d6cc bbbe
00000240: 3537 a6be 5d23 9ebc d225 983e 9827 2bbd
00000250: 7e55 843f c9ed a3bf 4f05 4d3f 7cfd e83f
00000260: 48b4 c6bd e06f 423f ecb2 d43e 1c4e 093f
00000270: 210d 1abe 8e68 36bf 4aad ac3e 4b37 23bf
00000280: b3ae bebd e62a 893d cbeb 223f ace8 e63d
00000290: dbc5 e2bf 52ed ff3e 1b25 5b3d 64ac 58be
000002a0: eb47 1abf 2a5c a5bc 1b2c 9bbe f62f 8abf
000002b0: 5e16 e2be f67e 25bf 013b 1f3f eae9 c73e
000002c0: 226d c3be b3e6 9ebe 69b5 a03e 3110 0c3e
000002d0: bcdd ecbd 05fa 23bf 53d1 773f 20a4 b93f
000002e0: 965b dd3d 8f05 733e 2371 89be b09d 43bd
000002f0: 8875 873e fe1b 87be df49 d23e 9c83 92bd
00000300: df86 5ebf c8b9 f03e f009 013e 813f 2a3f
00000310: 786b a73d 48c4 8ec0 47cd 5dbf 5e45 da3e
00000320: cb03 82bf 8aa0 5d3f ef7d 4240 9b5e 5e3d
00000330: 0084 2340 dd8d aa3e fe51 b13e 11e4 d1be
00000340: ace4 e9bd ec8f a93b b76c 32be f2ba 0e3e
00000350: 2950 0abf 6598 48bc 07ec fbbe 8c31 c83e
00000360: 9bc0 0f3f 47f6 1740 f813 703b 4e96 f9bd
00000370: 1784 40bd 8192 56be 121a 72bd aa8c 873d
00000380: e8fc 32be 02fe e03d 931d d93e f0ad 013e
00000390: eec1 c6bd 1096 283e 2777 d13e 52de f73e
000003a0: 41fe 1a3e a8aa 76bf cf26 5dbe 50e7 7b3e
000003b0: 96b5 8ebd c647 563f 32c9 533e 155e 02bf
000003c0: 0168 17bd 0ed0 9ebb ef08 503e b280 b0bd
000003d0: 95b4 01be 814b 253f 3b57 553e c678 363f
000003e0: 371e 333f fc29 883f 675f eabf 6d89 273e
000003f0: 7a6e b8be f137 dcbe 4f13 cabe e26a b93e
0.24674153 1.3661798 -0.41097215 0.803399 0.026057914 -0.36389926 -0.28182495 -0.010870712
-0.62098587 -0.20495242 0.017633537 0.72709197 0.029966164 -0.44353235 0.37684506 0.19078782
-0.384979 1.3203876 1.2996299 -0.4775739 -0.23831698 -0.27253565 0.113929555 -0.22103505
0.036698144 0.27359512 0.6042588 0.54411066 0.17818657 0.1079143 -0.40085348 0.16512233
2.6066785 -0.5714167 -1.3313576 -0.89603263 -0.22307462 1.6807789 -1.0012548 -2.3313327
0.013759292 -0.56545866 0.2589627 -0.19806825 -0.5996303 0.3746786 -0.46073818 -0.58050454
0.17174692 1.015048 -0.5110035 -1.9586387 0.2035294 0.47926012 -0.57110214 0.56346285
0.050870292 -0.058547102 0.0523839 0.1030244 -0.18197721 0.061526727 0.10568285 0.2238389
-0.09758091 -0.94645506 -0.23937596 -0.20960294 1.2268741 -0.4548793 -1.0255291 -0.12575546
-0.18079732 0.12544146 -0.7679097 0.20168722 -0.1328017 0.026630145 -0.018056847 -0.064846665
0.62941605 -0.88284594 -0.6172861 0.16910255 -0.6172746 -0.049819067 -0.013446285 -0.28539672
0.1546774 -0.20060964 0.26870814 -0.12614122 -0.15137154 0.31615722 0.7176245 -0.08259503
-0.21497911 0.031181231 2.6628172 -0.17536564 0.15754479 0.4293013 0.12892617 1.1528109
0.6922 0.39057633 -0.0821373 -0.9653 0.24350633 -0.06284095 0.15554656 -0.22805484
0.13599183 0.1526002 -0.6488234 1.271446 0.5622987 -0.21967985 -0.9921495 -0.18246788
0.1702718 0.024091454 0.0226726 0.17239243 -0.13293971 -0.041182235 0.8379416 0.79357696
0.100298494 -0.84000283 -0.10810898 -3.734334 0.54573596 -0.8328992 -0.14954275 0.849515
0.8654894 -0.7802533 0.82044894 -0.48469865 -0.055253025 0.7147807 -0.38973373 -0.36679715
-0.32463995 -0.019303972 0.29716355 -0.041785806 1.033859 -1.2806941 0.80086225 1.8202357
-0.09702355 0.7595196 0.41542757 0.5363481 -0.15044071 -0.7125329 0.3372596 -0.63756245
-0.09310665 0.06697635 0.6364104 0.112748474 -1.7716631 0.4998575 0.053502183 -0.21159512
-0.6026599 -0.020185549 -0.30307087 -1.0795887 -0.4415769 -0.6464685 0.6219941 0.3904565
-0.381692 -0.31035385 0.31388405 0.13678052 -0.1156573 -0.64053375 0.9680378 1.4503212
0.10808484 0.23732589 -0.2684413 -0.047757804 0.26456857 -0.26388544 0.41071984 -0.07154009
-0.86924547 0.4701674 0.12601447 0.6650315 0.08174795 -4.46146 -0.86641353 0.42631048
-1.0157408 0.8657309 3.0389364 0.05428944 2.5549316 0.33311358 0.34632868 -0.40994313
-0.11420569 0.0051746275 -0.17424284 0.13938501 -0.54028565 -0.012243365 -0.49203512 0.391003
0.5615327 2.3744066 0.0036632996 -0.121868715 -0.04700097 -0.20954324 -0.059106894 0.066186264
-0.17479289 0.10985948 0.42405376 0.12664008 -0.09704958 0.16463494 0.4091122 0.48411804
0.15136053 -0.9635415 -0.21596836 0.24599957 -0.069682285 0.8370327 0.20682219 -0.5092481
-0.03696442 -0.0048465794 0.20315908 -0.08618297 -0.12666543 0.64568335 0.20834057 0.71278036
0.6996798 1.0637813 -1.8310364 0.16361018 -0.36021787 -0.4301143 -0.39467856 0.36214358

hidden_layers.0.bias f4 [64]
00000000: 53bd a5be f4fb 3bbd 8d9b 8ebe 2d62 92bf
00000010: a58e 363f 132c 4c3f 404a 20be e70f 7dbf
00000020: 2bcf 60bf dbc7 c5be 9acd 8dbe c7af 693f
00000030: d8d1 b1bf 7dd5 1cbf 2b89 183e 1a3b 85be
00000040: ed1e dabe 6b63 b6bd 3c58 83bf 389b c6bf
00000050: 37f9 a13e 8514 50be fdfb afbe 47b8 463e
00000060: 7eeb 05bf 001c 00c0 57e4 6bbe 999b 323f
00000070: 5cde b23d d589 ccbe abbf 55bf f889 80bf
00000080: 38e5 3fbf 910e 113f 080e 49be 133b 57be
00000090: 1ed4 7e3d 543f 5ebf b9a8 b8bf 9974 94be
000000a0: 2992 1ebf 6111 3abf 26c9 553e d5e2 7fbf
000000b0: 7031 cdbe 7d1e e0be 80e7 65bf 74ac c3bf
000000c0: 13d4 e5be 5485 a7be 7460 11be a5a7 b4be
000000d0: 8e20 6c3f 4b5e d8be 6861 fbbe 72c4 933f
000000e0: 9dd6 83bf 7e9f 49bf ad87 e63f 2a61 8bbf
000000f0: 1183 ee3e 9502 57bf 30fd 91be 37de 4ebf
-0.32371005 -0.045894578 -0.2785305 -1.1436211 0.7131141 0.7975475 -0.15653324 -0.9885239
-0.87816113 -0.3862904 -0.27695924 0.9128384 -1.3892164 -0.6126326 0.14896075 -0.26021653
-0.4260172 -0.08905681 -1.0261302 -1.5516119 0.31635448 -0.20320328 -0.3437194 0.19406234
-0.5231246 -2.001709 -0.23036323 0.69768673 0.08733818 -0.39948907 -0.8349559 -1.0042105
-0.74959135 0.5666285 -0.19634259 -0.21018629 0.06221401 -0.8681538 -1.442649 -0.28995207
-0.6194177 -0.7268277 0.20877513 -0.99955493 -0.4007678 -0.4377326 -0.89806366 -1.5287004
-0.44888362 -0.3271891 -0.1419695 -0.35284153 0.92237175 -0.4225944 -0.49097753 1.1544325
-1.029987 -0.7875899 1.8010155 -1.0889027 0.4658437 -0.83988315 -0.2851348 -0.8080782

hidden_layers.1.weight f4 [64]
00000000: 39e7 193f 27c5 253f 19dd 543f 6f89 8c3f
00000010: 3b84 853f 8908 673f 2cf4 5a3f c457 2c3f
00000020: 8915 e33f debd 163f 51c9 9f3f 6254 853f
00000030: 49da 783f b1a5 6c3f 2780 7a3f 7c3c 823f
00000040: 9d8f 473f d0bc 853f ba29 413f 53ab 06bf
00000050: a325 783f f595 4a3f 3dea 273f f898 293f
00000060: 936a fa3e d6f9 683f b2c2 a03f aab5 1e3f
00000070: ff02 8a3f 14ff 323f 3000 103f c950 773f
00000080: a21c 4c3f e956 a23f 1816 8a3f 19ef 4d3f
00000090: 1095 933f 7224 643f 2775 523f 028b a03f
000000a0: 0065 b83f e19f 8d3f b999 253f f1e7 a33f
000000b0: 86a2 da3f b914 8d3f 21a8 763f 4ae9 8e3f
000000c0: 5ce0 ae3f d9bd 503f aa37 5d3f 5688 713f
000000d0: c09e 473f 08ed 16bf c58d 2f3f 0d74 163f
000000e0: cf8d 653f 1967 8d3f 8773 153f d80e 5a3f
000000f0: 00a2 543f 9f9c 583f 6d13 943f 32cb 203f
0.6011844 0.64753956 0.8314987 1.0979441 1.0430979 0.902474 0.85528827 0.6732142
1.7740947 0.58883464 1.2483312 1.0416377 0.97208077 0.92440325 0.97851795 1.0174708
0.7795351 1.0448246 0.75454295 -0.5260517 0.9693243 0.79135066 0.65591794 0.66249037
0.48909435 0.9100622 1.2559416 0.6199595 1.0782164 0.6992047 0.56250286 0.96607643
0.7973119 1.2682773 1.0787992 0.8044296 1.1529865 0.8911811 0.8221001 1.2542422
1.4405823 1.1064416 0.6468769 1.2805158 1.7080848 1.1021949 0.96350294 1.1164944
1.3662219 0.81539685 0.8641306 0.9434866 0.7797661 -0.5895543 0.685757 0.5877083
0.8966951 1.1047088 0.58379406 0.851789 0.8305969 0.84613985 1.1568428 0.6281005

hidden_layers.1.bias f4 [64]
00000000: 37bf 06bf 3622 28bf 1a9c a03e 2428 833d
00000010: b4c2 a33c 515e 8b3e 1f54 b73e 5058 59bd
00000020: fe2c a93e d8b5 d13c 8156 4e3e 1e13 613e
00000030: 1ddc e53e 1529 4f3f c876 0dbf ed2e df3d
00000040: 84ac f4bc b7a6 5dbe 078c 003e 9522 87be
00000050: f95b b83c 4c48 7ebe ca63 cd3d bd3e ddbe
00000060: 3098 a2be f577 ef3e 7013 cdbd c32f 533f
00000070: dcbf 23be 29cb 5abf 9be3 31bf 97de bcbe
00000080: 0277 2a3f 3db9 33bc 6ae2 bc3e 3669 63be
00000090: d9a1 6b3e 7085 11be 3a58 423f 8978 903f
000000a0: cf04 26bf 216b 793f 7d57 713f 3738 2d3f
000000b0: 25d5 b83b fc21 21be fc96 0bbe 4403 8e3e
000000c0: 7ee3 25bf 764c e83d 5626 183f a814 3e3e
000000d0: e46e 313f bd0e 59bf 920a e93e c61e 323f
000000e0: 4d5f 343f f7e0 dc3e dbf0 79be 4c02 e7bd
000000f0: e858 423f 5955 ff3e 8b15 88bd 6900 1f3f
-0.5263552 -0.656772 0.31369096 0.064041406 0.019990303 0.27220395 0.35806367 -0.053062737
0.3304214 0.025599405 0.20150186 0.21979949 0.44894496 0.8092206 -0.5525937 0.10897622
-0.029867418 -0.21645628 0.12553416 -0.26393571 0.022504793 -0.24832267 0.10028799 -0.43211928
-0.31756735 0.46771207 -0.10013473 0.82494754 -0.15991157 -0.8546625 -0.69487923 -0.36888573
0.6658784 -0.010969457 0.3689149 -0.22208104 0.23010959 -0.14211059 0.75915873 1.1286784
-0.6485109 0.9742909 0.9427412 0.676639 0.005640643 -0.1573562 -0.13631815 0.27736866
-0.6480025 0.11342709 0.59433496 0.18562567 0.6930983 -0.84788114 0.45515877 0.69578207
0.7045792 0.43140385 -0.24408285 -0.11279735 0.7591691 0.49869803 -0.06644734 0.6211

hidden_layers.1.running_mean f4 [64]
00000000: 9d92 acbf 4b0c c840 04a2 f5be 937c 7fbf
00000010: e5c0 9140 659b 1140 ea62 d13f a29d 8bbc
00000020: d6eb 86bd 9f48 a13f c55e 02be c2dd 5640
00000030: 06fb 45bf 7130 663f 4eb7 1240 3dc3 96bf
00000040: 2878 13be 331a 8b40 01f5 93be aeba c0bf
00000050: 3af7 aa40 fabc c7be c4b5 cdbe dc6e 2940
00000060: ed93 4340 c258 a9bf 5ee1 2ebf 874f 8940
00000070: 04bd 93be 909b 8240 42f6 1d3f d1c5 163c
00000080: 18c6 a7bf ea7d 1840 133b 6e3d d1bb 563f
00000090: 2429 48bf adb2 51bf c833 bebe a4c3 36bf
000000a0: c649 9abf 6a28 0dbf 2374 4940 0edd a8bf
000000b0: bbdc 74bf 67c2 04be da29 0f3f 0862 3fbf
000000c0: f66e 2abf 6c50 8440 5e00 0b3f e3cd d4bd
000000d0: 0e76 aa40 1cbe 803e ea09 29bf 093a b740
000000e0: 922e 873f f08b 3cbf e0c0 a040 7d20 8cbf
000000f0: 5dc5 7b40 6584 ec3e 0cd4 74bf 737d a8bf
-1.3482243 6.2515006 -0.4797517 -0.9979946 4.5547967 2.2751095 1.6358311 -0.017042939
-0.06587951 1.2600287 -0.12731464 3.357285 -0.77336156 0.89917666 2.292438 -1.1778332
-0.14401305 4.346948 -0.2889786 -1.505697 5.342679 -0.39011365 -0.4017774 2.6473913
3.0559037 -1.3230212 -0.68312633 4.290958 -0.28855145 4.0814896 0.61703885 0.009202437
-1.3107328 2.3826852 0.058161806 0.83880335 -0.78187776 -0.8191326 -0.3714888 -0.71392274
-1.2053764 -0.5513979 3.1477134 -1.319246 -0.9564931 -0.12964784 0.55923235 -0.7475896
-0.6657556 4.134817 0.54297435 -0.10390832 5.326911 0.25145042 -0.6603075 5.7258344
1.0561087 -0.7365103 5.0235443 -1.0947415 3.933921 0.4619476 -0.9563606 -1.3163284

hidden_layers.1.running_var f4 [64]
00000000: 9d92 1b40 93fb 5141 9187 5740 c9db 0340
00000010: 1d64 8d41 4718 4d41 1e10 db40 482f 1941
00000020: d947 9440 7720 a540 e48b a640 888f 9441
00000030: 1d52 6b40 c833 1841 23df c141 891f d13f
00000040: f5ed 9e40 621b 1d41 2a2b 9b40 c1cb 903f
00000050: 719c b441 f20e 5b40 ae81 8040 545e 5b41
00000060: a882 cc41 2ba6 823f 5831 e03f 7a81 9841
00000070: a735 7640 3a08 4441 022e 5541 ebe9 8840
00000080: b5e4 883f 091d 6a41 5021 d640 07cd f640
00000090: ae75 cb40 fe6c 2540 f01a b340 405a 2040
000000a0: faff 823f b205 8e40 3bab 7541 3c13 4e3f
000000b0: a11f 3540 62cb 3940 c3b9 1741 2a9c 2340
000000c0: 4aba 3740 172c 2041 a184 a540 8376 ab40
000000d0: 8f04 6041 b366 c140 805b 5140 480b 8741
000000e0: fef5 3941 a7b3 3340 e15d 0541 f322 fc3f
000000f0: a8dc 4341 862c d440 40ef d53f 1573 d03f
2.4308236 13.1239195 3.3676493 2.0602896 17.673883 12.818427 6.8457174 9.574043
4.6337705 5.160213 5.2045765 18.570084 3.6768868 9.512642 24.233953 1.6337749
4.9665475 9.819185 4.849019 1.1312181 22.576387 3.4227872 4.01583 13.710529
25.563797 1.020696 1.7515059 19.063221 3.8470247 12.252008 13.323732 4.2785544
1.0694796 14.632089 6.6915665 7.7125278 6.358115 2.5847774 5.5970383 2.5055084
1.0234368 4.438195 15.354304 0.804981 2.8300555 2.9030385 9.482852 2.5564065
2.8707452 10.010764 5.17244 5.358217 14.001113 6.0437865 3.2712097 16.880508
11.622557 2.80784 8.33542 1.9698166 12.241371 6.630435 1.6713638 1.628512

hidden_layers.2.weight f4 [64, 64]
00000000: 344e 00bf e31a 27bf ebd3 423e fda2 f13e
00000010: 2d57 bcbe 061d 3e3f c6d5 51bd cd6b 33be
00000020: ee3e a03d c62e 03bf ace6 023f d08f bdbe
00000030: 7d22 96be 609e 5a3e 899d 423e ee52 163f
00000040: 9a0f 3b3f 6d81 373d 50ec 7a3f 3890 1d3f
00000050: ad6e 53bf 3ca2 393d bd20 34bf 6a5b f9be
00000060: c96d 043f 5bb6 3bbf e106 cebe 094a 043f
00000070: e992 13bd d95e 0e3d e365 b9bd 5fc7 a0bf
00000080: 405b 233f d539 813e c8e7 a1bf 90a7 07be
00000090: 78c5 e0be af85 693e 9af2 3a3f be57 22bf
000000a0: a2e6 ab3d bec1 53bf 4920 34bf b9f9 c2be
000000b0: 1926 b0be cdfc 573e 9ff6 223f 85bd 75be
000000c0: 8136 a4be 33ff 543f 191e d7be bc10 ffbe
000000d0: e57c a53e 8ba0 19bf da35 bc3e 43b2 a8be
000000e0: 3a1c 25bf 0351 0bbd 0ad2 a4bd 9356 9abf
000000f0: e442 81be de0a a63f 67d6 b6bd de33 26be
00000100: f911 3abf 83cb e13e f6c6 2cbf 003f e8be
00000110: 4da6 e63e 4c7b f0be f416 833d f142 6cbd
00000120: 3baa 8ebf 2a62 cf3e 20e2 1abf 5396 13bf
00000130: ce6b bcbe fd71 30bf 8481 d83e 83f6 65bf
00000140: 6787 69be 7960 a43e b24e 183f 3d79 413f
00000150: a43b cf3e 2cea 4ebe 6a78 a03e 2d5d e83e
00000160: 9369 213e 765c 3f3f 5008 46bf 8dd6 adbe
00000170: 2e71 9dbe ea89 063f 6c77 86bc 83bd 0dbf
00000180: 750f 9f3e 5b0a 02bd 17f9 28bf a3e7 913e
00000190: 2fc6 963e 7bfe 813d 5e59 e9be fe6b c6bf
000001a0: 8554 fbbe 55de 3bbf ae3d 89be b480 80bf
000001b0: b2c0 d0bf 7a8d afbe a991 94be 0f9c 9a3e
000001c0: 6568 68bf de93 62bd 684c 82be 7480 1a3a
000001d0: 15ca f33d 96af a13c d3d1 35bf 7191 383e
000001e0: 1238 c5be df0f babd 4227 913e ed94 bbbd
000001f0: 136f e5be 7252 2b3f 5277 00bf f341 28bf
00000200: 587b 86bc d171 8c3e 9b9e 673f a1c0 15bf
00000210: ba97 11bf ba73 d03d d566 2a3f 426b 88bf
00000220: 32ac a13f 7961 e3ba 86b5 b23e b274 2b3d
00000230: 3fa3 733e c999 2a3e 2690 9e3f 8186 31bd
00000240: d2a3 973e 688e 6dbf 72de df3e bd7d 30bf
00000250: 0d66 663e 5e09 05bd b4fa 253f 0910 afbe
00000260: b7f3 f63e f069 3cbe 458c 4f3f dead a23d
00000270: 1d73 dcbe 8faa 79bd e996 313f a041 783e
00000280: e2d0 79bf 7b9a 903e e881 88be 0ea5 ec3e
00000290: 87ed d83d 35f6 97bd 30d4 553c 1b6a 5ebd
000002a0: a906 813f 7f10 02be cd58 b2bd 0db4 033e
000002b0: 5dea c6be 77e9 65be dc44 80bd 232b 053e
000002c0: f1ae 653f 2ea7 d3be 58f5 aebe 49c5 5d3f
000002d0: 629b 0ebf f96e 66bd 9f0f f1be b5c4 6abd
000002e0: 8f8c aebf e7b6 883f bf0a e73e b2c9 6d3d
000002f0: 06ee 1abe f215 493e aff3 20bf c2ef 633f
00000300: 1c6b cfbd ee59 c43e 705e 283f f9e3 10bf
00000310: 315a c8bd 69df a6bf 4ef4 233f a566 9f3e
00000320: 5538 5cbd 5add f4be 8ac3 453e d6eb 61bf
00000330: e692 a5bd 1a42 393f a2ba f23e 320e 07bf
00000340: de1f 2dbf ec62 563f 76cf f2bf 4b32 d43e
00000350: c67d 86be 4016 f13d 2ce3 cbbd d412 4e3f
00000360: 4c67 ca3e 57a8 cf3e eced cabe 8163 6b3e
00000370: 8eb9 5bbf 1ff2 0d3e 1631 f1be 862a 823e
00000380: 6c44 39bd 3bcd ffbe b8bd 4a3e d0f2 69be
00000390: d7fa e13e b1cf 233f e3ce 33bf 777b 40bd
000003a0: 53db 2b3e 5608 053f e2c6 cdbe 4f0d fb3e
000003b0: 2569 d9bb f1bf c2be 4495 e2bd 6fe3 ae3e
000003c0: c794 48be 3089 b53f 0e2b 5f3e d82a 39bf
000003d0: 8060 2cbf e513 a83f cd8a 2b3e 5b22 9cbf
000003e0: 6bd7 74be ae31 c6bd 4ccf e2bc b665 343f
000003f0: 3b27 dabe 9726 b0be 68a1 cebe 8356 dfbe
-0.5011933 -0.652754 0.19026153 0.47194663 -0.3678526 0.74263036 -0.05122926 -0.17521591
0.07824503 -0.51243246 0.5113323 -0.37023783 -0.29323187 0.21349478 0.19005407 0.5872029
0.7307068 0.044801164 0.98016834 0.61548185 -0.8259075 0.045320734 -0.70362455 -0.48702556
0.5173002 -0.7332513 -0.40239623 0.5167547 -0.036028776 0.034758423 -0.090526365 -1.2560843
0.6381111 0.25239435 -1.2648859 -0.13247514 -0.43900657 0.22804902 0.7302643 -0.63415134
0.08393599 -0.827175 -0.70361763 -0.38081148 -0.34404066 0.2109253 0.63657564 -0.23998077
-0.32072833 0.83201903 -0.4201515 -0.49817455 0.3232185 -0.60010594 0.36759835 -0.32948503
-0.64496195 -0.034012806 -0.08047874 -1.205767 -0.25246346 1.2972066 -0.08927613 -0.16230723
-0.72683674 0.4410058 -0.6749109 -0.45360565 0.45048752 -0.46969068 0.06400862 -0.057681028
-1.11457 0.4050458 -0.6050129 -0.5765125 -0.36800998 -0.6892393 0.42286313 -0.8982927
-0.22805558 0.32104853 0.5949508 0.7557562 0.4047519 -0.20206517 0.3134187 0.45383587
0.1576293 0.7475046 -0.77356434 -0.33952752 -0.30750412 0.5255419 -0.016414367 -0.55367297
0.3106648 -0.031748157 -0.6600508 0.28497037 0.29448077 0.063473664 -0.45575994 -1.5501707
-0.4908792 -0.73386127 -0.2680487 -1.0039277 -1.6308806 -0.34287626 -0.2901738 0.30197188
-0.90784293 -0.0553168 -0.25448918 0.0005893775 0.119037785 0.019737046 -0.7102329 0.18024231
-0.3851934 -0.090850584 0.28350264 -0.09159265 -0.44811305 0.66922677 -0.5018207 -0.6572563
-0.016416237 0.27430585 0.9047639 -0.58497053 -0.5687214 0.10178323 0.6656316 -1.0657732
1.2630675 -0.0017347775 0.34904116 0.041859336 0.23792742 0.16660227 1.2387741 -0.043341164
0.29617172 -0.9279542 0.437244 -0.6894186 0.22499867 -0.032479636 0.6483567 -0.3419192
0.48232815 -0.18399787 0.8107341 0.07943319 -0.43056574 -0.060953673 0.69370896 0.24243784
-0.97584355 0.2824286 -0.2666161 0.46219677 0.1059218 -0.07420007 0.013051078 -0.05430041
1.0080158 -0.12701605 -0.08708344 0.12861653 -0.3885068 -0.22452341 -0.06263134 0.13004737
0.89720064 -0.41338485 -0.34171557 0.8662916 -0.55705845 -0.056258176 -0.4708223 -0.0573165
-1.3636645 1.0680817 0.45125386 0.05805368 -0.15129861 0.19637278 -0.6287183 0.89037716
-0.10127851 0.3834986 0.657691 -0.5659786 -0.09782828 -1.3036929 0.64044654 0.31133
-0.05376466 -0.47825128 0.19312873 -0.8825048 -0.08084659 0.7236649 0.47408015 -0.52756035
-0.6762675 0.8374469 -1.8969562 0.4144462 -0.26267833 0.11771822 -0.09955439 0.8049748
0.39531934 0.4055812 -0.39634645 0.22987176 -0.8583001 0.13861893 -0.47107762 0.25423068
-0.045231268 -0.49961266 0.19798934 -0.22846532 0.44136688 0.63988787 -0.7023756 -0.046992745
0.16782884 0.51965845 -0.40190798 0.4903359 -0.0066348487 -0.38037065 -0.110636264 0.34157893
-0.19588004 1.4182491 0.21793768 -0.72331 -0.6733475 1.3131071 0.16752167 -1.2197984
-0.239103 -0.096774444 -0.027686737 0.704677 -0.42608055 -0.34404442 -0.40357518 -0.4362069

hidden_layers.2.bias f4 [64]
00000000: 4722 1b3f 4d81 6ebf c840 c9bd ab28 87bf
00000010: 5b02 45bf 496d 49bf e590 1fbf c435 533d
00000020: 52c9 e1be 9850 80bf bf24 46bf 2c31 a9bf
00000030: 5cf9 5dbf 874b 3ebf d121 9abe 5f56 8fbe
00000040: baf3 abbf 3f3b 90bf 03fb b8bf 3a59 963f
00000050: a3de 95bf 8ed9 1cbf 9205 52be 4279 eebf
00000060: c60c b2bf 8b8b 93be d4d9 d0bf e171 ccbf
00000070: 6b74 37bf ce82 27bf 9e2e 253f 42e0 a3bf
00000080: a93a 19bf cccf 21bf 2773 bc3e a6f9 4abe
00000090: a125 96bf a669 2d3f 990c 553f 2d08 00bf
000000a0: 09ef 83be 00d1 6cbf aa80 87bf 2bbc 5bbe
000000b0: 2c4c 8cbf c73c 7ebf eec4 bbbf 4eaa 86be
000000c0: 5dbf 43bf 1b35 52be 1a78 11bf f7a6 acbe
000000d0: 0467 94be e21a c8be b512 4e3e d548 0f3f
000000e0: 78db 85bf 96f2 f4be e121 7bbf 3279 a8bf
000000f0: ccdf e63e b524 8abf 82bd cfbf 3464 55bf
0.6059918 -0.9316605 -0.09826809 -1.0559286 -0.7695672 -0.7868238 -0.62330467 0.051564947
-0.44098908 -1.0024595 -0.7739982 -1.3218131 -0.8670862 -0.74333996 -0.30103925 -0.27995583
-1.3433754 -1.126808 -1.4451603 1.174598 -1.1708568 -0.6126946 -0.20509937 -1.8630755
-1.3910148 -0.288174 -1.6316476 -1.5972253 -0.71662015 -0.6543397 0.6452426 -1.2802813
-0.59855133 -0.632077 0.36806604 -0.19821796 -1.1730233 0.6773933 0.8322235 -0.50012475
-0.25768307 -0.9250641 -1.058614 -0.21458499 -1.0960746 -0.9931149 -1.4669473 -0.26301807
-0.7646387 -0.2052807 -0.56823885 -0.33721134 -0.28984845 -0.3908301 0.20124324 0.5597051
-1.0457602 -0.47841328 -0.9809857 -1.3161986 0.45092618 -1.0792452 -1.6229708 -0.8335602

hidden_layers.3.weight f4 [64]
00000000: 9f1f 1c40 5bc4 4a40 5f32 07c0 06aa 4240
00000010: 2956 6f40 1077 0e40 c4e7 2740 88b7 7340
00000020: 0607 2640 9f62 1540 10d8 4340 0ec9 1d40
00000030: eb15 2840 78cc e83f 66c0 c23f 312a 3e40
00000040: a6c7 f93f 8e65 0d40 fa0b 3a40 9df1 4640
00000050: bc1e 0940 e29f 1d40 e4f0 2740 b7bf 1940
00000060: 39ee 1e40 8f71 1540 fbe6 1340 65c2 5f40
00000070: 74d7 0340 28a5 0140 4989 2540 b959 1d40
00000080: f2a4 4740 2491 0d40 3eff 0340 261c 3240
00000090: 288a 1c40 06a0 5540 f052 2e40 c916 5f40
000000a0: 7a1f 2b40 5f85 1b40 c3bf 2540 0bb0 1840
000000b0: 8018 5f40 0ce2 3f40 82d7 1a40 f4ef 3f40
000000c0: a4fa 1840 5ce1 0340 911f 4040 89de d53f
000000d0: 627f 5e40 5b9f 2d40 9824 1f40 3fa2 1040
000000e0: 3058 2940 c6f5 0740 55e2 0540 67b9 4340
000000f0: 2301 2a40 2ff8 2740 fa3e 4240 30b4 cb3f
2.43943 3.1682346 -2.1124494 3.0416274 3.7396338 2.226017 2.6235209 3.8080769
2.5941787 2.3341444 3.0600624 2.4653964 2.6263378 1.8187399 1.5214965 2.9713252
1.9514053 2.2093234 2.906981 3.108497 2.1425009 2.4628835 2.6240778 2.4023263
2.48329 2.335056 2.310973 3.49624 2.0600252 2.0257053 2.5865042 2.4586012
3.1194425 2.2119837 2.0624537 2.782968 2.4459324 3.337892 2.723812 3.4857657
2.6737962 2.4300153 2.5898292 2.3857448 3.4858704 2.9981718 2.4194036 2.9990206
2.390298 2.0606298 3.0019267 1.6708537 3.4765248 2.7128513 2.4866085 2.2599027
2.6460075 2.1243758 2.0919392 3.058191 2.6563194 2.624523 3.0350938 1.5914364

hidden_layers.3.bias f4 [64]
00000000: 8e97 05be ea8e 2c3e b44b 933e 5781 763e
00000010: 659a 6abe 8013 b8bd 3f13 69be 7447 f13e
00000020: 29bc ee3c ecc4 43be affa 19bf 09df 2fbe
00000030: 90c4 2dbb 03a7 abbe 76c0 bdbd 639e f8bd
00000040: 7e76 8ebe 256d cdbc 418f 9dbe a36a 073f
00000050: a149 203e f369 7dbf e14b 87be 3764 70be
00000060: c226 b9be 5b05 f5be 67ef 423d 1ac3 9bbf
00000070: 51af 95be 6393 973d 861e 16bf f716 bfbd
00000080: c5a3 4abf e519 1fbf 8453 143e a909 5bbe
00000090: ee70 0fbe 84b9 8dbd 27db 693d 916e 953d
000000a0: 66d1 103d 8550 f6be 56fb f5bd ce9a a4be
000000b0: a6d5 663e 7f51 9dbe e81c 93be 6439 3bbf
000000c0: 84bc 7f3e 1b96 61be ee60 cf3d 21fa be3e
000000d0: 176b d7be 66bc 3bbe 94d3 f4bd 5723 20bf
000000e0: 87c3 06bf 7bc4 94be a249 a7be 89ce e7be
000000f0: 5ff2 453e 2261 09bf bf42 c3be f5ba be3d
-0.13046095 0.16851392 0.28768694 0.24072777 -0.2291046 -0.08988094 -0.22761248 0.47124827
0.029142456 -0.19118088 -0.6014814 -0.17174925 -0.0026514865 -0.33525857 -0.09265225 -0.12139585
-0.27824777 -0.025076458 -0.30773357 0.5289709 0.15653087 -0.9898979 -0.2642508 -0.23475729
-0.36162382 -0.47855648 0.047591593 -1.2168915 -0.29235318 0.07401159 -0.58640325 -0.09330552
-0.7915614 -0.62148887 0.14484984 -0.21390404 -0.14007923 -0.0692015 0.057093766 0.072964795
0.035355948 -0.48108307 -0.12010829 -0.32149357 0.22542438 -0.3072624 -0.2873299 -0.73134446
0.24974257 -0.22029917 0.1012591 0.37300208 -0.4207389 -0.18333587 -0.11954418 -0.62553924
-0.526421 -0.29056153 -0.32673365 -0.4527476 0.19330738 -0.5366384 -0.3813686 0.09313003

hidden_layers.3.running_mean f4 [64]
00000000: 41f3 0840 05b5 a9bf e101 c8bd c7fc 00bf
00000010: 4870 9c3f 8ac3 8bbf 950c b1bf 32f5 a140
00000020: 1905 ddbe 4e59 43bf 0dd8 c43d 035a babf
00000030: c0aa b8bf b60f bebf d5d5 2640 644e 2440
00000040: 99e1 cfbf 63f0 93bf 9e31 c5bf 225c fc40
00000050: 9385 d4bf bdf1 58bd 069e 673f 34b9 d3bf
00000060: fb6f d6bf 914f 1040 52e5 d0bf e9cd c3be
00000070: 05a6 2bbf 8ad6 4ebf 623f 3540 b928 67bf
00000080: 1a5e a13e 8762 2fbf e66d cc40 0b8b 933f
00000090: 9abb 26be 2c14 f73f 9804 d340 f4e6 0e3f
000000a0: 0540 4f40 696e c4bf e6de 84bf a30d 0e40
000000b0: 1c88 a2bf c669 183f e9cc 3abf 0fee 2abf
000000c0: 5ed5 dd3e b6b3 a2be 2549 74bd 46f3 36bf
000000d0: 471a 353f 64f6 3b3e 723a 2040 c700 9d40
000000e0: a706 9c3f f12d 3240 2f5c 7f3f b4d9 9abf
000000f0: 1cab d13f 8367 f43f 5f45 aabf 91ec 4abf
2.139847 -1.3258368 -0.097659834 -0.5038571 1.2221766 -1.0919049 -1.3831965 5.061181
-0.43167952 -0.76308143 0.09611521 -1.4558719 -1.4427109 -1.4848545 2.6068013 2.5672846
-1.6240722 -1.1557735 -1.5405767 7.8862467 -1.6603264 -0.052964915 0.904755 -1.6540895
-1.6752924 2.2548563 -1.6319983 -0.38243034 -0.670502 -0.8079611 2.8319936 -0.9029651
0.31517106 -0.68509716 6.3884153 1.1526808 -0.16282502 1.9303031 6.5943108 0.55821157
3.2382824 -1.5346195 -1.0380523 2.2195823 -1.2697787 0.595364 -0.7296892 -0.667695
0.4332685 -0.31777734 -0.05964007 -0.71464956 0.7074322 0.1835571 2.5035672 4.906345
1.218953 2.784054 0.99750036 -1.2097688 1.6380343 1.9094089 -1.330242 -0.7926722

hidden_layers.3.running_var f4 [64]
00000000: a163 5941 dd21 473f 71e3 3741 854d bd40
00000010: 82d2 b641 46ae 0140 0a81 ed3f 550d 0742
00000020: 62dc a640 d377 3340 145e fc40 6f11 473f
00000030: 43da b63f 0e80 2c3f 9696 ec41 b518 9741
00000040: 4015 873f 1d58 a240 ec95 ce3f 27fe a641
00000050: 067d 633e 2c72 4041 1874 a641 e122 0a3f
00000060: 6946 083f 6bb8 4341 1716 423f ede5 8a41
00000070: 135c e040 44a2 a840 c8f1 0242 a565 ea40
00000080: dc9d d640 76e6 c640 2812 8d41 b6ae 5641
00000090: a226 5541 40e8 7341 62fe 0b42 7d82 b141
000000a0: c52c 8941 3cd7 903f 2612 2c40 f39b 6b41
000000b0: 995e ad3f 3c9e b740 308a 5140 c14a 8b40
000000c0: ca81 cc40 61d2 2541 1c8d 2d41 2053 8e40
000000d0: b651 3541 80d9 e040 6235 4841 bb37 a841
000000e0: 99c9 e640 b02d 6141 04a5 1f41 f775 b840
000000f0: e3f3 6541 d9f4 0142 150c 5d40 9db3 8640
13.586823 0.77786046 11.493028 5.915713 22.852787 2.0262618 1.8555005 33.76302
5.214402 2.8041885 7.886484 0.77760977 1.4285358 0.67382896 29.573528 18.887064
1.055336 5.073256 1.6139503 20.874098 0.22215661 12.027874 20.806686 0.5395947
0.5323244 12.232524 0.75814956 17.362268 7.0112395 5.269808 32.736115 7.324908
6.70677 6.2156324 17.633865 13.417654 13.321932 15.244202 34.99842 22.188715
17.14686 1.1315684 2.6886077 14.725574 1.3544494 5.7380657 3.2740593 4.352875
6.3908434 10.363862 10.846951 4.447647 11.332449 7.0265503 12.513033 21.027212
7.212109 14.073654 9.977787 5.7644 14.372043 32.48911 3.4538624 4.2094254

output.weight f4 [4, 64]
00000000: a7c0 7dbf 7b0d 09be 2758 bdbe 294a 9bbf
00000010: 730b c5be c400 1f3e 12d7 3abf 34a1 f93f
00000020: 7acf be3f 9434 963f d9d7 acbf 9368 29bf
00000030: 47fc 953f 3f06 29bf d1af a9be 005e e13f
00000040: 2afe f7ba 305d 59bf 6a73 d13c 6762 5ebf
00000050: a01e 563d 3c4b c93e da5d e13f 5fb7 8cbe
00000060: 5e06 223f b478 0540 40c9 b2be d7f8 9c3e
00000070: ca00 ae3f 67e4 ecbe 0a2a 443f 195f c6be
00000080: 4b17 6dbf 00fb b33f 0ea3 b73f 0fe0 9cbf
00000090: 66b6 98bf 3057 ecbf 2a35 153f a62f dbbf
000000a0: 118b 89bf da0a 483f 1dcf 04c0 c8eb b4bf
000000b0: afb4 bdbe 5445 8d3e f51a cc3e 3081 84bf
000000c0: 1b5a 3ebf 3294 5b3f e83a 4fbe 00b9 203e
000000d0: 27cc 3cbf eae7 f0bd ca6e bd3e 52e3 963f
000000e0: 885b be3f 5d40 e03e e14c 7dbf 0347 f53f
000000f0: c9e3 1640 8153 843e fc84 69bf 5963 0d3f
00000100: 8ca4 7fbf d73b 17bf 68a8 69bf d2aa a93e
00000110: df0d 0840 8280 58bf 7023 4ebf 1f40 153d
00000120: c231 b3be b573 853e 12d7 9a3f d085 c33e
00000130: cbfe 073d e924 253f 167c e9be 3af0 07c0
00000140: 168d 0ebf b6ae 64bf 0dd9 af3f 144d 8d3f
00000150: db35 1fc0 6e2a a9bf 232c cabf 7793 7cbf
00000160: d68d ae3f 5e3d 6b3f 4942 273e 8ebc ed3e
00000170: c664 3d3f 928f 47be 1d3c 0140 d601 4d3f
00000180: 1381 1a40 0c23 843f a9e3 593f 8bb2 c7bf
00000190: fe4c 53bf 418b 3fbf 0f9c f43e af3a 93bf
000001a0: b217 b93f baef 2e3e b9df 7fbe 81b7 623f
000001b0: 88a8 9e3e 3c1c 08bf a0e9 66bf 15da babf
000001c0: 86f9 23c0 8d04 b53f cf3b 863d a105 f7bc
000001d0: 78fa ff3f b981 8d3e f8a2 89be f2f3 6abf
000001e0: 7657 8e3f 3f65 0dbf ebb5 403f 845a 50bf
000001f0: 88fb 283f a1b3 703f 80da 57bf 2c62 ef3e
00000200: fcdb d43f f5dc c5bf 12ea 1ac0 34e5 d0bf
00000210: c4c3 013f fc25 f53f 3826 dabe aedd 0dc0
00000220: 4540 bc3e faa9 d23f 4ad1 a63f da41 d1bc
00000230: 9b68 89bf 7104 b63f fceb 85bf 33ff 0b3f
00000240: 3ded d7be 63ce 8fbf b2c6 82be dd0a 3440
00000250: 52f6 11bf 6bee 943f 5e55 acbd f67c 8c3f
00000260: 1f87 9d3f 46f7 1f3f cbf7 b8bf 3f20 f5be
00000270: e0b1 573f 54f2 0cbd 9047 3b3f 3340 b5bf
00000280: 5309 14bf f60a 90be cec2 e8bf 6b1d 48bf
00000290: 7290 c93f 47b2 8ebf b2b0 d5bf 3aaa ce3f
000002a0: 05a5 6a3f ca58 5ebf 392d 21bf f0bc df3f
000002b0: be7e 26c0 dd0c 0a40 e4ef b83f 0caa 833f
000002c0: 2505 913f c037 203f 98cc 9abf f51f b3be
000002d0: 6e07 08bf 19b7 fdbf 274e dd3f 3ecd 4dbf
000002e0: 955c 8cbf 3caa fb3f 127d 88bf b7b1 743f
000002f0: d6bc 023f 0a8d 86bf 8e05 7c3d 674e 6cbd
00000300: 1592 ff3e 4def 943f 6202 ffbe ee4b 513c
00000310: 6cf8 633e 1e1d 80be 951d c6bf f6aa b2be
00000320: 14ec 66be 9602 31bd 341b 323e ee42 3e3f
00000330: 7688 17be e4b8 03bf e159 7dbf ae49 6ebc
00000340: 15af a8bf f688 163f 0448 793f 9509 05bf
00000350: 5366 c73b 1e87 8bbf 52d6 e2be a528 b9be
00000360: b49b 5f3f f7ac c83d e97d 1c3f 5d5e f63f
00000370: 41cc 52bf 7a44 063f 9613 80bf 1d8c e03e
00000380: d9c6 dabd 7002 d3bd e4f0 823e 8944 b4be
00000390: acb2 49bd ade1 f3bc 1b81 c73e 375a bf3e
000003a0: f6c0 dd3c fc6a 11bf 7522 563e bfe8 063e
000003b0: 6ddf 243d c0e9 bb3e cd33 df3d c90a 10bd
000003c0: 3c04 923e 3342 a6be 6b42 59bf 88bc 6f3f
000003d0: d31f d43d 3356 9f3d bf2f 11bf adbd 71bf
000003e0: 567e d6be 29d7 f03e a832 a83e 5ea9 d73e
000003f0: 9e0b eabc e80f 233f df12 7ebf 59ec 103f
-0.9912209 -0.13384049 -0.36981317 -1.2132007 -0.38485298 0.15527636 -0.7298442 1.950232
1.4907067 1.1734796 -1.3503371 -0.6617519 1.1717614 -0.66025156 -0.3314195 1.7606812
-0.0018920351 -0.8490782 0.025567729 -0.868689 0.0522753 0.39315212 1.7606766 -0.2748365
0.63290966 2.0854921 -0.34919167 0.306586 1.3593991 -0.46268007 0.76626647 -0.3874443
-0.9261367 1.4060974 1.4346635 -1.2255877 -1.1930664 -1.8464108 0.58284247 -1.7123916
-1.0745565 0.7814156 -2.0751412 -1.4134455 -0.37051913 0.27591956 0.39864317 -1.0351925
-0.7435624 0.85773003 -0.20237315 0.15695572 -0.7374901 -0.11762984 0.36998588 1.1788123
1.4871683 0.43799105 -0.9894543 1.9162296 2.357653 0.25844958 -0.91218543 0.5522972
-0.99860454 -0.59075683 -0.9127259 0.33138138 2.1258466 -0.8457109 -0.80522823 0.036438104
-0.349989 0.2606484 1.2096884 0.38188028 0.033201974 0.64509445 -0.45602483 -2.1240373
-0.5568403 -0.8932909 1.3738114 1.1039147 -2.487662 -1.3216074 -1.579472 -0.98662513
1.3637035 0.91890514 0.1633388 0.46432918 0.73981893 -0.19488361 2.019294 0.80080926
2.414128 1.0323195 0.85113007 -1.5601362 -0.82539356 -0.7482186 0.47775313 -1.1502284
1.4460356 0.17083636 -0.24987687 0.88561255 0.30987954 -0.5316808 -0.90200233 -1.4597803
-2.5621047 1.4142014 0.06554376 -0.030154051 1.9998312 0.27638033 -0.26882148 -0.9177848
1.1120441 -0.55232614 0.75277585 -0.81388116 0.66008806 0.9402409 -0.8431778 0.46754587
1.6629634 -1.5458056 -2.4205365 -1.6319947 0.5068934 1.9152217 -0.42607284 -2.2166553
0.36767784 1.6458123 1.303262 -0.025544096 -1.0735048 1.4220105 -1.0462642 0.5468628
-0.42173186 -1.1234859 -0.25542217 2.813163 -0.5701648 1.1635259 -0.0841472 1.0975635
1.2306861 0.62486684 -1.445062 -0.47876164 0.8425579 -0.03441079 0.7315607 -1.4160217
-0.5782673 -0.28133363 -1.818445 -0.7816989 1.5747206 -1.1148156 -1.6694548 1.6145699
0.9165805 -0.8685423 -0.6295963 1.7479534 -2.6014857 2.157035 1.4448209 1.0286269
1.1329695 0.6258507 -1.2093687 -0.3498532 -0.53136337 -1.9821502 1.7289475 -0.803913
-1.0965754 1.9661326 -1.0663168 0.9558367 0.5106939 -1.0511792 0.061528735 -0.057691958
0.4991614 1.1635529 -0.49806505 0.012774451 0.22262734 -0.25022215 -1.5477778 -0.34896058
-0.22550994 -0.043215357 0.1739319 0.74320877 -0.1479815 -0.51453996 -0.9896527 -0.014543934
-1.3178431 0.58802736 0.9737551 -0.51967746 0.006085196 -1.090061 -0.44304138 -0.36163822
0.8734696 0.097986154 0.61129624 1.9247547 -0.82342917 0.52448237 -1.0005977 0.43856898
-0.106824584 -0.10303199 0.2557441 -0.35208538 -0.04924266 -0.029770697 0.38965687 0.37373516
0.02706955 -0.5680387 0.20911582 0.13174723 0.040252138 0.36701775 0.10898552 -0.035166536
0.28518856 -0.3247238 -0.8486697 0.9364705 0.103576325 0.07780113 -0.5671348 -0.9443005
-0.41893262 0.47039154 0.32851148 0.42121404 -0.028569993 0.63696146 -0.99247545 0.5661064

output.bias f4 [4]
00000000: acce 1dbe 2e40 aebe d44b c2be 7278 ea3d
-0.1541087 -0.3403334 -0.37948477 0.11448754

hidden_layers.0.weight f4 [64, 33]
00000000: 48d0 71be 7f9e 8a3f 5459 693c 4aef b8be
00000010: 5213 243f 0f68 293f 35a6 2a3f 7d1d 973e
00000020: 65b6 febd 49c5 0abf b004 9c3c b33f d43c
00000030: b0d4 95be 4fec be3e c3a1 babd c2fc 823e
00000040: bb98 873e 3ee7 e93c c726 67be 8f86 b73e
00000050: 4eaf bfbe 48a5 b53d 94b6 843e df44 193d
00000060: 69cf a73b e00e b8bd 020b d3be 2987 88bd
00000070: ccda c1be 2c02 dd3d 19f3 563e d415 293e
00000080: f7db 0e3f a9e1 0cbf 3aa9 3ebf e7b1 16be
00000090: 885e 03bf 5cde 0c3f f872 323e 9869 bfbe
000000a0: 2529 a9be 02d2 513d a816 983e 0e6b 30be
000000b0: 98d9 01be 7a7d 67be 8087 873e 4c6a 123e
000000c0: a06c 08be f685 663e 943f e9bd 993d a1bf
000000d0: eab1 943f 0679 b9bd 49c0 513e b20f fdbb
000000e0: c9f9 94bb 5881 6e3d 9eb4 5cbd b7eb 1ebc
000000f0: 06b4 3a3f 99a5 a03e 4070 d83d 8efc 2fbf
00000100: 80d8 c7bd aed0 a8be f68e 79bf ab14 71bf
00000110: a411 933e 39ce 5abf 2bbb 6a3e dc70 df3d
00000120: 3628 863f 4acd 8ebc 6882 d9bd 80e8 90be
00000130: 82f1 8ebe 7757 7abd 4802 863b c371 743e
00000140: 6750 3c3e 3d1c 6abe f0e9 283f 411b 0ebf
00000150: a8c0 973d eacf 9ebf cca0 033e 1aae 82bc
00000160: 34ab 9e3e 6325 623e 8db3 9c3d d686 66be
00000170: ffea 173e 08c6 993f 6c38 a23c 9527 a9bd
00000180: e6d2 8cbf c86f ff3c cb36 363c be1f 7bbe
00000190: 10ae 05bd 656d 17bf ca11 b93e 4269 df3d
000001a0: 47cb 23bf 7f2d ec3f 7935 06bd 46ee 4b3f
000001b0: 2a37 c1be fa6d 2bbe 0f67 51bd 1460 03be
000001c0: bf4b c8be b6b3 0e3e fbe8 e73e 57f3 543f
000001d0: 6b65 303f 87f8 b13f 68fe 213f 77df 4a3e
000001e0: 8231 3d3d 211d 863d c6f2 babe cd76 1d3e
000001f0: b0e9 12be dac6 f13e 9b4d f03e 1998 a3bd
00000200: 4c69 cd3d af5b f1be 3e68 ddbd 7971 45be
00000210: 2c5a a73d c3c2 243e 0b1f 8f3d 39f9 f8be
00000220: 99b4 ab3f 4af0 77bd df5c 2c3f 2da5 8cbf
00000230: 7d01 55bf 3548 0d3f 94cd cf3b 68f2 9bbd
00000240: ae91 27bd 3dc0 15bc 386e d6be 11e8 70be
00000250: 5f06 943f d597 e6be 369f 59bf 2feb 9b3e
00000260: ceaa 2b3e 7870 73be e952 563d 7ef4 e53c
00000270: 63aa afbd 1efd 3ebd 2b77 603e cf47 7b3e
00000280: 2f72 cabd e62a 893d 7d75 7cbe ace8 e63d
00000290: c23f da3e 4842 6b3f d76b ecbe 128e 8c3e
000002a0: dc09 c9be 1d8b 1dbf 59b1 a03f 3932 4bbe
000002b0: 4075 3e3e e007 ebbe 7146 203f f42c 86bd
000002c0: a1cf 903d d55e 6cbe c36b 1abf b669 6a3e
000002d0: ed09 0cbe add4 793f 7a77 0d3d eb98 813e
000002e0: 1a30 043f fc8a 203e 8162 e53e 0abe 67be
000002f0: ce9f 74be 1f6e 703d bdc9 2bbe 4b21 453e
00000300: 5284 163f 73c5 41be f009 013e 3acb 4abf
00000310: 786b a73d c0e9 b8bf 1ea2 473f 1c9f 003f
00000320: 7399 f1be c033 033e 24b8 703e de11 ba3e
00000330: c3b0 463e aaae 6c3e b752 3b3e 157e d13d
00000340: b3e8 333b b6f5 cabd 90ea b13c 87f8 4dbf
00000350: 61e6 0dbf 589a 263f 2db0 a93e 304d ab3c
00000360: 31de 093e 4fa1 c4bd 76f7 6abd a4aa 093d
00000370: 9cab 4dbd 02ca 11be e7c0 12be e6d5 383e
00000380: 9e01 9c3e 5072 b03e 446b b4be f0ad 013e
00000390: 16e3 a9be 1096 283e 6c32 003f c1aa 15be
000003a0: 15a6 233e 613d 843e 3e11 9fbf 43ba 12c0
000003b0: 16ed 383f eb33 ddbf 83f4 dcbc 0025 1ebf
000003c0: a7f1 b4bd 1e78 d33d 8a68 b6bd c689 8d3d
000003d0: 5d14 063d c234 073e e248 71bd 9634 89bf
000003e0: 5b59 4cbe a046 08bf 648b 4dbf 9d88 3e3c
000003f0: ba41 b6bc 85e9 bdbd 1c4f 8ebc 878f 243e
-0.23614609 1.0829619 0.014242489 -0.36120063 0.6409198 0.66174406 0.6665986 0.29514685
-0.12437133 -0.54207283 0.019045204 0.02590928 -0.2926383 0.37289664 -0.09112885 0.25583464
0.26483712 0.028552648 -0.22573386 0.35844848 -0.37438434 0.088694155 0.25920546 0.037419196
0.0051211608 -0.08987212 -0.41219336 -0.06666405 -0.3786224 0.1079143 0.20991172 0.16512233
0.5580439 -0.5503183 -0.7447697 -0.14716302 -0.5131612 0.55026793 0.1742667 -0.3738525
-0.33039203 0.05122567 0.29704785 -0.17228338 -0.12680662 -0.2260646 0.26470566 0.14298362
-0.13322687 0.2251204 -0.1138908 -1.2596923 1.1616795 -0.090562865 0.20483507 -0.0077228183
-0.0045463783 0.05822882 -0.053883187 -0.0096997535 0.72930944 0.3137634 0.10568285 -0.6874474
-0.09758091 -0.3297171 -0.97483766 -0.9417216 0.28724396 -0.8547092 0.22922961 0.10910198
1.0481021 -0.017431874 -0.10620576 -0.28302383 -0.2791863 -0.06111857 0.0040896274 0.23871522
0.18390046 -0.22862335 0.6598196 -0.55510336 0.07409793 -1.24072 0.12854308 -0.015952159
0.30989993 0.22084574 0.07651434 -0.22512373 0.14835738 1.2013559 0.019802295 -0.08259503
-1.1001861 0.031181231 0.011121462 -0.24523827 -0.032636702 -0.591513 0.36146384 0.10908748
-0.6398205 1.8451384 -0.03276584 0.7966045 -0.377374 -0.16741171 -0.051123675 -0.1282962
-0.3912029 0.13935742 0.45294937 0.8318381 0.6890475 1.390397 0.6327882 0.19811808
0.046189792 0.06548525 -0.36513346 0.1537735 -0.14346957 0.47222024 0.46934208 -0.07987995
0.100298494 -0.47140262 -0.10810898 -0.19281568 0.08171496 0.1608992 0.06988343 -0.48627642
1.3414489 -0.060531892 0.6732921 -1.0987908 -0.83205396 0.55188304 0.0063416455 -0.07614595
-0.040910415 -0.009140071 -0.41880965 -0.23526026 1.1564444 -0.45037714 -0.8500856 0.30452868
0.16764376 -0.23773372 0.052325163 0.028070685 -0.085774206 -0.04662811 0.21920459 0.24539112
-0.0988506 0.06697635 -0.24654193 0.112748474 0.42626768 0.9189801 -0.46176025 0.2745214
-0.39265335 -0.61540395 1.2554122 -0.19843377 0.18599415 -0.45904446 0.62607485 -0.06551543
0.07070852 -0.2308305 -0.6032068 0.22891888 -0.13675661 0.9759014 0.03453777 0.2531198
0.516359 0.15678018 0.44801715 -0.22631088 -0.23889086 0.05869877 -0.16776176 0.19250982
0.58795655 -0.18922977 0.12601447 -0.7921635 0.08174795 -1.4446335 0.77981746 0.5024278
-0.47187385 0.1281271 0.23507744 0.36341757 0.19403367 0.23113504 0.18293272 0.10229126
0.0027451932 -0.09910147 0.021718293 -0.8045735 -0.55429655 0.6507926 0.33142224 0.02091083
0.13463666 -0.0960108 -0.057364903 0.03361 -0.050212488 -0.14237216 -0.14331399 0.18050346
0.30469984 0.34462214 -0.35238087 0.12664008 -0.33181065 0.16463494 0.5007694 -0.14615919
0.15981324 0.25828078 -1.2427137 -2.2926185 0.72236764 -1.7281469 -0.026972061 -0.6177521
-0.08835154 0.10325645 -0.08906658 0.06911044 0.032734264 0.1320372 -0.058907397 -1.0719173
-0.19955961 -0.53232765 -0.8029082 0.011629251 -0.022248138 -0.09273056 -0.017371707 0.16070376

hidden_layers.0.bias f4 [64]
00000000: 9af9 923e ee09 75bf 25f5 94bf ec66 46bf
00000010: 57ea 2dbe 33df 28bf 6a58 c8be b14f 0abf
00000020: 932a 5dbe 6efa 143e 1323 a33e 78e4 06bf
00000030: 0dfd 97bf 2e24 43bf 96ff 74bf 265f d4be
00000040: 2304 71bf a031 30bf c198 c8be ca93 54bf
00000050: 5c40 babf 86ab 5ebf e972 563e 2bf6 e73e
00000060: dfa4 d5be a4d2 92bf a00e 47be 2483 ecbf
00000070: 8166 f63e 0849 86bf b3ca b4be 54d7 a0bf
00000080: 7c75 88be b18f 35be 81cb 59be 2ff9 58bf
00000090: 3a23 2abf 1fb9 4bbf 0b80 0abf bc7e 16bf
000000a0: 4be5 53bf 9219 5abe 39cf 723e b0ce cc3d
000000b0: 0e8b 98be 1f62 1dbf f91f 81bf b7a1 24bf
000000c0: d01d 24be 3b33 07bf 423e 3cbf 427f b0be
000000d0: 8d3d bfbf 36c0 973e a74f ecbe a953 46be
000000e0: 258b 28bf 9888 1ebf 0166 c8be e6f6 30bf
000000f0: aa0d cf3e a7a4 6fbf 67bd d03c 7b5d aebd
0.28706056 -0.95718277 -1.1637312 -0.77500796 -0.16983925 -0.65965575 -0.39129955 -0.5402785
-0.21598272 0.14548656 0.31862697 -0.52692366 -1.18741 -0.7622708 -0.95702493 -0.41478842
-0.9414694 -0.6882572 -0.39179042 -0.8303801 -1.4550891 -0.86980474 0.20942272 0.45305
-0.4172735 -1.1470532 -0.19439173 -1.8477521 0.4812508 -1.0491037 -0.35310897 -1.2565713
-0.26652133 -0.17730595 -0.21269037 -0.84755224 -0.6646 -0.7957935 -0.5410163 -0.5878713
-0.8277175 -0.21298817 0.23711862 0.1000036 -0.2979359 -0.61477846 -1.0087882 -0.6430926
-0.16026998 -0.52812546 -0.735325 -0.3447209 -1.4940659 0.29638833 -0.4615452 -0.19367851
-0.6583732 -0.61927176 -0.39140323 -0.6912674 0.40440112 -0.93610615 0.02548094 -0.08513924

hidden_layers.1.weight f4 [64, 68]
00000000: 67d4 903b 414f a73b 56df cb3b 799d 0e3c
00000010: 86b1 783c 4509 883c 8249 263b 957b fd3a
00000020: f873 773b 501f e93b 787d 2839 ec17 183b
00000030: 5e5c e2bb 74c3 613c a99a 25bb a1a3 d23b
00000040: 3be5 8a3c 5a05 013c b61e b2bb c687 c6bb
00000050: 1bae 86bc 68b3 afbb e26a 273b 972e 953c
00000060: 92e7 123b 4728 9e3c f315 b13b 3ef0 6b3b
00000070: 3a23 61bc 16fc 0e3b 9e70 323b 9900 97bb
00000080: d2a7 26bb dfa9 f93a 28b1 743b a58c 52ba
00000090: 432c eabb 6768 633c da5f 083b cdb5 943c
000000a0: b0aa fcb9 12fc f53b 9ac4 71ba 8ae4 e13b
000000b0: 1174 4a39 7f1d ffbb c6cf 50bc 5b76 36bb
000000c0: c0c2 25bb da98 053c 2291 ffbb ced4 133c
000000d0: 20ea 7a3b 7b21 06bc e233 36bb 6afb bab9
000000e0: c730 183c 5ae8 143c b2d5 4bba 3ea8 863c
000000f0: ce59 b43b f3e0 9bbb 814f 91bb df09 2abc
00000100: c4e0 0cbc 39ac c9ba da19 96bc 7ad7 a3bb
00000110: 3a50 523c c3a5 fe3b 8d84 613c 5c2e 6dbc
00000120: fbef bbba 55ae 0d3c c32d 613c 4111 ecba
00000130: 75cd 233b e98b 1c3b f589 50bc fe6f 433a
00000140: 50c4 ec3b 7115 60ba 87f9 c03b 3a09 56bb
00000150: c56a 1cbc 64ba 503b b505 efbb a1d7 a6bb
00000160: b396 aebb 85a4 503c 386b 79bb 2100 11bc
00000170: 5e16 b23c 02cb 9f3b 23dd 5e3b 39ee 35bc
00000180: 2d04 0e3c 1cf5 b5bb 9a28 733b a549 16ba
00000190: 29d6 e7bb 7f58 73bb fc57 03bb 3e29 4037
000001a0: 9196 2dba 96ee 35b8 e591 d7ba 698e ff3b
000001b0: 0314 c53b 685d 383c 0b2d 58bb 1543 853c
000001c0: ff0e c83b f943 c33a b6c0 863c c622 a2bb
000001d0: 2d95 85bc 9793 ee3b 15fd 1c3c 8728 63bc
000001e0: 2b1d c33a bc4f 763a ed52 62bc 96b8 5a3c
000001f0: 0ee6 22bc 938a 473b 6781 02bc 4d60 1dbb
00000200: eae4 43bb ab62 c8b9 c3ed 133b 123e c7bb
00000210: ba5c 8e3c 6a2f 2fbb 8c67 83ba 9d0e 083c
00000220: c107 8d3b c306 1a3b 1966 7bbb 7a20 0abc
00000230: 9cd6 d83b ac86 e73b 3cbd 5bbb 540c 223b
00000240: 39f0 48bc fbe1 033c 3c5c fe3b 42e9 49bc
00000250: 8cde 903c b19d 2a3c 7321 4bbc a5fc 64bb
00000260: bfa8 053c 6eed a739 1fed 90bc 9c9c 89bc
00000270: bb3d aa3b 48fc e83b 1bc4 ee3a 8c83 1aba
00000280: 8eb2 2d3c 1089 de3b 1f9c 5e3c d400 09bc
00000290: 5152 a43a 2b20 19bb 7b2f fab9 304f b83b
000002a0: f5d3 a33b 677a 5e3c ac67 2ebc d7d7 a93b
000002b0: c056 a33b 432d 67bc daba ac3b 54b4 913b
000002c0: 6564 aa3c f504 593c 81eb 16bc 7164 353c
000002d0: b867 a1bb 61b6 3bbc 096b ffbb ff66 06bc
000002e0: 329e 403b a3d5 263c 6258 83bb ce1f 8abb
000002f0: ab08 b53b b26a eeba 376b 923b 7371 8eba
00000300: bd7e 7c3c ddbb b83b 900b ab3b b40b 213b
00000310: 80fa 4dbc 0a89 263c 13f4 dcba c96d 4f3c
00000320: 82ea 683b c85a a8bc c263 a2bb 06f7 743c
00000330: 9e09 75bc 6997 cbbb 1685 673c e2c5 e4bb
00000340: 348b 903b d3fb 583b 101a 933b 2d9e dc3b
00000350: 6796 1d3c 3191 d13b f4f5 3dbb e74c d3bb
00000360: f2f0 2abb 4975 16bc cb6b 0a3c 4c3b b9bb
00000370: caf0 823c b9ef 4b3c df3f f4ba 6c7c a53b
00000380: 4733 cd3b 44d4 133b 94a6 0e3b c589 98ba
00000390: 4698 15bc e59e 143c 4956 0fbc 8788 0d3c
000003a0: 194b 93bb b47d 71b9 a113 2a3b 30b7 f5bb
000003b0: b898 10bc 9d90 d03b a17c 133b 90bc 4136
000003c0: e537 58bc 76e1 38ba 3391 02ba 473c 3b3c
000003d0: 68a9 5cbb f3f2 0c3c 95e0 33b9 3ee9 193c
000003e0: 681b 973c 4b7b b4bb 1d43 d3ba aff9 b63a
000003f0: ca46 02ba 615b e0ba 8cae 31bc aa0a dd3b
0.0044198516 0.0051058833 0.006221692 0.008704537 0.015179044 0.016605983 0.0025373404 0.0019339198
0.0037758332 0.0071143284 0.00016068469 0.0023207618 -0.0069079837 0.01377951 -0.0025269187 0.0064281975
0.016955009 0.007874811 -0.00543579 -0.006058666 -0.016440442 -0.005361963 0.0025545885 0.018210692
0.0022415859 0.019306315 0.005404228 0.003600135 -0.013741309 0.0021817735 0.002722777 -0.0046082255
-0.0025429619 0.0019047818 0.0037337039 -0.0008031822 -0.0071463897 0.013879872 0.0020809085 0.018153096
-0.00048192358 0.0075068558 -0.00092227163 0.006893699 0.0001930746 -0.0077854986 -0.01274485 -0.0027841541
-0.0025293082 0.008154118 -0.0077992836 0.009022905 0.0038286522 -0.008186693 -0.002780192 -0.00035664003
0.009288973 0.0090886 -0.00077756785 0.016437646 0.0055038696 -0.0047570406 -0.0044345264 -0.01037833
-0.00859851 -0.0015386409 -0.018322874 -0.005000052 0.01283651 0.007771225 0.013764513 -0.014476385
-0.0014338488 0.008647521 0.013743821 -0.0018010513 0.0024994288 0.0023887104 -0.012728204 0.0007455348
0.0072255507 -0.0008548117 0.005889121 -0.0032659308 -0.00954694 0.0031849379 -0.0072943815 -0.005091623
-0.0053280233 0.012734537 -0.0038058292 -0.008850128 0.021739181 0.0048764953 0.003400632 -0.01110416
0.008667988 -0.005552901 0.0037103058 -0.000573302 -0.0070750904 -0.0037131605 -0.0020041456 1.1453694e-05
-0.00066218624 -4.3375963e-05 -0.0016446678 0.007798959 0.0060143485 0.011252739 -0.0032985832 0.016267339
0.0061053033 0.0014897577 0.016449314 -0.004947993 -0.016306484 0.0072807777 0.009581824 -0.013864643
0.0014886012 0.00093960366 -0.013813716 0.013349673 -0.009942545 0.0030447587 -0.007965422 -0.0024013699
-0.0029891082 -0.00038220486 0.0022572137 -0.0060803974 0.0173782 -0.0026731142 -0.0010025366 0.008304265
0.004303903 0.0023502565 -0.0038360415 -0.008430595 0.0066173803 0.0070656147 -0.003352954 0.0024726586
-0.012264305 0.008049483 0.00776246 -0.012323679 0.017684244 0.010413573 -0.012398112 -0.0034940627
0.008157908 0.0003202962 -0.017691193 -0.01679831 0.005195347 0.0071101524 0.0018216403 -0.0005894236
0.010601653 0.0067912415 0.013587027 -0.008362014 0.0012536739 -0.002336512 -0.00047719092 0.0056246743
0.0049996325 0.013578988 -0.0106448345 0.005183201 0.0049847066 -0.014109912 0.005271298 0.0044465456
0.020799825 0.013245811 -0.009211422 0.01107131 -0.0049256943 -0.011457057 -0.007794742 -0.008203267
0.0029391167 0.010182771 -0.004008339 -0.004215217 0.005524715 -0.0018189757 0.0044683474 -0.0010867551
0.015411076 0.0056376294 0.005219884 0.0024573626 -0.012571931 0.010164509 -0.0016857408 0.012660452
0.0035540168 -0.0205511 -0.0049557397 0.014951473 -0.014955906 -0.006213118 0.014130851 -0.0069815973
0.0044111256 0.0033109083 0.004489191 0.006732723 0.009618378 0.006395482 -0.002898571 -0.0064483765
-0.0026083556 -0.009183236 0.008448551 -0.0056528207 0.015983958 0.012447291 -0.0018634758 0.0050502326
0.0062622163 0.002255694 0.0021766769 -0.0011637738 -0.009130543 0.0090710865 -0.008748599 0.008638508
-0.0044950363 -0.00023030379 0.002595164 -0.0074986443 -0.0088254735 0.0063648955 0.0022504705 2.8869e-06
-0.01319692 -0.0007052639 -0.0004980743 0.011427945 -0.003367031 0.0086028455 -0.00017154434 0.009393988
0.018445686 -0.0055078617 -0.0016118024 0.001395991 -0.0004969655 -0.0017117077 -0.010844838 0.006745656

hidden_layers.1.bias f4 [64]
00000000: 867e be3c 06da 1f3d c967 8a3d 6ceb 913d
00000010: 40af 6abe 9ab2 d1be ec8d b13d 15f2 11be
00000020: 53a6 6b3d 77e2 6dbe 687a e23b 78ff 3bbe
00000030: 63d2 973d 9d7f e9be 96f2 773d 441e 2d3d
00000040: 6e97 dd3c 0313 c93c 2dfb 9a3b 839b 69be
00000050: 9b0d 0c3d ffaa eabe 868c 533d e321 bc3d
00000060: 889d a23d 25ec 933d fe87 51bf 0d25 4f3d
00000070: 0e50 97be af7a 56bf 9439 923d 8b9a 4e3d
00000080: be09 9e3d af16 9c3d 1aaa 873d cf43 33bf
00000090: d63e 60be b9d8 85be eb1c 2b3d bfb5 4dbe
000000a0: fd28 5f3d 9733 003d 487e 603d 6cb3 7e3b
000000b0: abab 06bf 1a28 92bd 56ca 88be 5533 bbbd
000000c0: 8b56 85be 6052 b03d 9e56 5bbf 37b6 07bd
000000d0: 9d2c cdbe b1e1 81be c24f 633d 2c99 0bbf
000000e0: 0651 863d 5439 813d fe6f d73c 6cd4 d9be
000000f0: 6c5c 2d3e 7f27 053d 82f5 0c3b 8fea 823d
0.02325369 0.039026283 0.06758077 0.07124981 -0.22918415 -0.40956575 0.086696476 -0.14252503
0.057531666 -0.2323092 0.0069115646 -0.18359172 0.07413175 -0.45605174 0.060534082 0.04226519
0.027049746 0.024545198 0.0047296495 -0.2281323 0.034192663 -0.45833585 0.051647685 0.09186151
0.07940203 0.07222775 -0.8184813 0.050572444 -0.29553264 -0.8378095 0.071398884 0.050440352
0.07716702 0.07621514 0.06624241 -0.7002534 -0.2189897 -0.2614191 0.041775625 -0.20088862
0.05448245 0.0312992 0.05480793 0.0038864268 -0.52605695 -0.07136555 -0.2671687 -0.0914065
-0.2604259 0.08609462 -0.8567904 -0.033132758 -0.400731 -0.253675 0.055495985 -0.54530597
0.06558423 0.063097626 0.02629852 -0.42544878 0.16929787 0.03250837 0.0021508639 0.06392395
