critic_checkpoint_multiple.pth (torch_old, 89491 bytes, 9 tensors)

fc1.weight f4 [128, 33]
00000000: 50d0 503e 9b8a 173e 7826 473d 6e79 72bd
00000010: 72c0 28bd 5d6d a5bd 85b9 e5bc a653 523d
00000020: 9791 39bc 1502 aebd d866 04bd f6b4 d6bc
00000030: f4aa 3ebb 06e2 7dbe f916 a1bd 40e9 0c3d
00000040: 6dcc a7bd aeb7 663c 840a b2bc d889 f7bc
00000050: 4134 b63c 8db1 d63c e012 18bb afad 17bd
00000060: 0773 14bd 3c9c 18bb dd77 1d3e fbb7 0cbe
00000070: 4f08 e9bd 2c83 34bd c641 bcbd 4e03 1a3e
00000080: 8ab0 31bf 41dc 60be 8d0d 61be 95d5 f7bd
00000090: bc77 093d 038b af3d 4164 083d 244b 623d
000000a0: 863f cf3b ef3a 983d c4ab 473d 8c15 c4bc
000000b0: 07cf 5fbb e12a 6ebc d8e1 a53e 80c0 ab3e
000000c0: 69ee 703b f168 a03d 5756 c33d 44c0 033d
000000d0: bac3 fb3b 8155 7bbb 9550 fcba 7e56 0b3a
000000e0: fcd7 6b3d 9ee0 2e3d 7876 aeb7 ec28 52be
000000f0: 2f4d 033e 2545 d43c 222e d3bd d32d 4d3b
00000100: f0b6 c33d f55e 08be f5df 5f3e c115 2c3e
00000110: c555 e6bd 8e2c 033d 412e 05be e156 84bd
00000120: 2829 a8bc e2eb 9d3b c8bd b83c 15f8 133c
00000130: 963f c73c 8a54 4c3d 8947 893c 04c9 8dbe
00000140: 17f0 f9bd 41b4 893e ffc3 363d 0c75 1dbd
00000150: 015f ddbc febd 42bc 78bc 343a be16 a6bc
00000160: 3098 123b 2d63 89bd 36ab a8bc 3df9 573d
00000170: 521f 193e 5cf9 3b3e b2fc 1ebe 8244 e7bd
00000180: d343 01bd 8c3c 153d 3912 ec3e b9fb dbbd
00000190: a993 853e 9af5 3dbe 5bd0 96be 3e0c 843d
000001a0: a1ab 9abc bb2b 9cbd 2404 3fbe 24ed 21be
000001b0: ec52 c73d 276f 58bd 550a 7a3d f9d3 5e3d
000001c0: 1aaa 7bbc 9bad ac3c dcb5 af3d 79b8 ff3b
000001d0: 7f3f 67bd 891a d53d 1c9f 1f3e c2d4 a4ba
000001e0: f827 67bd f27d 813d 5e0a 3fbd 16fc 193e
000001f0: 4d80 1d3d 5693 55bd 9d19 0f3e 2efa 77bc
00000200: 5e70 79bd 9ae9 a6be acab 17bd e683 163c
00000210: 5497 09be e060 913d 34a3 403e 593a 7bbd
00000220: 3eb6 5fbe ad02 c93d bfeb 343d 97bd 4b3e
00000230: 3c22 82bd 5ba5 043e 156c a53d 207d a03c
00000240: e04c 52be 1949 ccbc f9bd 3d3e 54ac 413d
00000250: 19fa 1b3d d589 c2bd b048 21bd 6960 7bbd
00000260: 6f34 84bc 4526 6bbd eaea 873b f38f 48be
00000270: 6f9c 0e3d f849 033d 300a 723d 0a06 963d
00000280: fd48 13bd 28ff 0bbd 8a9f 99be 9ee9 19be
00000290: 47ab a1bd 1ff4 62be a64e 83bd e885 1e3d
000002a0: df56 8ebd e849 7abc 28b9 18bd 80e9 0bbe
000002b0: 2fd7 133d 3a26 403d c05e 4bbe fb26 853c
000002c0: 6432 203d f26e 053d e7f4 3f3d 73ef ae3d
000002d0: 5ae6 e4bd f4f2 6ebd e9fb 603d c8e7 033d
000002e0: 9b82 913d 5b74 ccba e2fd 37bd b547 99bd
000002f0: cf5c a1bd 2b9f 96bc b597 1ebd bb22 0e3e
00000300: 97e6 98bc c1a9 e93c 1a51 fbbd a3c0 4cbe
00000310: afbd cfbd da96 cebe 491f ce3b 81e8 7bbb
00000320: b931 d93c 6e89 143e 3439 62bd b236 0abe
00000330: 0e4b a93d 1fb5 d9bb 5d80 483e d83f 403d
00000340: 1806 c4bd c3ac f8bb d90b 3d3b 9a94 0dbe
00000350: 5c21 d23d e050 9fbd e88e 83bd 2152 a83c
00000360: e179 183d 7cac 5fbb aeb8 443c add4 4abd
00000370: 7c4d 5c3c cca0 ddbc d94b 203c d60d 233c
00000380: d814 46be eee0 f43c 9601 22bd c866 4abd
00000390: 3c44 07bb e02d d3bc 4fe5 d1be 6506 1b3e
000003a0: 60f3 363e ad20 0e3e 0686 333d fe73 5dbe
000003b0: 70d1 aebc e581 c5bc 7660 adbd 44f7 a6bd
000003c0: d028 e2bd 212f d73d 0588 a9bc dbe2 013e
000003d0: 8845 353d a998 aabd be03 483d 7ec7 0b3d
000003e0: f7f1 143d 417f 893c f72f 493d 5b40 3c3d
000003f0: 940b 6c3d abd9 04bd 8db6 fdbb ef73 22bc
0.20391965 0.14798968 0.04862067 -0.059197836 -0.041199155 -0.080775 -0.028042564 0.051349305
-0.011326215 -0.08496491 -0.032324642 -0.026209336 -0.0029093595 -0.24793252 -0.0786571 0.034402132
-0.08193288 0.014081879 -0.02173353 -0.030217096 0.022241713 0.02620771 -0.002320461 -0.037030872
-0.03624251 -0.0023286482 0.15377755 -0.13742058 -0.11378538 -0.044070408 -0.09192233 0.15040323
-0.6941 -0.2195902 -0.21977825 -0.121012844 0.033561453 0.08571436 0.033298735 0.05524744
0.0063247113 0.07433116 0.048747793 -0.023936056 -0.0034150498 -0.01453659 0.32398868 0.33545303
0.0036763197 0.07832516 0.095379524 0.03216578 0.0076832445 -0.0038350525 -0.001925009 0.00053153175
0.057579026 0.04269468 -2.0797583e-05 -0.20523423 0.12822412 0.025911877 -0.103115335 0.003130783
0.09556377 -0.13317473 0.21862777 0.16805173 -0.11246828 0.032024913 -0.13005926 -0.06461883
-0.020527437 0.004819379 0.022551432 0.009031315 0.024322312 0.04988531 0.016757743 -0.27692425
-0.12203997 0.26895335 0.04462051 -0.038441703 -0.02702284 -0.011886118 0.0006894539 -0.020274516
0.0022368543 -0.067083694 -0.020589452 0.052727927 0.14953354 0.18356842 -0.15526083 -0.11292364
-0.031558823 0.036434695 0.46107653 -0.10741372 0.26089218 -0.18550721 -0.29455838 0.064476475
-0.018880667 -0.076255284 -0.18653923 -0.15813118 0.09732613 -0.052840378 0.06104501 0.05440137
-0.01536038 0.021078875 0.08579609 0.0078039733 -0.05645704 0.10405452 0.15588039 -0.0012575614
-0.0564346 0.0632285 -0.046640746 0.1503757 0.038452435 -0.052142464 0.13974614 -0.015135331
-0.060898177 -0.326001 -0.037028953 0.0091867205 -0.13436633 0.070985556 0.18812257 -0.06133494
-0.21846864 0.098149635 0.044170137 0.19896542 -0.06354186 0.12953703 0.08077256 0.019590914
-0.20537138 -0.0249372 0.185295 0.047283486 0.03808031 -0.094989456 -0.03937596 -0.06137124
-0.016138284 -0.057409544 0.004147877 -0.19586162 0.034817155 0.032052964 0.059091747 0.073253706
-0.03595828 -0.034178883 -0.3000453 -0.15030524 -0.07893997 -0.22163437 -0.064114854 0.03870192
-0.06950163 -0.01527641 -0.037285954 -0.13663292 0.036093887 0.046911456 -0.19860363 0.016253939
0.039110556 0.03257651 0.046864416 0.08541765 -0.111767486 -0.058337167 0.05492774 0.032203466
0.07104989 -0.0015598641 -0.044919856 -0.0748438 -0.0787903 -0.018386444 -0.038718898 0.13880436
-0.018664641 0.028523328 -0.12271328 -0.1999536 -0.10143601 -0.40349466 0.0062903506 -0.0038438144
0.026512967 0.1450555 -0.055230334 -0.13497427 0.08266269 -0.006643906 0.19580217 0.046935886
-0.09571475 -0.007588954 0.0028846173 -0.13826218 0.10260269 -0.077790976 -0.064237416 0.020546975
0.037225608 -0.0034129908 0.012006922 -0.04951923 0.013446208 -0.027054213 0.0097837085 0.009952029
-0.19343889 0.029892411 -0.039552294 -0.049414426 -0.0020640036 -0.02577871 -0.4099526 0.15139158
0.17866278 0.13879652 0.043828987 -0.21626279 -0.021340102 -0.02410979 -0.08465664 -0.08152631
-0.110429406 0.10507036 -0.020694742 0.12684195 0.044255763 -0.08329899 0.048831694 0.034125797
0.03636357 0.016784312 0.04911801 0.04595981 0.05762823 -0.032434147 -0.007742709 -0.009915336

fc1.bias f4 [128]
00000000: f2ee 573d 5c54 b63d fd23 433d 5008 09bd
00000010: 5a72 75be 7bab 83bd bef1 58bd da8e 26be
00000020: d406 553d b23d 293d 6677 95be 5f40 a2be
00000030: d531 67be 7d85 013d 33de 20be fef4 0cbd
00000040: 4982 27be 6755 8ebc 45e0 81bd c9cd 36bd
00000050: 5ac6 84be 05f5 463d 623c 88bd f1cd babc
00000060: 53b1 9ebd 13cf e93d 0ad3 8ebc f22d 19be
00000070: d44b 78be f16a c6be e122 90be 6b84 3cbd
00000080: 4087 0b3c b220 8fbd ca2d fb3d 18c2 b03d
00000090: b93e 96be b0df 64be 6449 c5bd 16fb a8bd
000000a0: 4f03 4fbe 23b9 103d 54f5 5dbe 6827 60be
000000b0: afee b73c 75df 3dbd 6793 74be 25e0 93bd
000000c0: bed0 e6bd 171a 673a 2048 81be 7e46 eabd
000000d0: 0b70 83be a75e 85be 4f7e 60bc ec84 cbbd
000000e0: 223c 47be 7e19 64bd 805b 5dbe d4d9 4dbe
000000f0: 9ccf 1abe 69d9 f4bd f18a 7bbd 2f9a ccbc
00000100: fdeb 66be f7e4 a2bd 8ada 3d3d 91ec 50be
00000110: c49a 81bc f36c 4abd e764 56bd 2356 08be
00000120: 0199 3ebe 9357 113e 1fd1 1bbc 9616 ffbd
00000130: 1ef6 a73c bc90 32be 9e78 66bd 19f8 14be
00000140: 99a7 09be ff1e 803a 4bf1 20be 9f24 f7bd
00000150: 0d67 e6bd 746c 85be 00cd a5bd 8b03 6bbb
00000160: 11d4 2dbe de03 1ebe 45f9 c33d c7e5 a6bd
00000170: ec42 acbd bcfc 54be ec14 bcbe 07e6 bbbc
00000180: f093 893c deac ec3c 820d cabc 5bc4 32bd
00000190: 21b9 a73d 83f0 383e c72b 9d3d ec2c 6abe
000001a0: 3d5e 10bd 6957 bebd f715 7f3d 1b09 58bd
000001b0: eb24 73be a36e f6bd 6a49 403a 513d 0dbc
000001c0: 5787 88be 7d95 d63d ee25 9bbe 5625 67be
000001d0: d63c b9bd a850 1fbe eb6e 2ebd 9843 e5bd
000001e0: e00e 82be 771b 4dbe a41d 27bd f9d9 8bbe
000001f0: b812 89be a870 cebd f700 0fbd c859 a2bc
0.05271811 0.08902809 0.047641743 -0.033455193 -0.23969403 -0.06429192 -0.05296492 -0.16265431
0.052008465 0.041318603 -0.29192656 -0.31689736 -0.22577603 0.031621445 -0.15709762 -0.03441333
-0.16358294 -0.017374707 -0.06341604 -0.044629846 -0.2593258 0.048573513 -0.06652142 -0.022803279
-0.07748666 0.114164494 -0.017434616 -0.14958933 -0.24247676 -0.38753465 -0.2815161 -0.04602472
0.008516133 -0.06988658 0.12264593 0.086307704 -0.2934473 -0.22350955 -0.09633139 -0.08251016
-0.20216106 0.03533281 -0.21675617 -0.21890032 0.02245268 -0.046355683 -0.23884355 -0.072204866
-0.11270283 0.00088158384 -0.2525034 -0.114392266 -0.2567142 -0.26048777 -0.013701989 -0.09937462
-0.19456533 -0.055688374 -0.21616936 -0.20102626 -0.15118259 -0.1195553 -0.0614118 -0.024975864
-0.2255096 -0.07953828 0.046350993 -0.20402743 -0.015820868 -0.04942031 -0.05234232 -0.13314109
-0.18613054 0.14193563 -0.009510308 -0.1245548 0.0205031 -0.17438024 -0.056267373 -0.14547767
-0.1344284 0.0009774863 -0.15717046 -0.12067532 -0.11250124 -0.26059306 -0.08095741 -0.0035860266
-0.16975428 -0.15431163 0.09569029 -0.08149295 -0.08411202 -0.20799536 -0.36734712 -0.022936834
0.016794175 0.028891023 -0.024664644 -0.04364429 0.081896074 0.18060498 0.076743655 -0.22868699
-0.035246123 -0.09294016 0.062276807 -0.05274306 -0.23744552 -0.12032821 0.00073351583 -0.008620576
-0.26665756 0.104777314 -0.30302376 -0.22572836 -0.09044807 -0.15558112 -0.04258625 -0.11194533
-0.25401974 -0.20030008 -0.040799752 -0.27314737 -0.26772094 -0.10080081 -0.03491303 -0.019818202

bn1.weight f4 [128]
00000000: d873 7d3e 7a5b 163f 55cb 753f 0b13 153f
00000010: 0624 813e 1249 043f 307a 293d b880 373e
00000020: d272 d03e 44f2 403e 6f64 6c3f 9bd8 183f
00000030: 3624 633f deb4 c53e 9265 dc3e 9349 203f
00000040: 8ee1 b33e 8ebc a83e 40d9 1b3c ab6d 603f
00000050: fed7 733f 00d6 a13b dc4c ab3e 7075 f93d
00000060: 4415 983e a172 613f 4a78 443f ee22 ec3e
00000070: 45ab 363f dc39 263f 2ee7 453f 001d c93d
00000080: d390 273f e0b4 d83c 7846 2f3e be99 a03e
00000090: de0e e73e e095 e63c 812f 033f a06f 143f
000000a0: fc66 9a3e 6884 293f 71d9 6f3f 7e45 d43e
000000b0: dc51 6f3e d0d2 693d dc22 0a3e b8d1 643e
000000c0: d87d 053e 805a 9b3e 6583 463f d50d 283f
000000d0: 965e 733f 9b15 7f3f 0ad0 a33e dabe 9b3e
000000e0: 2384 113f 689b d03d 239f 453f f8ec d13e
000000f0: 4093 a63d 18e6 fa3d 7032 1f3e 5b2e 233f
00000100: fb1e 623f 8968 653f 5682 b93e 0c9a 563e
00000110: d660 8e3e 2c3e 223e 66ff bd3e 605d 463d
00000120: 6a6a 443f 40dd f03c 1082 413e 9de6 553f
00000130: f004 013e ac99 1e3f 02e0 5f3f de2b 7e3f
00000140: 45c4 403f 5e4c bb3e cc24 493f 228d f73e
00000150: 9e10 b13e b86a 003f 29b6 1c3f 98d3 553f
00000160: d5ba 353f 681e 3d3f 0326 133f 781d f33e
00000170: 2ebf 353f 70c9 1e3f e093 b03c c6b1 143f
00000180: fe4f 8e3e cc7c 703e 6180 313f af2c 1a3f
00000190: 0bad 153f ce8e 863e 3e25 3b3f 881e 783f
000001a0: bea8 0f3f 839c 343f 703b 7b3d 6b18 4c3f
000001b0: 3677 2c3f e7aa 393f a960 353f 6caa bc3e
000001c0: 32a2 f03e 6dcf 7b3f 86a9 5d3f 1c01 113e
000001d0: e88e 653f bf63 7f3f 5dd5 103f f017 e13d
000001e0: c5cf 183f 4c4c cc3e c307 5c3f e0a0 a03c
000001f0: 72c1 203f 56ff fc3e 9713 0a3f d80c 583f
0.24751222 0.5873333 0.96013385 0.5823218 0.25222796 0.51673996 0.041376293 0.17920196
0.407126 0.18842417 0.9234075 0.59705514 0.8872713 0.38614553 0.43046242 0.62612265
0.35133022 0.32956356 0.009512246 0.8766734 0.9525145 0.004938841 0.33457077 0.121806026
0.29703724 0.88065535 0.76746047 0.461204 0.71355087 0.64932036 0.7730588 0.098199844
0.6545536 0.026453435 0.17116725 0.31367296 0.4512853 0.028147638 0.5124436 0.57982826
0.30156696 0.6621766 0.93691164 0.41459268 0.2337107 0.057085812 0.1348986 0.22345626
0.13036287 0.30342484 0.7754424 0.65646106 0.950662 0.9964234 0.3199466 0.30419046
0.5684225 0.101858914 0.7719595 0.41001105 0.081335545 0.12250918 0.15546584 0.6374261
0.8832852 0.89612633 0.3623225 0.20957202 0.27808255 0.15844029 0.37108916 0.048428893
0.76724875 0.029402375 0.18897271 0.8355501 0.1259954 0.61953235 0.87451184 0.99285686
0.75299484 0.365817 0.7857177 0.48349863 0.3458299 0.5016284 0.61215454 0.8352599
0.7098821 0.7387452 0.57479876 0.4748342 0.7099484 0.6202612 0.021554887 0.5808376
0.27795404 0.23485106 0.69336516 0.6022443 0.5846717 0.26280826 0.731037 0.96921587
0.56116855 0.7055132 0.06133598 0.7972476 0.673694 0.725264 0.70850617 0.36848772
0.46998745 0.9836338 0.865868 0.1416058 0.8967118 0.99761575 0.56575567 0.10990894
0.5969203 0.3990196 0.85949343 0.019607961 0.62795174 0.49413556 0.5393614 0.843946

bn1.bias f4 [128]
00000000: 0000 0000 0000 0000 0000 0000 0000 0000
00000010: 0000 0000 0000 0000 0000 0000 0000 0000
00000020: 0000 0000 0000 0000 0000 0000 0000 0000
00000030: 0000 0000 0000 0000 0000 0000 0000 0000
00000040: 0000 0000 0000 0000 0000 0000 0000 0000
00000050: 0000 0000 0000 0000 0000 0000 0000 0000
00000060: 0000 0000 0000 0000 0000 0000 0000 0000
00000070: 0000 0000 0000 0000 0000 0000 0000 0000
00000080: 0000 0000 0000 0000 0000 0000 0000 0000
00000090: 0000 0000 0000 0000 0000 0000 0000 0000
000000a0: 0000 0000 0000 0000 0000 0000 0000 0000
000000b0: 0000 0000 0000 0000 0000 0000 0000 0000
000000c0: 0000 0000 0000 0000 0000 0000 0000 0000
000000d0: 0000 0000 0000 0000 0000 0000 0000 0000
000000e0: 0000 0000 0000 0000 0000 0000 0000 0000
000000f0: 0000 0000 0000 0000 0000 0000 0000 0000
00000100: 0000 0000 0000 0000 0000 0000 0000 0000
00000110: 0000 0000 0000 0000 0000 0000 0000 0000
00000120: 0000 0000 0000 0000 0000 0000 0000 0000
00000130: 0000 0000 0000 0000 0000 0000 0000 0000
00000140: 0000 0000 0000 0000 0000 0000 0000 0000
00000150: 0000 0000 0000 0000 0000 0000 0000 0000
00000160: 0000 0000 0000 0000 0000 0000 0000 0000
00000170: 0000 0000 0000 0000 0000 0000 0000 0000
00000180: 0000 0000 0000 0000 0000 0000 0000 0000
00000190: 0000 0000 0000 0000 0000 0000 0000 0000
000001a0: 0000 0000 0000 0000 0000 0000 0000 0000
000001b0: 0000 0000 0000 0000 0000 0000 0000 0000
000001c0: 0000 0000 0000 0000 0000 0000 0000 0000
000001d0: 0000 0000 0000 0000 0000 0000 0000 0000
000001e0: 0000 0000 0000 0000 0000 0000 0000 0000
000001f0: 0000 0000 0000 0000 0000 0000 0000 0000
0.0 0.0 0.0 0.0 0.0 0.0 0.0 0.0
0.0 0.0 0.0 0.0 0.0 0.0 0.0 0.0
0.0 0.0 0.0 0.0 0.0 0.0 0.0 0.0
0.0 0.0 0.0 0.0 0.0 0.0 0.0 0.0
0.0 0.0 0.0 0.0 0.0 0.0 0.0 0.0
0.0 0.0 0.0 0.0 0.0 0.0 0.0 0.0
0.0 0.0 0.0 0.0 0.0 0.0 0.0 0.0
0.0 0.0 0.0 0.0 0.0 0.0 0.0 0.0
0.0 0.0 0.0 0.0 0.0 0.0 0.0 0.0
0.0 0.0 0.0 0.0 0.0 0.0 0.0 0.0
0.0 0.0 0.0 0.0 0.0 0.0 0.0 0.0
0.0 0.0 0.0 0.0 0.0 0.0 0.0 0.0
0.0 0.0 0.0 0.0 0.0 0.0 0.0 0.0
0.0 0.0 0.0 0.0 0.0 0.0 0.0 0.0
0.0 0.0 0.0 0.0 0.0 0.0 0.0 0.0
0.0 0.0 0.0 0.0 0.0 0.0 0.0 0.0

bn1.running_mean f4 [128]
00000000: 0000 0000 0000 0000 0000 0000 0000 0000
00000010: 0000 0000 0000 0000 0000 0000 0000 0000
00000020: 0000 0000 0000 0000 0000 0000 0000 0000
00000030: 0000 0000 0000 0000 0000 0000 0000 0000
00000040: 0000 0000 0000 0000 0000 0000 0000 0000
00000050: 0000 0000 0000 0000 0000 0000 0000 0000
00000060: 0000 0000 0000 0000 0000 0000 0000 0000
00000070: 0000 0000 0000 0000 0000 0000 0000 0000
00000080: 0000 0000 0000 0000 0000 0000 0000 0000
00000090: 0000 0000 0000 0000 0000 0000 0000 0000
000000a0: 0000 0000 0000 0000 0000 0000 0000 0000
000000b0: 0000 0000 0000 0000 0000 0000 0000 0000
000000c0: 0000 0000 0000 0000 0000 0000 0000 0000
000000d0: 0000 0000 0000 0000 0000 0000 0000 0000
000000e0: 0000 0000 0000 0000 0000 0000 0000 0000
000000f0: 0000 0000 0000 0000 0000 0000 0000 0000
00000100: 0000 0000 0000 0000 0000 0000 0000 0000
00000110: 0000 0000 0000 0000 0000 0000 0000 0000
00000120: 0000 0000 0000 0000 0000 0000 0000 0000
00000130: 0000 0000 0000 0000 0000 0000 0000 0000
00000140: 0000 0000 0000 0000 0000 0000 0000 0000
00000150: 0000 0000 0000 0000 0000 0000 0000 0000
00000160: 0000 0000 0000 0000 0000 0000 0000 0000
00000170: 0000 0000 0000 0000 0000 0000 0000 0000
00000180: 0000 0000 0000 0000 0000 0000 0000 0000
00000190: 0000 0000 0000 0000 0000 0000 0000 0000
000001a0: 0000 0000 0000 0000 0000 0000 0000 0000
000001b0: 0000 0000 0000 0000 0000 0000 0000 0000
000001c0: 0000 0000 0000 0000 0000 0000 0000 0000
000001d0: 0000 0000 0000 0000 0000 0000 0000 0000
000001e0: 0000 0000 0000 0000 0000 0000 0000 0000
000001f0: 0000 0000 0000 0000 0000 0000 0000 0000
0.0 0.0 0.0 0.0 0.0 0.0 0.0 0.0
0.0 0.0 0.0 0.0 0.0 0.0 0.0 0.0
0.0 0.0 0.0 0.0 0.0 0.0 0.0 0.0
0.0 0.0 0.0 0.0 0.0 0.0 0.0 0.0
0.0 0.0 0.0 0.0 0.0 0.0 0.0 0.0
0.0 0.0 0.0 0.0 0.0 0.0 0.0 0.0
0.0 0.0 0.0 0.0 0.0 0.0 0.0 0.0
0.0 0.0 0.0 0.0 0.0 0.0 0.0 0.0
0.0 0.0 0.0 0.0 0.0 0.0 0.0 0.0
0.0 0.0 0.0 0.0 0.0 0.0 0.0 0.0
0.0 0.0 0.0 0.0 0.0 0.0 0.0 0.0
0.0 0.0 0.0 0.0 0.0 0.0 0.0 0.0
0.0 0.0 0.0 0.0 0.0 0.0 0.0 0.0
0.0 0.0 0.0 0.0 0.0 0.0 0.0 0.0
0.0 0.0 0.0 0.0 0.0 0.0 0.0 0.0
0.0 0.0 0.0 0.0 0.0 0.0 0.0 0.0

bn1.running_var f4 [128]
00000000: 0000 803f 0000 803f 0000 803f 0000 803f
00000010: 0000 803f 0000 803f 0000 803f 0000 803f
00000020: 0000 803f 0000 803f 0000 803f 0000 803f
00000030: 0000 803f 0000 803f 0000 803f 0000 803f
00000040: 0000 803f 0000 803f 0000 803f 0000 803f
00000050: 0000 803f 0000 803f 0000 803f 0000 803f
00000060: 0000 803f 0000 803f 0000 803f 0000 803f
00000070: 0000 803f 0000 803f 0000 803f 0000 803f
00000080: 0000 803f 0000 803f 0000 803f 0000 803f
00000090: 0000 803f 0000 803f 0000 803f 0000 803f
000000a0: 0000 803f 0000 803f 0000 803f 0000 803f
000000b0: 0000 803f 0000 803f 0000 803f 0000 803f
000000c0: 0000 803f 0000 803f 0000 803f 0000 803f
000000d0: 0000 803f 0000 803f 0000 803f 0000 803f
000000e0: 0000 803f 0000 803f 0000 803f 0000 803f
000000f0: 0000 803f 0000 803f 0000 803f 0000 803f
00000100: 0000 803f 0000 803f 0000 803f 0000 803f
00000110: 0000 803f 0000 803f 0000 803f 0000 803f
00000120: 0000 803f 0000 803f 0000 803f 0000 803f
00000130: 0000 803f 0000 803f 0000 803f 0000 803f
00000140: 0000 803f 0000 803f 0000 803f 0000 803f
00000150: 0000 803f 0000 803f 0000 803f 0000 803f
00000160: 0000 803f 0000 803f 0000 803f 0000 803f
00000170: 0000 803f 0000 803f 0000 803f 0000 803f
00000180: 0000 803f 0000 803f 0000 803f 0000 803f
00000190: 0000 803f 0000 803f 0000 803f 0000 803f
000001a0: 0000 803f 0000 803f 0000 803f 0000 803f
000001b0: 0000 803f 0000 803f 0000 803f 0000 803f
000001c0: 0000 803f 0000 803f 0000 803f 0000 803f
000001d0: 0000 803f 0000 803f 0000 803f 0000 803f
000001e0: 0000 803f 0000 803f 0000 803f 0000 803f
000001f0: 0000 803f 0000 803f 0000 803f 0000 803f
1.0 1.0 1.0 1.0 1.0 1.0 1.0 1.0
1.0 1.0 1.0 1.0 1.0 1.0 1.0 1.0
1.0 1.0 1.0 1.0 1.0 1.0 1.0 1.0
1.0 1.0 1.0 1.0 1.0 1.0 1.0 1.0
1.0 1.0 1.0 1.0 1.0 1.0 1.0 1.0
1.0 1.0 1.0 1.0 1.0 1.0 1.0 1.0
1.0 1.0 1.0 1.0 1.0 1.0 1.0 1.0
1.0 1.0 1.0 1.0 1.0 1.0 1.0 1.0
1.0 1.0 1.0 1.0 1.0 1.0 1.0 1.0
1.0 1.0 1.0 1.0 1.0 1.0 1.0 1.0
1.0 1.0 1.0 1.0 1.0 1.0 1.0 1.0
1.0 1.0 1.0 1.0 1.0 1.0 1.0 1.0
1.0 1.0 1.0 1.0 1.0 1.0 1.0 1.0
1.0 1.0 1.0 1.0 1.0 1.0 1.0 1.0
1.0 1.0 1.0 1.0 1.0 1.0 1.0 1.0
1.0 1.0 1.0 1.0 1.0 1.0 1.0 1.0

fc2.weight f4 [128, 132]
00000000: 10e2 553d 57f0 a8bd 4f7c 5ebd 01a7 28be
00000010: 7a4a 02bd b442 163c 1ad4 733c 530b a0be
00000020: 509d 04be dc19 45be 937e 863d 26d0 f5bd
00000030: 9f8d 66bc 4acc ee3d 776f 263d 0829 453d
00000040: 4b90 9d3c da46 3d3e 16c5 9e3d 40e6 f9bd
00000050: 1e58 2ebe 17ce 273d 7d0b b5bd 0de7 8abe
00000060: 078b f13d 0a2f e53b de15 893d 671f b2be
00000070: 2b39 07bd 36bb ce3d 0c82 1a3d b6ac ee3d
00000080: fcd3 8bbe c087 25bd 589d 1f3e f20b 25be
00000090: 1e8f 2e3c b844 82be 2309 41bd 5fe7 7dbe
000000a0: 1701 4bbc defb aabd b3cc 233e 2c6c 4cbd
000000b0: 6919 1c3d 9315 36be 5603 9c3d c952 7a3c
000000c0: afd8 44be f8f4 fcbc 8ca1 c8bd cae6 9bbe
000000d0: 9d37 1fbe 572f 82bd 266c 043d d677 8fbc
000000e0: f844 dd3c cedb e33d ca1a 84be b381 60be
000000f0: edd6 85be f369 44be bc35 ce3c fc9b 1ebc
00000100: 0424 38bd 10f6 17bd b990 24be c916 dfbd
00000110: 08a2 28bd 9828 6a3d afec 113e 9389 2dbe
00000120: 9dec f73b 121d 06bd 8d33 3b3b 840d c4bd
00000130: 2e15 38bd e3fa 5bbd 8262 97bd 5d0f ec3d
00000140: 9a09 6fbe f592 113d 6857 6ebe e352 5a3c
00000150: 2545 11bd f84e abbe e633 45be cdc7 00be
00000160: af28 f8bc 5772 19be bbb6 c43d 17ae 503c
00000170: b452 943d 4176 463c f7af a6bc 155d 69be
00000180: d61c b13c f46a 1dbe eb6e c0bd 3fbf c3bc
00000190: 9379 a0bc f01e 50be 848a f6bd d768 3d3b
000001a0: 9e65 2dbd b044 d0bd b186 a63c 71f0 563d
000001b0: 4aa6 04bd 74ae 16bd c062 2d3c 5390 9abe
000001c0: 55bd 34bd d18d 913b 86d8 62ba c628 0ebe
000001d0: b66d 58be 32c4 09be 3f6c 2dbe c489 2b3e
000001e0: 3379 4a3c d6d2 1fbe 31ac 36be 96a1 2cbd
000001f0: c1f0 3ebb 9d90 633d 3d32 d8bd f5c4 843d
00000200: 7daa 503e fe4f abbc 1708 5bbd f993 6abd
00000210: 1ba8 b43c e7e0 fdbc 3602 7cbd 5eff 283d
00000220: 7685 44bc d21c 06bd d1fc f3bc 3e8e 773d
00000230: 5113 9dbd 72e5 61be 88cc 73be ae8b e93d
00000240: 2641 e53c 16e2 153d a5cc e93b 4056 633d
00000250: a4cb a9bd 94e0 563e 4004 2b3b 07df 963d
00000260: 8c94 cdbc dd47 8c3d 13a3 d13b 78d3 2dbe
00000270: 87ca dabc 2afc ee3c 5673 ff3c 316d 41bc
00000280: e6dd e93c d285 efbd be4a 183e 5c82 d93c
00000290: 5ff0 8dbc a77e 2e3d 76c1 b33c e6e7 27be
000002a0: d040 12be 34f6 d83d 8237 b5bd d05a 99bd
000002b0: a09e 9b3c 763f 13bd cdf7 6ebd 6917 a7bc
000002c0: 719a f3bb a100 273d 6ae4 b9bd 8942 2e3d
000002d0: c5ff 14be 12d6 973b b58e aabd 426b 08bd
000002e0: 443d 34bc 8dfd 943d 2232 0abd ba61 68be
000002f0: fda3 d83c bffc dbbd 179f c53c b085 733d
00000300: 4d2c 883c bd4b 123e 56b8 0a3c e176 e13d
00000310: d250 5b3d ca5e ccbd bec0 dfbd 41df 463c
00000320: ed32 04bd 50a0 363d 5be1 423d dd66 1dbe
00000330: cfbd ccbc 3aa9 c6bd ab78 3fbc 37ec c9bc
00000340: 828b 5e3d 036b 22bd b754 2a3d 2f72 87bd
00000350: 4e5c 08be 12e2 f03c ba11 cb3d abb9 15be
00000360: 7bac 31bb a981 52be 961c a83d 7abf 9e3d
00000370: 53c0 433e df3a 63bd 7326 943d 9da2 b13d
00000380: da88 32be af16 5c3d 356f e53d 94e2 a3bd
00000390: fe2a 8d3c 32b0 c33b 98be 76bd e617 c2bd
000003a0: 0437 873d 4bc3 063c 7f64 8c3d 286d 853d
000003b0: ea6f d4bc de9c 0c3e 47c0 25be d3b1 013e
000003c0: 6525 a7bd 7478 f0bc b193 533d 203b c2bd
000003d0: 063d 9b3d 3158 103e e1a8 6c3c a835 4bbd
000003e0: 716f 1e3d 8924 2a3e f4cc 6dbe 0fea 8bbd
000003f0: 74f6 bfbd 1bfa 31be b047 f1be 2ee0 9f3d
0.052217543 -0.08248966 -0.05431777 -0.16469957 -0.031809308 0.009171177 0.014882112 -0.3125864
-0.12950635 -0.19248146 0.06567111 -0.12002592 -0.014071851 0.11660059 0.040633645 0.048134834
0.019233843 0.18484059 0.07752435 -0.1220212 -0.17025802 0.040968027 -0.08840082 -0.27129403
0.117940955 0.006994133 0.06693624 -0.34789583 -0.033013504 0.100943014 0.03772168 0.11654036
-0.2731017 -0.040412664 0.15587366 -0.16117838 0.010654239 -0.25443053 -0.047127854 -0.24795292
-0.012390397 -0.08348821 0.15996055 -0.04990785 0.03811017 -0.17781667 0.07617824 0.015278527
-0.19223283 -0.030878529 -0.097964376 -0.30449516 -0.15548559 -0.063566856 0.0323297 -0.017513197
0.027010426 0.11125909 -0.25801688 -0.21924476 -0.26140538 -0.19181041 0.025172107 -0.009680744
-0.044956222 -0.037099898 -0.16070832 -0.10893018 -0.04117015 0.05716762 0.14250444 -0.16947012
0.0075660483 -0.032742567 0.0028564662 -0.095728904 -0.044942074 -0.05370606 -0.07391836 0.11526368
-0.23343506 0.03554054 -0.2327553 0.013325426 -0.035466332 -0.33458686 -0.19258079 -0.12576218
-0.030292837 -0.14985023 0.096051656 0.012736819 0.07242337 0.012113155 -0.020347578 -0.22789414
0.021620195 -0.1537283 -0.09396156 -0.023894904 -0.019589221 -0.20324302 -0.120381385 0.00289016
-0.042333238 -0.10169351 0.020327898 0.052475397 -0.032385148 -0.036787465 0.010582626 -0.30188236
-0.044125874 0.0044419547 -0.00086534803 -0.13882741 -0.21135601 -0.13453749 -0.16935824 0.16751772
0.012357998 -0.15607771 -0.17839123 -0.042146288 -0.00291352 0.055557836 -0.10556457 0.06482879
0.20377536 -0.020912167 -0.053474512 -0.057270024 0.022052815 -0.03099103 -0.061525546 0.041259162
-0.01199471 -0.03274233 -0.029783638 0.060438387 -0.076697 -0.22060183 -0.23808491 0.11403595
0.027985167 0.036592565 0.007134991 0.055502176 -0.082907945 0.20984107 0.0026095062 0.07366758
-0.025095247 0.06849644 0.006397614 -0.169752 -0.0267079 0.029172976 0.031182926 -0.011805818
0.028548192 -0.11695446 0.14872262 0.026551418 -0.017326532 0.042601254 0.021942835 -0.16397056
-0.14282537 0.105938345 -0.08848478 -0.07488024 0.018996537 -0.035949193 -0.05834179 -0.020396905
-0.0074341823 0.040772084 -0.0907677 0.04254392 -0.14550693 0.0046336735 -0.083280005 -0.033305414
-0.011000935 0.072749235 -0.033739217 -0.2269353 0.026445383 -0.10741567 0.024123712 0.059453666
0.016622687 0.14286704 0.008466801 0.110090025 0.053543873 -0.09979017 -0.109254345 0.012138189
-0.03227513 0.04458648 0.047578197 -0.1537127 -0.024992852 -0.09700246 -0.011686484 -0.024648769
0.054332264 -0.039652836 0.041584697 -0.06613576 -0.13316461 0.029404674 0.099154904 -0.14621608
-0.0027110863 -0.20557274 0.08208577 0.07751365 0.19116335 -0.055476066 0.07233896 0.08673594
-0.17435017 0.05373257 0.11202852 -0.08002201 0.017232414 0.005971932 -0.060240358 -0.094772145
0.0660229 0.008225272 0.068551056 0.065149605 -0.025932271 0.13731715 -0.16186629 0.12665491
-0.08161429 -0.029354312 0.05165452 -0.094839334 0.07579999 0.14096142 0.014444561 -0.049611717
0.038680498 0.166155 -0.23222715 -0.068317525 -0.09373179 -0.17380564 -0.47125006 0.07806431

fc2.bias f4 [128]
00000000: e87b 2d3d 8ca8 613d 04bf 0fbc aa8e af3c
00000010: e061 183e cff5 bdbc ad35 f3bd 1f74 9f3d
00000020: 10d4 213d 8b3f 4e3d 05f2 de3c 6486 94bd
00000030: 84da ba3d bd92 28bd 1ab3 bebd 3c11 913d
00000040: b897 d33d 6b54 f0bb eba0 bf3c 203f 97bd
00000050: 8628 32bd f11e 3c3d d690 70bd 9b35 00bd
00000060: bc56 423e f147 823c 52ed 6fbe dd9f 1e3d
00000070: eee0 a23d 3281 803b d42f 29be 3836 303a
00000080: b1be 1d3e ff27 aebd e145 9dbd 305e fa3d
00000090: cb6d ea3d 365e 18be 6fb4 a8bd 690b e0bc
000000a0: d23a f13d e658 1a3c f880 bbbd e5df 183e
000000b0: 89ce 75bd 7016 b3bd 3125 d2bd c44e d63d
000000c0: 3716 263b 5647 c03a 8a77 793c 3dda 2bbe
000000d0: 315c e2bd cc76 7fbd eccc 783d 169b 413e
000000e0: 8d57 07bd 7fef 74bd e910 d4bd c31c 0c3d
000000f0: f781 5c3d d317 a8bd b4cb ecbd 68d4 24be
00000100: ce80 11bd c4aa d4bd 9a7a 68bc 3622 25bd
00000110: 09c3 6f3b 5636 1d3d f5fc 8c3b 8cf6 003e
00000120: eb0c b4bd b7f0 78bd 14d2 91bc bda7 efbd
00000130: 4de8 06be a73d 353e 2087 39be 195c 843b
00000140: af5b 5b3d 4d03 3ebe 75b0 623e 8d8f 8b3b
00000150: d0b1 3b3e 88a4 b03d cf4f bf3d 1297 00bd
00000160: 5517 293e a5e6 a5bd 1566 40bc cc88 2dbd
00000170: cb87 c03d e848 623e 092c cfbd 338a 1dbe
00000180: db15 9cbd 96f8 ecbd b2f6 d03c f994 50bc
00000190: 302e 9dbb 862c 39be 17ab 073e 1628 12be
000001a0: 88d0 d7bc 5f7e 42bd 14ef b83b f83c 973d
000001b0: e7d2 ef3c 4fd5 44bd 5823 ee3d 1e4c 933c
000001c0: 889c 04bd cab2 d63c 0683 a63d 262e 23bd
000001d0: 2818 ecbd f622 b1bd a8f6 d9bd 9cc7 833d
000001e0: bc6b 043d 6120 cdbd cc09 d9bc b1d2 b13d
000001f0: 69fc d33d f8cc e6bd 7bc7 cdbd 47bb 06be
0.042354494 0.05509238 -0.008773569 0.021430332 0.14881086 -0.0231885 -0.11875472 0.0778582
0.03950888 0.050353568 0.027215013 -0.072521955 0.0912371 -0.041155566 -0.09311505 0.07083365
0.103316724 -0.007334282 0.023392161 -0.07385087 -0.043495677 0.045927946 -0.058731876 -0.031301122
0.18978399 0.015903445 -0.23430374 0.038726676 0.07953058 0.0039216513 -0.16522151 0.00067219464
0.15404774 -0.085037224 -0.07679344 0.12224996 0.114467226 -0.14879689 -0.0823754 -0.02734919
0.11778797 0.009420609 -0.09155458 0.14929159 -0.06001142 -0.08744514 -0.10261 0.10464242
0.002534283 0.0014669697 0.015226254 -0.1678247 -0.1105274 -0.062369153 0.060742304 0.18906817
-0.03304248 -0.059798714 -0.10354788 0.034207117 0.05383488 -0.08207669 -0.11562291 -0.16096652
-0.03552323 -0.103841335 -0.014189387 -0.04031583 0.0036584756 0.038381897 0.0043026158 0.1259405
-0.087915264 -0.06077644 -0.017800368 -0.117019154 -0.13174553 0.176993 -0.18117952 0.004039299
0.053554233 -0.18555947 0.22137626 0.004259056 0.18329549 0.08625132 0.09341394 -0.031394072
0.16512807 -0.081006326 -0.011743088 -0.042366788 0.094009005 0.22098124 -0.10115821 -0.1538475
-0.07621356 -0.115708515 0.025508258 -0.01273083 -0.0047967657 -0.1808339 0.1324886 -0.14273104
-0.026344553 -0.047483798 0.0056437347 0.07384676 0.02927537 -0.04805499 0.11627835 0.017980631
-0.032375842 0.0262083 0.081304595 -0.039838932 -0.11528045 -0.086492464 -0.10642749 0.06434557
0.032329306 -0.100159414 -0.02649393 0.08682764 0.10350878 -0.112695634 -0.100478135 -0.13157378

fc3.weight f4 [1, 128]
00000000: dc86 9ebd f3da 973c 36d7 aebd ab8c d7bd
00000010: ea5d 983d ff24 e0bd 17be 40bd 773a 883d
00000020: 9c59 733d a6d4 833d 2a1f 443d d66c 3cbd
00000030: bec4 e53c 5a66 f4bd 1250 80bd 234e a83d
00000040: c640 d03d 543d 55bd d594 783d 0891 bfbd
00000050: 224e 64bd 9ff7 463b 745b 1b3e e09b 75bd
00000060: 64ad e63d de8f 9abd 8226 42bd 2eeb cd3d
00000070: 573e 083e 26fa 08be b312 2ebd 5f37 6c3d
00000080: 74a9 143d db8d 67bd 1e81 3abd 0596 b73d
00000090: d3e8 6e3d b561 d1bd 8d80 abbd fd0c b2bb
000000a0: ac20 3a3d 8aec c1bd ea10 3b3d e357 8e3d
000000b0: 0aae 8ebd f127 80bd 9a79 77bd ac6e bd3d
000000c0: a53a 863d 4386 8f3d 7ddd 473d 881c 8a3d
000000d0: 6347 47bd 5c23 45bd 9025 903d 2204 373d
000000e0: 1360 04bd 9fd4 62bd c4d3 d5bd 1e7f 4d3d
000000f0: 03b0 533d 3aa3 74bd 702e 9fbd dbf0 44bd
00000100: 2f75 2dbd eb6b 9dbd 6b4e 803d 4e77 1ebc
00000110: 7fb3 793d c23f 8a3c 9177 bdbd 6002 b43d
00000120: 4db4 42bd dca6 113d 71c4 833d fcb6 8ebd
00000130: 2ec0 883c 26b8 4b3d 1c28 dbbd 5b40 bf3d
00000140: c14d a73d 083c 92bd 9570 423d 43cd 5fbd
00000150: 6040 cc3c 7a32 193d b6ab 3f3d 129f 78bd
00000160: f8a2 563c 0107 203d 4b7e b7bd fd01 2b3d
00000170: 408b 893d 243e 203d 0af8 00bd ffcf b93c
00000180: 2001 55bd 7a91 63bd 6168 063d 78d8 afbd
00000190: 29b7 37bd 22b5 0bbd 9818 333d 65cd 94bd
000001a0: ebf7 67bd 6ded 1fbd 5abf a1bd af77 dd3c
000001b0: 7ea3 bd3c c57d 8e3d 887b 6b3d 49d7 1cbd
000001c0: 1c91 b8bc e7ef 653d 4cb8 3dbd 8766 243d
000001d0: 2455 64bd 6459 58bd e713 ddbc c3a6 933d
000001e0: 3487 093d 8754 94bd b382 9fbd dddd b0bd
000001f0: 698a 5c3d 5e69 b7bd 41be 4bbd 1ccc edbc
-0.07740566 0.01853702 -0.08537142 -0.10524877 0.07439788 -0.109445564 -0.047056284 0.06651776
0.05941163 0.06437044 0.047881283 -0.04600223 0.028047916 -0.119335845 -0.06265272 0.082180284
0.101686046 -0.05206044 0.060688812 -0.093538344 -0.055738576 0.0030359996 0.15171605 -0.059963107
0.112635404 -0.07546972 -0.047400005 0.100546226 0.13305031 -0.13376674 -0.0424983 0.057669993
0.036294416 -0.05653177 -0.045533292 0.08964161 0.058327507 -0.10223714 -0.083741285 -0.005433677
0.045441315 -0.09468944 0.045670427 0.06950357 -0.06966789 -0.06257618 -0.060418703 0.092496246
0.06554154 0.0700803 0.048795212 0.06743723 -0.048652064 -0.048129424 0.070384145 0.044681676
-0.032318186 -0.055378553 -0.10440782 0.050170057 0.05168153 -0.059725977 -0.07772529 -0.04808126
-0.042348083 -0.07686599 0.06264957 -0.009671999 0.060962196 0.016876105 -0.09251321 0.087895155
-0.04753523 0.03555952 0.064339526 -0.06968495 0.0166932 0.049736165 -0.1070101 0.09338447
0.08169127 -0.07140356 0.047470648 -0.054639112 0.02493304 0.037401654 0.046794616 -0.060698576
0.013100378 0.03906918 -0.08959635 0.041749943 0.06716013 0.039121762 -0.03148655 0.022682188
-0.052003026 -0.05555866 0.032814387 -0.0858621 -0.04485241 -0.03410829 0.043724626 -0.072657384
-0.056632917 -0.039044786 -0.078978255 0.027034609 0.023149248 0.069575824 0.057490855 -0.03829125
-0.022530131 0.05613699 -0.046318337 0.04013684 -0.05574526 -0.052819625 -0.02698703 0.07209542
0.033576205 -0.07242685 -0.07788601 -0.08636067 0.053842936 -0.08955644 -0.049741987 -0.029027991
