critic_checkpoint.pth (torch_old, 89390 bytes, 9 tensors)

fcs1.weight f4 [128, 33]
000000 47 82 92 3e 6f ce b0 3c 3d 99 1c 3f 1f 1f b0 3e
       0.2861502 0.02158281 0.61171323 0.34398744
000010 fc fd c5 be b7 79 7a be dd b4 cb be 91 7a 3e be
       -0.38670337 -0.24460493 -0.39786425 -0.18601443
000020 6d e4 b9 3e 01 2f 04 bf dd c9 2c bd 87 20 c7 3e
       0.36307088 -0.5163422 -0.0421847 0.38892004
000030 19 02 69 3c d7 94 12 3e eb 2a 16 3f 39 b0 70 be
       0.0142216915 0.1431459 0.5865924 -0.23504724
000040 84 a1 25 be a9 dc 68 be 7c 9a 3b bf 4f f2 0b bf
       -0.16174895 -0.22740425 -0.732826 -0.5466661
000050 38 48 6a 3e 6d 24 32 bf 67 7e 90 bc 6c 8f 33 be
       0.22879112 -0.6958683 -0.017638398 -0.1753518
000060 cd 4c 25 3d c4 45 39 be 82 30 c4 bd f6 4b a0 3c
       0.040356446 -0.1809302 -0.09579565 0.019567471
000070 26 87 21 bf 28 fa 83 bd c8 52 fb bc 04 b6 aa bd
       -0.63096845 -0.06444198 -0.030679122 -0.08335498
000080 84 78 7d be e4 69 bb be 14 da a3 3e 7e a9 76 bd
       -0.24753004 -0.36604226 0.32002318 -0.060220234
000090 63 c3 98 be 91 f4 7d 3e f9 9e 0b 3f 32 cf 7c 3e
       -0.29836568 0.24800326 0.5453945 0.24688414
0000a0 3f 8c 72 3c 92 50 8f 3d c3 bc c5 be ff 67 a7 be
       0.014803945 0.069977894 -0.38620576 -0.3269653
0000b0 74 4c 64 3e 13 d4 4e be a1 07 8f 3c bd 32 2c bf
       0.2229479 -0.20198087 0.017459692 -0.6726492
0000c0 b7 cf e9 be 70 3d b0 be 7b 63 8c bd 6a 2e 19 be
       -0.45666286 -0.34421873 -0.06854912 -0.14959112
0000d0 c1 8e c5 3d ca 88 a3 bc 67 8b e4 bd 21 00 26 3a
       0.09646369 -0.019962687 -0.111594014 0.00063324167
0000e0 31 4c 98 be 4c 6f 6a 3c ac 62 04 bf 48 ce 0c 3e
       -0.2974563 0.014308762 -0.5171306 0.13750565
0000f0 31 44 08 bd e5 60 10 3f 5e dd 61 3d 4b a9 96 bd
       -0.033268157 0.5639785 0.055142753 -0.07356509
000100 40 e7 d9 3c 5e f5 56 3f a9 71 4e 3f 73 89 3a 3f
       0.026599526 0.8396815 0.8064218 0.7286598
000110 dc 2d e3 be 3c 04 59 bd 8e ff 38 3f 35 ad 00 3f
       -0.44370925 -0.052982554 0.72264946 0.5026429
000120 5e f0 2e 3d 05 41 67 3e 0f c8 28 3f bb 7a 80 be
       0.0427097 0.22583397 0.65930265 -0.25093636
000130 f5 f2 ee 3d ba 3e be 3e 19 13 9c bd 90 fe ae 3e
       0.11667434 0.37157232 -0.0762083 0.3417859
000140 c2 9c 22 bc a6 88 16 3e 10 67 b1 bd 75 55 f6 be
       -0.009925069 0.14700565 -0.08662236 -0.48112074
000150 a4 4a ea 3e 92 bc 8b be 1b 2c ae be b3 de 33 3e
       0.4576007 -0.27292305 -0.34018025 0.17565422
000160 35 bd 37 3e 22 f9 d6 3e 34 1b ea bd 12 2d 38 3e
       0.1794327 0.41986948 -0.1143097 0.17985943
000170 05 cf b9 be 01 12 ee 3c 8c 9a 2e 3e 21 46 a9 3d
       -0.36290756 0.02906132 0.17051142 0.08265329
000180 59 8f 93 bd 3d 19 5a bd 0e b3 f7 3d 54 34 ec be
       -0.07205076 -0.053246725 0.12094699 -0.46133673
000190 0f 94 43 be d2 71 f4 bd 91 91 b1 3e 89 e1 4a bf
       -0.19099449 -0.11935772 0.3468137 -0.7925039
0001a0 47 49 e6 be 4e ff 2e 3e af a9 42 3f 3c 98 97 be
       -0.4497778 0.17089579 0.76040167 -0.29608333
0001b0 85 3d 29 3d aa ea ac bd 86 b5 28 bf 81 6e c4 3e
       0.041318435 -0.08443196 -0.6590198 0.38365558
0001c0 e1 c6 62 3e 5b a5 de 3d ec 8d 8c be 65 51 a9 bd
       0.22146179 0.10871383 -0.27452028 -0.08267478
0001d0 00 1e df be 31 ec 5b 3d a7 78 28 3f 07 8f 3c 3e
       -0.43577576 0.053692047 0.658091 0.18413936
0001e0 bd 7e 92 bd 11 8c 1e 3f b8 08 ab be 3e 8d 9f 3e
       -0.0715308 0.61932474 -0.3340509 0.31162447
0001f0 2e 83 85 3e e3 76 ca be c4 f7 79 3d 4b fc 32 bd
       0.26076645 -0.39543828 0.061027303 -0.043697637
000200 70 9d 59 3c 3c 26 02 3d 23 51 14 bd 77 b7 26 be
       0.013282165 0.031774744 -0.03621019 -0.16280924
000210 b9 59 a4 3e 41 d0 be 3c ea 35 38 3e b3 97 18 3f
       0.32099703 0.023292663 0.17989317 0.59606475
000220 1d 0b 03 3f 8b 16 95 3f 2f 9e 50 be 7c 3d 9f 3e
       0.5118883 1.1647505 -0.20372842 0.31101596
000230 d0 fa 3e 3e 5e 97 1b be cf 82 57 3e 8f 8e b0 be
       0.18650365 -0.15194461 0.21045993 -0.34483764
000240 33 4f 4b 3d 98 27 3b be 21 c1 24 3c 42 40 98 be
       0.049636077 -0.18276823 0.010055811 -0.29736525
000250 1d 81 57 3f a2 78 44 3f eb ac 3f bf 24 25 83 3f
       0.84181386 0.7674657 -0.74873227 1.024571
000260 61 92 5b 3d db 53 82 3e a1 b3 8d be e2 cc 8d 3e
       0.053606395 0.25454602 -0.27676108 0.27695376
000270 d1 e1 bb be 61 be 8f 3e f8 85 69 3e da 10 9f 3d
       -0.36695722 0.28074935 0.22805011 0.07766886
000280 79 82 a2 3e 55 2a 1f bd b2 28 50 3d 8e f4 26 3d
       0.31740168 -0.03885873 0.05082006 0.04076057
000290 39 68 13 bf d8 7a e3 3e fd 3a 21 3f 6e 27 2e bf
       -0.57580906 0.4442966 0.62980634 -0.68028915
0002a0 1e 2f 51 3f 6f e8 79 3f 8a d5 69 3b df d4 3f bf
       0.8171252 0.9762029 0.0035680258 -0.7493419
0002b0 a6 47 f6 3c 4b 4a fd bb 28 4d 8a 3d 4d af 59 3d
       0.030063462 -0.0077298037 0.06752998 0.053145695
0002c0 c8 e2 46 3e dd 53 a5 be 62 da 77 3e 70 da 2b bf
       0.19422448 -0.32290545 0.242044 -0.67130184
0002d0 5b 49 ee 3d 6d c8 f1 be fb f8 44 3e ca 08 cc bc
       0.11635085 -0.47223225 0.19235604 -0.024906535
0002e0 3d df 94 be 8c bf 1d 3d 09 e2 22 3e 2a 2d d9 3d
       -0.29076567 0.03851275 0.15906538 0.106043175
0002f0 a1 c6 13 be 08 42 f3 be 0e 83 6b bd b1 d7 9c 3e
       -0.1443124 -0.47511315 -0.05749803 0.3063331
000300 f7 07 39 bd 41 0b b3 bc 93 66 b4 bd 68 78 96 3d
       -0.04517361 -0.021855952 -0.08808627 0.073471844
000310 a2 0c 19 3d 6a f3 78 bf 77 de 37 3e 25 21 e6 3d
       0.037365563 -0.9724642 0.17955957 0.112367906
000320 a7 8f e6 3d 20 64 cb bd a2 be 02 be 37 67 c3 3e
       0.11257868 -0.09931207 -0.12768033 0.38164684
000330 01 de c9 be b4 6a f5 bb 92 2a f3 3d 17 cc 65 be
       -0.39427188 -0.0074895266 0.11873354 -0.22441135
000340 bc 90 58 3d 41 a5 18 bb e8 92 21 3d 7f e3 a6 bd
       0.052872404 -0.0023291858 0.03944674 -0.0814886
000350 7d ee 40 3d 75 d3 af bd 2e e0 78 3e 76 a9 e5 bc
       0.04710244 -0.08585254 0.24304268 -0.028034907
000360 7c 76 b9 be e7 22 9d bd a6 1e 3e bc 99 72 05 3d
       -0.3622321 -0.07672673 -0.011603987 0.032579992
000370 5d 5e 23 3b d3 53 0e 3d 92 c8 12 bc ac c4 d6 3c
       0.002492807 0.03474791 -0.0089589525 0.026216827
000380 40 29 65 3e 11 ea 7b bb be 9f 1c bd 3a 58 95 bd
       0.22379017 -0.0038439075 -0.03823828 -0.072922185
000390 7e 1d 5e bd 82 8d 8d bd 77 74 69 40 6a 5d 81 be
       -0.054227345 -0.06911756 3.6477334 -0.25266582
0003a0 8a 78 1a 3f c0 49 21 3e ad 7d 99 be c7 15 11 3e
       0.6034018 0.1575079 -0.29978696 0.14168464
0003b0 72 7c 08 be bf a2 e3 bd 3e ac 9c 3e d1 16 91 be
       -0.13328722 -0.11115026 0.3060016 -0.2833772
0003c0 61 95 ff be 2b 79 00 bd 41 d6 b8 3d 28 05 40 be
       -0.49918655 -0.031365555 0.09025241 -0.18751967
0003d0 c2 98 4c 3e 5c e4 07 bf 7b 02 96 be de 3a 62 be
       0.19980147 -0.53082824 -0.29298767 -0.22092769
0003e0 c6 1c df be 1b d8 00 be 43 2a c6 3e 63 37 ba 3c
       -0.4357664 -0.12582438 0.38704118 0.022731489
0003f0 b3 83 26 bc 8e ad 92 3d 50 fa 4d 3e a2 74 9b 3c
       -0.0101632355 0.07162009 0.20115018 0.018976513

fcs1.bias f4 [128]
000000 b6 d7 f1 bd 8a a6 0c be 7c d0 00 3e 5d 2a 9c 3c
       -0.11808722 -0.13735405 0.1257953 0.01906317
000010 73 b7 d9 b9 98 5e 2c be 73 c9 1b 3e a8 0f ec bd
       -0.00041526146 -0.1683296 0.15213566 -0.11526424
000020 aa 7f 9e 3d c9 21 ab bc 56 f5 bb 3b 86 f7 ae 3d
       0.07739194 -0.020890133 0.0057360334 0.08543305
000030 35 33 3f bd 00 b3 48 bd 6a fd 0d 3e dc 77 08 be
       -0.046679694 -0.048998833 0.13866201 -0.13326973
000040 d6 83 9e 3d 67 cc 37 bd 69 dd 6d bd 08 cb ee 3d
       0.077399895 -0.044872668 -0.05807248 0.11659819
000050 9c dd ed 3c c8 e9 25 be c1 5d 1f 3e e6 a4 b0 bd
       0.029036336 -0.16202462 0.15563108 -0.08625202
000060 e6 43 1a 3e 1c 76 5e bd 73 e0 2d 3e 1a 43 52 3d
       0.15064964 -0.054311857 0.16980152 0.051333524
000070 cf 57 09 bc c9 46 88 3d 26 b3 b2 bb 5d 1b b1 bd
       -0.008382752 0.06654126 -0.005453485 -0.08647797
000080 98 2a c2 3d 81 34 e7 3d e1 62 b3 bc 86 8f 27 3e
       0.0948078 0.11289311 -0.021897735 0.16363344
000090 0d 09 39 3c b7 d5 bc bd 88 76 c2 bd 25 4b f0 3d
       0.011293662 -0.0922045 -0.09495264 0.11733083
0000a0 a3 ac 90 bd 3b 16 e1 3d 22 2a 2d be 03 29 c8 3b
       -0.07064178 0.10990568 -0.16910604 0.0061084046
0000b0 dd 7b f6 bd 29 66 7c 3d 88 cb 10 3e 07 25 8c 3d
       -0.12035344 0.061620865 0.14140141 0.06843
0000c0 18 21 76 bd 68 39 27 be 1b d4 a8 bd 2b da d1 bd
       -0.060090154 -0.16330492 -0.08243581 -0.1024669
0000d0 57 36 2a 3e b4 a0 be bd 0e 50 89 3d ec 14 0f 3e
       0.16622292 -0.093079954 0.06704722 0.13972825
0000e0 d9 f3 7e 3d c5 4d 1c be 8d 62 a3 bc bf 3b 53 bd
       0.06224427 -0.15264042 -0.019944454 -0.05157065
0000f0 ed c0 e6 3d 48 d8 83 bc 95 ea 16 bc 20 a9 1e 3e
       0.112672664 -0.016094342 -0.009211202 0.15494204
000100 58 ff 28 3d 28 43 a5 3d 13 8d 65 bd 52 86 e9 3d
       0.04125914 0.0806945 -0.056042742 0.11402573
000110 c8 09 cd 3c 28 3a 0f bd 1c 1e 0a 3d 02 5a 0c be
       0.025029078 -0.03496757 0.03372012 -0.1370621
000120 e4 6a e1 3b 75 d0 a3 3d b0 c8 27 be 4f 78 bd bd
       0.0068791974 0.079987444 -0.1638515 -0.09251463
000130 52 37 df 3d 15 89 7f 3b b0 4b c4 bb 41 77 91 3c
       0.108992234 0.003899162 -0.005990468 0.01775706
000140 aa 3d a0 bd f7 33 13 3e 5d ab 8b bc 2b a1 81 bd
       -0.078242615 0.14375292 -0.017049486 -0.063295685
000150 f3 56 bb 3d 87 82 14 be 96 78 fa bc 47 e7 8f 3c
       0.091474436 -0.14502917 -0.030575078 0.017566336
000160 02 7a 5d bd 45 5d c2 3d 13 50 18 be 5d 94 4d bd
       -0.054071434 0.09490446 -0.14874296 -0.05019032
000170 99 da 96 bd ea d3 24 3e 6b 19 8e 3d 96 e1 04 be
       -0.07365913 0.16096464 0.06938442 -0.12976679
000180 da b2 89 3d 14 6a 6f bb 06 2e 23 3e 41 ad c4 3d
       0.06723566 -0.0036531733 0.15935525 0.09603358
000190 80 2a d0 bd 1b ef 1e 3e 82 03 ff bc 0e d8 23 bd
       -0.10164356 0.15520899 -0.031129602 -0.040000968
0001a0 5d 51 55 3d e1 ca 30 3e 63 57 57 3d 28 e7 2b be
       0.052079547 0.17264892 0.052573573 -0.16787398
0001b0 00 99 64 bd 8d a9 26 3e 69 9d 7c bd a1 26 ab bd
       -0.055809975 0.16275616 -0.061673556 -0.08356977
0001c0 ac 13 0e be 0a bb c5 bd 39 bc c2 bd 90 61 2a 3d
       -0.13874692 -0.096548155 -0.09508557 0.04159695
0001d0 14 f4 8d 3d c5 11 2a 3e 97 b8 e9 3d 22 11 30 3b
       0.0693132 0.16608341 0.11412161 0.002686568
0001e0 fb a2 c0 3d 88 33 cb 3d e2 bf 19 be a5 f7 b3 3d
       0.09406086 0.09921938 -0.15014604 0.08787469
0001f0 53 aa f3 bd 35 f6 09 3e e6 5f 9b bd 79 f7 13 3d
       -0.11897721 0.13472827 -0.075866506 0.03612468

bn1.weight f4 [128]
000000 04 21 b2 3e 53 d1 e2 3e fb ff ce 3e 8e ca b3 3e
       0.34790814 0.44300327 0.40429673 0.35115474
000010 a6 2d 9b 3e 8e 5a 05 3f 12 a9 39 3f d2 d0 f7 3e
       0.30308264 0.520913 0.72523606 0.48401505
000020 3e 4c b2 3e be b4 cb 3e 45 0c d3 3e e4 d8 cd 3e
       0.34823793 0.39786333 0.41220298 0.40204537
000030 a5 82 d8 3e 6e cc c0 3e 57 66 73 3f f6 02 2b 3f
       0.42287174 0.37655967 0.95078033 0.66801393
000040 a1 b7 f7 3e 43 f6 09 3f 05 90 9d 3e d9 10 d6 3e
       0.48382285 0.5389139 0.3077394 0.4180973
000050 51 98 bb 3e fb 51 c4 3e 0c 63 62 3e ad 21 1e 3f
       0.36639646 0.38343796 0.22108096 0.61770135
000060 ce be 2f 3f 49 4a 22 3f 3d d5 dd 3e 05 e7 46 3f
       0.6865052 0.633946 0.4332675 0.7769626
000070 e7 40 eb 3e 8d 9b 8f 3e 34 14 cc 3e 1f 11 16 3f
       0.45947954 0.28048363 0.39859164 0.58619875
000080 ca 53 36 3f e2 fe 6e 3e 79 96 c5 3e 64 23 b0 3e
       0.712216 0.23339418 0.38591364 0.34402
000090 5a 0b 4a 3f 66 f6 d1 3e fe c5 c6 3e d0 a5 16 3f
       0.7892357 0.410083 0.3882293 0.5884676
0000a0 fa b0 2e 3f a0 5e d6 3e 0a 89 e1 3e 1e 6c e5 3e
       0.68238795 0.41869068 0.44049865 0.4480905
0000b0 4d 4f 2b 3f 8f 0f 15 3f 15 24 bc 3e d0 ba 0c 3f
       0.6691788 0.58226866 0.36746278 0.54972553
0000c0 a8 64 c2 3e c3 d7 49 3f 82 79 18 3f 4a e0 12 3f
       0.3796742 0.7884485 0.59560406 0.5737349
0000d0 35 17 eb 3e 0e 75 2c 3f 48 9e 37 3f 3d b6 fa 3e
       0.45916143 0.6736611 0.71725893 0.48967162
0000e0 18 d8 34 3f cc 51 1f 3f 1a 0c 44 3e 5b 53 b5 3e
       0.7064223 0.6223419 0.19145241 0.35415158
0000f0 43 8b 04 3f ce 34 f2 3e 29 b8 de 3e 02 b5 e2 3e
       0.51774997 0.47305912 0.43499878 0.44278723
000100 7c 8c 7c 3f c0 8f 7b 3b b8 f3 c9 3e 34 f9 fc 3e
       0.9865186 0.0038385242 0.39443755 0.49408877
000110 c0 b1 7c 3a 19 7b 97 3a 95 45 b0 3e 4c 84 b5 3e
       0.0009639524 0.0011557072 0.34428087 0.35452497
000120 18 2b 1d 3f a1 4d d9 3e c2 bb 36 3f fd 7e 91 3e
       0.6139388 0.4244204 0.71380246 0.28417197
000130 ee c7 b2 3e c2 c0 e4 3e af dd f2 3e b6 bb da 3e
       0.3491816 0.44678313 0.47434756 0.42721337
000140 9a bc af 3e 23 e6 74 3e 00 21 09 3f a2 79 e7 3e
       0.3432358 0.23915915 0.5356598 0.45209986
000150 7a de 90 3e 34 fd 4b 3e ea 8c 2f 3f 26 d4 50 3f
       0.28294736 0.19920808 0.6857439 0.8157371
000160 de a6 53 3e 53 d2 e5 3e 7f 76 ed 3e a1 36 b0 3e
       0.20669124 0.44887027 0.46379468 0.3441668
000170 6a ef 1f 3f 41 a6 d2 3e 79 94 14 3f 5a 76 2a 3f
       0.6247469 0.41142467 0.5803905 0.6658684
000180 e9 e0 98 3e fa 26 dd 3e 28 01 4e ba 9e e2 f3 3e
       0.29859093 0.431938 -0.00078584487 0.47633833
000190 ea 58 ab 3e 53 a4 a0 3e e5 23 d8 3e 1c 88 05 3f
       0.33466274 0.3137537 0.42214885 0.5216081
0001a0 33 3e c0 3e 89 dd 40 3f 3d 2c 08 3f 63 c9 e9 3e
       0.37547454 0.75338036 0.531925 0.45661458
0001b0 45 ad d5 3e 0d eb 28 3f cb 98 0e 3f ef 87 cd 3e
       0.41733757 0.6598366 0.55701894 0.40142772
0001c0 7a 45 63 3e 7f 02 14 3f 97 3a b0 3e c9 ce b0 3e
       0.22194472 0.5781631 0.344197 0.34532765
0001d0 60 c6 2b 3f 73 6d cd 3e 24 a4 f5 3e 8a 59 d1 3e
       0.6709957 0.40122566 0.47976792 0.40888625
0001e0 02 63 0c 3f b4 32 43 3f b8 a6 a5 3e 65 99 a3 3e
       0.54838574 0.7624924 0.3235376 0.31952968
0001f0 09 ac b7 3e ae e9 ba 3e 5a 39 b2 3e cb df d1 3e
       0.3587344 0.36506408 0.3480938 0.40991053

bn1.bias f4 [128]
000000 2b da 05 3e 41 a6 de be 5c 39 19 be a3 48 a7 be
       0.13071506 -0.43486217 -0.14963287 -0.32672605
000010 a0 97 15 be aa 3f 19 bf d6 f1 99 be c6 ec 98 be
       -0.14608622 -0.5986277 -0.3006732 -0.29868144
000020 cc 78 16 be 52 2e e9 be 1d 2b 84 be 72 8d 16 bd
       -0.14694518 -0.45543152 -0.25814143 -0.036755987
000030 59 43 8f 3e a9 2b c6 bd 45 f2 6a be 06 88 bd be
       0.2798107 -0.09676296 -0.22943981 -0.3701784
000040 f5 a8 f6 be 0d 64 aa be d7 1e 83 be d6 05 43 be
       -0.4817578 -0.33279458 -0.25609466 -0.19045195
000050 08 d7 06 bd d9 3e 55 be d0 a8 74 be db 78 5f be
       -0.032919914 -0.20824756 -0.23892522 -0.21823446
000060 bd 52 ce bd da d2 5e be 78 f2 87 be 13 01 d7 be
       -0.10074375 -0.21760121 -0.26552176 -0.41993007
000070 60 86 6d be 65 6c 1e 3e 55 a0 e4 be f1 bd c3 be
       -0.23195791 0.15471037 -0.44653574 -0.3823085
000080 64 89 db be 9f b6 1a bd 96 1a b1 be 82 c7 24 be
       -0.42878258 -0.037771817 -0.34590596 -0.16091731
000090 ca ff 93 be 19 1b aa be c0 f9 c3 be 3b 93 7a be
       -0.2890609 -0.332238 -0.38276482 -0.24470226
0000a0 0e 2e 9f be 02 59 9f be da 5d b7 be 33 28 fc bc
       -0.31089824 -0.31122595 -0.3581379 -0.030780887
0000b0 f7 2f bd 3d f3 da ac be 83 e7 cc be bf e9 a2 be
       0.09237664 -0.33760795 -0.4002038 -0.3181896
0000c0 06 54 bd be 63 a6 6d be 79 19 b5 be 23 c5 02 be
       -0.36978167 -0.23208003 -0.35370997 -0.12770514
0000d0 bc 60 58 bc 22 bd 00 bf a1 d8 62 be 95 89 d7 be
       -0.013206657 -0.50288594 -0.2215295 -0.42097154
0000e0 87 e1 d4 be f8 bf 0d bf 34 55 a3 3d 11 e7 8e 3d
       -0.41578314 -0.55371046 0.079752356 0.06977666
0000f0 56 62 ca 3e 68 56 8a 3e 52 53 cf be 93 65 fc bd
       0.3952815 0.27019048 -0.40493256 -0.12324061
000100 b2 7a b3 be 27 47 d6 bc 3a a6 45 be d5 62 c0 be
       -0.35054547 -0.026156975 -0.19301692 -0.37575403
000110 67 8f 46 bc f8 33 3f bc d8 fa 5e 3d 89 bd e4 be
       -0.012119151 -0.011670105 0.054438442 -0.44675854
000120 39 30 0e bf 8c 6f 10 bf b1 fe 88 be 09 83 2b be
       -0.5554233 -0.5642021 -0.26756814 -0.16749205
000130 a6 0b 62 3b 07 2c a5 be 3b d6 8b be ce 78 b0 3e
       0.0034491806 -0.32260153 -0.27311882 0.34467167
000140 20 2d ac bd b0 2e 29 be bf 63 8d be d1 c4 af bd
       -0.084070444 -0.16521716 -0.27615163 -0.085824616
000150 f2 fb 2a be d4 e8 e7 be 8a 21 0e bc a7 4d 0b bf
       -0.16697672 -0.4529482 -0.0086749885 -0.54415363
000160 e8 5f 5e 3e ec 7b 4b be 92 a9 d3 be ea cd 0c be
       0.21716273 -0.19871491 -0.4134031 -0.13750425
000170 c5 51 17 bf d7 42 d0 be 2f 8a b6 be bc c9 9b be
       -0.59109145 -0.40675995 -0.356523 -0.3042735
000180 dd 91 42 be d3 f5 d4 be b9 b2 11 bc 99 6a bf be
       -0.19000955 -0.415938 -0.008892708 -0.37386015
000190 a3 99 89 be cd 25 f5 bd 8c 32 e2 3c 42 ac cd be
       -0.26875028 -0.119701006 0.027611993 -0.40170485
0001a0 17 ba 56 be 90 c8 a3 bd 24 0a 73 3d fd 69 de be
       -0.20969425 -0.07997239 0.059335843 -0.43440238
0001b0 30 1c a1 be e2 09 9a be 0a 28 c4 be 17 c6 22 3d
       -0.31466818 -0.30085665 -0.38311797 0.039739694
0001c0 b3 b4 85 bd 32 9e d0 bc 9c 93 ad be bf 40 8c be
       -0.06528606 -0.025466058 -0.3390168 -0.27393147
0001d0 1a ce 31 3d 1c d2 67 be 4d 0b 7b be f1 ec 8e be
       0.043409444 -0.22638744 -0.2451603 -0.27915147
0001e0 9f 92 b3 bd 38 8b 22 be de a4 b4 be ae cd 09 be
       -0.087682 -0.1587342 -0.35282034 -0.13457367
0001f0 95 ef e7 be e1 18 a8 be 71 e8 b0 bd ea 08 b0 be
       -0.45299974 -0.3283148 -0.08638085 -0.343818

bn1.running_mean f4 [128]
000000 ea c1 a3 bf cb d8 57 3e af a8 aa bf 8f 60 43 3f
       -1.2793553 0.21078794 -1.3332728 0.7631921
000010 28 ec 13 3f 99 86 3a 3f 3f cf 9d be 06 88 0d bf
       0.5778222 0.7286163 -0.3082218 -0.5528568
000020 bd bc 11 40 0f 1c a0 3f ad 4a 1a 3f 10 07 8a 3f
       2.2771447 1.2508563 0.60270196 1.0783405
000030 5b 23 5e 3f c8 a7 b1 bf ab 81 03 3f 30 e3 63 be
       0.867727 -1.3879328 0.5136973 -0.22254634
000040 3f de 66 3f c0 81 d9 bf b0 f7 13 3e 0c 28 ce bf
       0.9018287 -1.6992722 0.14449954 -1.6105971
000050 4e 73 16 40 40 39 25 3f 2d 82 14 bf 0a fa 15 3f
       2.3507876 0.6454048 -0.5801113 0.58584654
000060 e7 e3 c0 3f c0 07 7e bf 7f b4 00 bf bc 2f 10 bf
       1.506955 -0.99230576 -0.50275415 -0.56322837
000070 b8 89 e5 3f f8 3f 91 3f 8b 13 8b bf e3 28 4d be
       1.7932653 1.1347647 -1.0865339 -0.20035128
000080 32 26 de be 55 84 d9 be e7 33 81 be 3c 6c 81 3f
       -0.43388516 -0.42483774 -0.2523491 1.0111156
000090 a5 64 45 bf 7b 75 13 bf 0a 37 cc 3d 78 cc f9 3d
       -0.77106696 -0.57601136 0.09971435 0.121972024
0000a0 16 1e 9d bf 10 fb 1d bf 8d 91 1f 3f 82 c0 3e bf
       -1.2274806 -0.61711216 0.6233147 -0.74512494
0000b0 06 30 39 3f c8 67 8b bd c2 04 d5 bf 16 04 1e bf
       0.723389 -0.06806904 -1.6642077 -0.61724985
0000c0 d9 79 bb 3f 1a ee c6 be fc 9f 10 c0 ec e6 0f 3f
       1.464656 -0.38853532 -2.2597647 0.56211734
0000d0 48 13 88 bd be 3b c2 be 71 ad 1f 3e d2 2a 0f 3f
       -0.066443026 -0.37936205 0.15593506 0.55924714
0000e0 96 89 c0 be 13 03 98 bf 7d 5a ff 3d 8a eb c6 bf
       -0.3760497 -1.1875938 0.12468431 -1.5540631
0000f0 98 48 ee 3e 8c 38 8f 3d 95 13 0c bf a0 bf f3 be
       0.4653976 0.06993207 -0.5471738 -0.47607136
000100 61 fb 71 3e 42 28 ac 3e 58 db 7a bf e1 b3 84 bf
       0.2363105 0.33624464 -0.9799094 -1.0367395
000110 04 be 71 be 9b 1a 1c be 57 4b 0d 3f dd 55 54 40
       -0.23607641 -0.15244524 0.55193084 3.3177407
000120 5e 4e e2 3e a8 f8 1d 3f 1c 42 d4 be b0 1d 91 bf
       0.44200414 0.61707544 -0.41456687 -1.1337185
000130 38 6e 24 40 6a c5 f8 bd 5f 51 5d bf 22 01 f1 bd
       2.5692272 -0.12147029 -0.8645229 -0.11767794
000140 d4 52 34 bd df 04 3c 3f f8 b3 7d bf 72 68 c6 be
       -0.044024304 0.7344493 -0.99102736 -0.3875156
000150 f5 89 e5 bf a5 e3 44 bf f7 8d 85 be 3c b4 26 3e
       -1.7932726 -0.7690986 -0.26084873 0.16279691
000160 74 b7 17 40 d6 09 a7 be c4 49 a5 3e 87 9b 58 3f
       2.370572 -0.32624692 0.3228284 0.84612316
000170 c7 41 2c be 8e 6e 91 bd f0 4b 4d 3f 7f e7 e2 be
       -0.16821967 -0.07101165 0.80193996 -0.44317243
000180 98 2a 08 bf 03 76 9b 3d d4 38 8a 3e af e0 40 bf
       -0.5318999 0.07590868 0.2699648 -0.7534284
000190 fc 54 c7 be 5a 92 fb 3f e4 91 d6 3f 51 fb e5 bd
       -0.38932025 1.9654038 1.6763272 -0.112295754
0001a0 88 fb a5 3d 94 f8 ec 3e c5 b7 8a 3f 33 4b a4 3f
       0.081046164 0.462834 1.0837332 1.2835449
0001b0 39 61 45 bf 6b 56 73 be 8b c8 a8 bf db 4b 24 40
       -0.77101475 -0.23763435 -1.3186201 2.5671299
0001c0 82 07 1c c0 51 24 8f 3d cc 9c 43 3f 35 47 a3 be
       -2.4379582 0.06989349 0.7641113 -0.31890264
0001d0 23 80 3d 3f cc 52 89 bd 4a 29 bd bd c6 3a c4 3f
       0.74023646 -0.067052454 -0.09236391 1.5330436
0001e0 44 e1 d2 be fa ef 20 be 75 67 2d c0 e0 ab 9a bf
       -0.4118749 -0.15716544 -2.7094395 -1.2083702
0001f0 f6 e4 db 3e ac 42 a3 bd dd 44 b8 bf e7 81 ac 3f
       0.4294812 -0.07971701 -1.4396015 1.3477143

bn1.running_var f4 [128]
000000 d5 32 8c 41 1d c5 d7 40 6c 7f b1 40 a4 17 47 41
       17.52482 6.7428117 5.5468044 12.443272
000010 4d 64 cc 40 41 e2 7e 41 7e a9 cb 40 d5 e0 eb 40
       6.3872437 15.930238 6.36444 7.3711953
000020 3a 1c d8 40 67 8a 66 41 4b eb 83 40 4f 82 5d 41
       6.7534456 14.40879 4.1224723 13.844314
000030 50 fb 8a 40 b7 86 53 41 6e a1 17 41 df 6c f1 40
       4.343178 13.220389 9.476912 7.54454
000040 0e 8c c5 41 a9 f1 6c 40 7b ba 56 41 bd 99 de 40
       24.693386 3.7022498 13.420527 6.956267
000050 b3 0a 13 41 7c 73 23 41 ed 8d 9b 40 5c 3c 3b 41
       9.190112 10.215694 4.861075 11.702236
000060 22 fc f5 40 9f 0f db 40 5f 15 0e 41 86 6c a8 40
       7.687028 6.845657 8.880218 5.2632475
000070 c9 dc c4 40 52 1d cb 40 c1 b4 e2 41 96 18 ae 41
       6.1519513 6.347329 28.338259 21.762005
000080 26 c2 8d 40 5c 39 72 40 cb 25 83 40 3b 06 13 40
       4.4299498 3.784751 4.0983634 2.2972553
000090 01 42 d5 40 13 24 0e 41 49 b8 2d 41 f0 12 c5 3f
       6.664307 8.883807 10.8574915 1.5396404
0000a0 c4 4a 7d 40 40 cf e2 41 2a e1 f8 40 1c f2 ac 40
       3.9576883 28.351196 7.777486 5.4045544
0000b0 65 32 ac 40 68 e0 01 41 68 70 9c 41 86 ee 7d 41
       5.3811517 8.117287 19.554886 15.870733
0000c0 2a 10 b3 41 77 23 be 40 4e 08 87 41 8a ac 34 41
       22.382893 5.941829 16.879055 11.292124
0000d0 66 a6 32 40 2b 42 c0 40 d3 5f 38 40 2a 0d 0a 41
       2.7914062 6.008077 2.8808486 8.628214
0000e0 7a e2 ff 3f 7c 3e 4e 41 15 23 f2 40 bb 93 08 41
       1.999099 12.890255 7.5667825 8.536067
0000f0 9e 0a bf 40 bb 84 72 40 31 dc 82 40 c6 67 44 41
       5.970046 3.7893512 4.089379 12.275335
000100 7b 85 05 41 86 e5 73 3e f0 1d 90 41 17 7f 86 40
       8.345088 0.23818025 18.014618 4.203014
000110 3a f3 b0 3e 4d 71 a7 3e 55 da cb 40 28 4a 2e 41
       0.34560567 0.3270363 6.370402 10.893105
000120 b8 45 0f 41 28 a1 41 41 ba e8 e2 3f 8e 50 e5 41
       8.954521 12.101845 1.7727273 28.664333
000130 6d 55 9e 41 f5 dc 7d 41 fc 19 0f 41 ac b4 12 42
       19.791712 15.866445 8.943844 36.676437
000140 68 c8 13 41 72 76 6d 40 8a ac 69 40 28 e5 08 41
       9.236427 3.7103543 3.651156 8.555946
000150 ff 5a 07 41 3b c0 af 40 da 46 a3 3f e8 01 be 40
       8.459716 5.4922156 1.2755997 5.9377327
000160 e7 09 bd 40 06 22 14 40 78 b2 76 41 a0 ba a2 40
       5.907459 2.3145766 15.418571 5.0852814
000170 d8 92 90 40 5d b3 3c 41 ba c4 20 41 dd 89 3e 41
       4.5179253 11.79379 10.048029 11.908658
000180 ab 12 76 40 32 b9 da 40 bc b1 f8 3d 42 cc 18 41
       3.8448894 6.835107 0.12143275 9.549868
000190 d6 23 c4 40 03 c7 1c 41 26 e9 8f 41 fa 4b c9 40
       6.1293745 9.798587 17.988842 6.2905245
0001a0 db db 31 41 68 d3 b3 40 c0 80 3f 41 bb 81 98 41
       11.116176 5.6195564 11.968933 19.063345
0001b0 bd b7 58 41 45 64 f5 40 cc 85 27 41 c8 cf 40 41
       13.544858 7.66849 10.470165 12.050728
0001c0 c4 f6 95 40 f6 57 7f 3f a3 ae b4 40 3b c5 65 41
       4.6863728 0.9974359 5.646318 14.360652
0001d0 28 19 e4 40 16 09 dc 40 f7 a4 40 40 6d b8 05 42
       7.128071 6.876109 3.0100687 33.430103
0001e0 ee 1c 97 40 af 61 18 40 8f f6 be 40 62 61 20 41
       4.7222815 2.3809621 5.9675975 10.023775
0001f0 95 13 5c 41 30 ba 3d 41 52 02 a1 40 ea bf d0 40
       13.754781 11.857956 5.0315332 6.523427

fc2.weight f4 [128, 132]
000000 dc 55 87 bd 40 2e 17 3c a7 2f c7 bc ec d3 22 3c
       -0.06608173 0.009227335 -0.024314715 0.009938221
000010 f7 b1 5f bb b5 88 6b bd 80 15 a1 39 d2 99 83 3c
       -0.0034133175 -0.05750342 0.00030724332 0.016064558
000020 0f 28 db bc d5 ac a4 bc 35 e4 ff 3b e2 11 8a bd
       -0.0267525 -0.020101944 0.007809187 -0.06741692
000030 e2 ff b6 bd 0b 21 04 bc c2 61 cc bb fa a9 63 3b
       -0.089355245 -0.008064519 -0.0062372396 0.0034738765
000040 e7 7f cc bd 08 e2 68 bd 13 bf e8 bc ab 2d 9e bd
       -0.09985333 -0.056856185 -0.028411424 -0.07723554
000050 fb cf 15 bd 38 dd f6 bd 68 d8 cd 3c 71 7b db bd
       -0.0365753 -0.12053913 0.025127605 -0.10716904
000060 d1 5f 4a bd 70 09 0f bd 12 4a a3 bd 11 81 3c bc
       -0.049407784 -0.03492111 -0.07973112 -0.011505381
000070 85 8f 70 bd 2f 6e 0c be a1 92 95 3c 69 d5 1c 3d
       -0.05873062 -0.13713907 0.018258395 0.03828946
000080 39 a4 49 bd 58 7d 87 bd 6e 99 12 bd d3 1d 8a bd
       -0.04922888 -0.06615704 -0.035790853 -0.0674397
000090 98 5d 04 be c3 8c 48 bd 70 32 9a bd f3 0a 94 bd
       -0.12926328 -0.048962366 -0.075291514 -0.07228651
0000a0 8e 5b be bd cd 07 39 3d 82 39 6a bd e4 83 39 bc
       -0.092948064 0.045173455 -0.05718375 -0.011322949
0000b0 a8 57 d6 bd ff 1d b1 bd 67 81 7b bd 41 61 54 bd
       -0.10465938 -0.086482994 -0.061402705 -0.05185056
0000c0 6a 5b cf 3c de d3 82 bd a6 d0 bf bc 70 05 d3 3c
       0.025312144 -0.06388067 -0.023414921 0.025759429
0000d0 84 8e b0 3c 42 78 69 3d 91 2d 1b bc c1 6e e7 bd
       0.021552332 0.056999452 -0.009471313 -0.113004215
0000e0 98 4a 8d 3c 63 a6 66 bc 90 4b 30 3c fa 5f 85 bb
       0.017247483 -0.014077756 0.010760203 -0.004070279
0000f0 9f 01 d2 bc 89 ce c0 bd 23 5f 08 3d 1d b2 39 3c
       -0.025635539 -0.094143935 0.033293854 0.011333969
000100 3a 7d b6 3c 9d ee a6 bd 7f 8a 0a 39 9b 71 9a 3c
       0.02227651 -0.081509806 0.000132123 0.018853
000110 47 9f 3f bd 31 2f c2 bd d0 32 14 3d bd 28 3b bd
       -0.046782758 -0.09481657 0.03618127 -0.045693148
000120 40 36 53 3c 0f de 2c bd 10 d2 21 bd 8c df b4 bd
       0.012891352 -0.04220396 -0.03950697 -0.08831701
000130 70 cb bd bd 29 de 27 be 3f 6d 99 3b 18 01 e7 bc
       -0.09267318 -0.16393341 0.0046822126 -0.028198764
000140 64 47 9b bd f1 9c dd bb 6e 86 f0 bd 4f ef d1 3b
       -0.07581976 -0.0067630936 -0.117443904 0.0064067016
000150 83 80 20 be af 4b 96 bd 53 e9 ba bd ed 85 4c bc
       -0.15674023 -0.07338654 -0.09126534 -0.012483102
000160 07 3f dd bd 25 a3 ec bc 7a cf d0 bd a1 d4 c5 bd
       -0.10803037 -0.028886387 -0.10195823 -0.09659696
000170 b1 33 e4 bd 2b 5b 4d bd c7 0f 02 be 21 e2 17 3c
       -0.11142672 -0.050135773 -0.12701331 0.009270222
000180 08 a0 e9 3c 65 01 0e be 04 5c 53 bc ad 00 10 be
       0.028518692 -0.1386772 -0.012900356 -0.14062758
000190 72 fd c6 bd 1b 82 1d bd 58 6a 59 bc 2d 66 b4 bd
       -0.097163096 -0.038454156 -0.013269983 -0.08808551
0001a0 51 53 52 b8 5a 4a 35 bc 1d 72 0d bd f3 ba 7f 3c
       -5.0145496e-05 -0.01106509 -0.034532655 0.015608537
0001b0 06 a0 96 3b 1b c9 47 3c a8 44 25 bc 96 a9 c3 bd
       0.004596713 0.012193943 -0.01008717 -0.0955383
0001c0 01 42 a9 3b 48 da 21 bd de 80 be bd 62 f4 c3 bc
       0.005165339 -0.03951481 -0.09301923 -0.023920242
0001d0 d0 ea bd bd 96 e6 16 bc 14 85 89 bd 04 1d 74 3b
       -0.092733026 -0.009210249 -0.06714836 0.003724874
0001e0 2c 3b 23 bd 1d 91 42 bd de 7f 9f bd b5 a1 14 bc
       -0.039851353 -0.047501672 -0.077880606 -0.009071757
0001f0 9e 81 e6 bd b1 64 c5 3b af c8 e7 bd a5 3c ac bd
       -0.11255191 0.0060239662 -0.11317574 -0.084100045
000200 27 2e ed 39 0d 15 89 bb f2 e8 f5 ba bc 2c 19 bd
       0.0004523855 -0.0041834177 -0.001876144 -0.037396178
000210 3d 77 5d 3e bc e8 f7 3e 3a 9b 09 3f 64 7e c8 be
       0.21627517 0.4841975 0.5375248 -0.39158928
000220 28 1c 8a bc fa e8 7c be 7e 26 59 3e c9 d8 ad 3e
       -0.01685913 -0.24698249 0.2120609 0.33954456
000230 88 24 8b be 1c 3c 1a 3e 40 81 86 bb 5c 27 8f be
       -0.2717631 0.15061992 -0.0041047633 -0.27959716
000240 a0 a1 10 bf 5c 61 08 bf fe 58 87 be 92 22 26 bd
       -0.5649662 -0.5327356 -0.26435083 -0.040560313
000250 10 99 83 bf bc 12 a7 be a7 cb a1 be 2f 81 f0 3e
       -1.0281086 -0.3263148 -0.31600687 0.4697356
000260 46 59 8e bd 73 8c 4c be ff 3c 4c 3e e3 fd 6d bd
       -0.06950621 -0.19975452 0.19945143 -0.058103453
000270 c8 42 65 bc c0 8f a5 be ec d1 1d 3e fb eb 54 3b
       -0.013992973 -0.32336235 0.1541211 0.0032489288
000280 7b 84 2d 3d 7e 4f f5 bc 04 85 cf be d4 b0 6d be
       0.04236267 -0.029945131 -0.4053117 -0.23211986
000290 a0 05 c9 bc 93 72 cd bb a3 9b 7f 3d db 7f 89 be
       -0.024538815 -0.006269762 0.062404286 -0.26855358
0002a0 1d 27 a1 bc c3 13 97 3e d9 8c 6b bf 78 60 15 be
       -0.019671971 0.29507264 -0.9201179 -0.14587581
0002b0 90 1b 68 3d f0 f8 b3 be 3c e6 b6 be 0c b2 0f bf
       0.05666691 -0.35150862 -0.3572253 -0.5613105
0002c0 6f 7c b0 3d af 8b 38 be b3 f2 a1 3e 94 7c be be
       0.08617484 -0.18022035 0.31630477 -0.3720442
0002d0 8d 81 b6 3e 10 09 ad bd ed 59 92 3d 64 66 e5 3e
       0.35645714 -0.08448994 0.07146058 0.4480468
0002e0 49 64 05 3e 45 48 e7 bd 92 b6 7c 3e 88 db 9d be
       0.13026537 -0.11293081 0.2467902 -0.30831552
0002f0 21 85 d8 bf 76 13 a8 3e 28 96 f7 be 3a 3b 9f 3e
       -1.6915628 0.32827348 -0.48356748 0.31099874
000300 b2 4d 04 bd 1f a5 db 3e 37 99 cb bd a7 9b 50 bf
       -0.03230066 0.42899415 -0.09941333 -0.81487507
000310 a2 68 22 3e 0a 5b 49 bd 0a c1 2a 3f a5 77 84 be
       0.15860227 -0.049159087 0.66700804 -0.25872532
000320 67 c2 5e 3d 21 e9 2a bd e6 31 b4 be 6a ff 85 3e
       0.054384615 -0.041726235 -0.3519432 0.26171428
000330 20 b7 62 3e 5e 8e 9b bf 8b 52 00 3d 5c 7a a5 be
       0.22140169 -1.2152822 0.03132872 -0.32319915
000340 c2 56 bf bf f5 b8 65 3d 52 5e ef 3e 57 62 63 bd
       -1.4948351 0.056084592 0.46751648 -0.055513706
000350 d9 97 18 3e ac c2 78 3d 23 f5 4d be ee 1b c3 3e
       0.14901675 0.06073253 -0.20113043 0.38107246
000360 66 5d 91 bc 13 99 ab bf fa 53 f8 3d f6 2b 4e 3d
       -0.017744731 -1.340609 0.12125392 0.050334893
000370 7d 84 9d 3d 30 69 aa 3d 50 90 17 be 09 32 be be
       0.07691286 0.08320844 -0.14801145 -0.3714755
000380 5d 68 0a bf ea 43 7c 3b 6b 05 9a be 49 74 a8 be
       -0.54065496 0.0038492628 -0.3008226 -0.3290122
000390 28 c3 02 3f 11 11 32 3f ae 4e 71 bd 6c 48 d0 be
       0.51079035 0.6955729 -0.058912925 -0.40680254
0003a0 d5 1c ef 3c 58 e9 89 3e 11 5e 59 be b6 db 01 3d
       0.029188553 0.2693584 -0.2122729 0.031703673
0003b0 8d 64 05 be 13 87 1c bf 00 1e e6 3c d2 67 97 be
       -0.13026638 -0.61143607 0.028090477 -0.29571396
0003c0 a5 a7 07 3f 38 3e 81 3e 18 b8 7c 3e 79 d6 ed 3d
       0.5299018 0.25242782 0.24679601 0.11613173
0003d0 e1 73 3e be b8 7f 2a be 6b 75 59 bf 6f c5 03 3c
       -0.18598892 -0.16650283 -0.8494479 0.008042677
0003e0 ea b5 e1 be cc 52 9e bc 96 c5 b1 3e f3 5b e4 be
       -0.44084102 -0.01932659 0.3472106 -0.44601402
0003f0 e0 c5 a1 3d 3e b7 b3 be d0 3c f2 be 23 61 40 3d
       0.0789907 -0.3510074 -0.4731202 0.046967637

fc2.bias f4 [128]
000000 1b c8 f4 bd fd 0c 81 3e f7 66 e8 bd 3f 40 e6 3b
       -0.119522296 0.25205222 -0.11347764 0.0070267017
000010 7d f6 8a 3d 03 02 da 3e 02 e6 12 be 89 1c 67 bd
       0.06785295 0.4257966 -0.14345554 -0.056423698
000020 24 88 66 3e c8 c1 82 bc 74 c8 ed bd b7 aa ec bc
       0.22512871 -0.015961543 -0.11610499 -0.028889997
000030 72 db c6 3c 3e 37 a7 3b 3d 22 c2 bd ac e2 5f be
       0.024274562 0.005103021 -0.09479187 -0.21863812
000040 60 aa 9f bb e1 fd f0 3e 5c 95 d0 bd 40 ea 99 3e
       -0.004872605 0.47068694 -0.10184738 0.3006153
000050 f2 62 16 be 36 c4 74 be b5 5d 7b bd 6b 70 17 be
       -0.14686182 -0.23902974 -0.061368663 -0.14788978
000060 51 9b fa bd 0b e4 42 bd a9 45 a0 3e 10 9e 02 be
       -0.122366555 -0.04758076 0.31303146 -0.12755609
000070 46 54 99 bd f9 98 e4 bd a9 69 01 be 8b 15 10 be
       -0.07486777 -0.1116199 -0.12637962 -0.14070718
000080 1d b9 71 bd 36 e2 82 bd 26 6d b5 3e f5 9e 84 bc
       -0.05901443 -0.063908026 0.35434836 -0.016189078
000090 78 94 8b bd 30 a7 0d be 62 5d eb 3e 15 e0 a7 3e
       -0.068154275 -0.13833308 0.45969683 0.3278815
0000a0 5a da 74 be bf c1 b3 be ea 73 2d bc 1f 8b e2 3e
       -0.2391142 -0.35108754 -0.010586718 0.44246766
0000b0 82 40 22 be 32 18 ed bd f8 b7 ed bd ae 91 86 3f
       -0.1584492 -0.115768805 -0.11607355 1.0513208
0000c0 ab 3d 52 bd 6a 22 83 bd e7 cf 05 be 9b 38 2b 3f
       -0.051328342 -0.06403048 -0.1306759 0.6688325
0000d0 e3 dc 19 bc a0 91 0a be 47 f7 31 bd 2b cc af bd
       -0.009391042 -0.13532114 -0.043448713 -0.08583864
0000e0 82 3e 6c 3b 27 24 f9 bd 1b 40 4c 3f 66 dc 22 be
       0.0036048 -0.12165099 0.7978532 -0.15904388
0000f0 eb 92 36 3d b1 93 76 bd ed 09 3a be f5 b5 2b be
       0.044573706 -0.060199443 -0.18167849 -0.1676863
000100 fc 09 ab 3e 31 7b 1c be ad f5 17 be a5 8a e6 bd
       0.33406055 -0.15281369 -0.14839812 -0.11256913
000110 91 b6 d6 bd 7a 95 a0 ba 99 89 e5 bd bf 38 73 bd
       -0.104840405 -0.0012251579 -0.11207885 -0.05938029
000120 6d ab bd 3e 7f 3d 33 3d 04 bc fe bd e7 2e 49 3e
       0.3704485 0.04375982 -0.12438205 0.19646798
000130 0a 3b de bd e7 b9 d6 bd 7e 8a a3 bd be b2 bb bc
       -0.108511046 -0.10484677 -0.079854 -0.02291238
000140 74 c4 00 be e5 e8 35 be 8b a6 ce 3e b6 59 0d 3f
       -0.12574941 -0.17764623 0.40361437 0.55215013
000150 90 b2 cb bd 53 7c a8 bd 12 17 b7 3e d3 6b 8a bd
       -0.099461675 -0.08226838 0.3575979 -0.06758847
000160 ee f0 01 be e0 32 b1 bc 78 8d 6f 3e 2b b9 ca bd
       -0.12689564 -0.021630704 0.2339381 -0.09898599
000170 e4 f5 f1 bd 1f 79 01 be 1a 79 66 bd 4a ee e3 3d
       -0.11814478 -0.1264386 -0.056267835 0.111294344
000180 ae 89 a4 3e e2 f3 89 bd f6 73 07 be 85 59 0d be
       0.3213629 -0.0673597 -0.1322783 -0.1380368
000190 0d ba 00 bd 76 a7 e1 3d b9 66 36 3f b2 f9 64 bd
       -0.03142743 0.11018269 0.7125049 -0.05590219
0001a0 00 a4 b4 bd f7 1a da bd 3c d4 4d 3f 97 19 14 3f
       -0.08820343 -0.106496744 0.8040197 0.57851547
0001b0 3f 24 5c 3d b9 82 99 bd b7 47 a5 3e 87 23 e0 bc
       0.053745504 -0.074956365 0.32281277 -0.02736069
0001c0 5f 9d fe bc e1 3e d0 bb eb 34 c8 bd 00 9d 95 be
       -0.0310809 -0.006355152 -0.09775718 -0.29221344
0001d0 91 e6 13 be 57 5e 28 3f e1 51 cc bd 8a 42 ab 3e
       -0.14443423 0.6576895 -0.09976555 0.33449203
0001e0 71 20 9d bd 3c 99 0a 3e ce b0 1b 3f b6 f3 eb bc
       -0.07672203 0.13535017 0.6081666 -0.028802734
0001f0 4d 18 ef 3d e0 9f 08 bd 98 19 1c be a5 0f 00 3f
       0.11674557 -0.033355594 -0.15244138 0.5002387

fc3.weight f4 [1, 128]
000000 c7 6a 14 3b 96 7a 30 3d 28 ca 4c 3c ce 97 ea bc
       0.0022646652 0.043085657 0.01249937 -0.02863684
000010 2b 65 4f 3e b6 02 86 3d 65 da 23 3a 74 32 81 bc
       0.20253436 0.06543486 0.00062505 -0.015771128
000020 ab f9 47 3d d0 48 00 3e 34 6d 39 3c a3 8c 49 3c
       0.048822086 0.12527776 0.01131754 0.012301597
000030 93 18 7f 3b 84 9c 95 bc 39 11 7a 3c 8b b8 c9 bd
       0.003892456 -0.018263109 0.015262895 -0.09849652
000040 96 4c 1e bb ad af 37 3d 37 47 80 bb 3e 58 90 3d
       -0.0024154535 0.04484527 -0.0039147395 0.07048081
000050 92 0c d6 3c 74 09 04 bc 9e 82 b8 3c ba d0 0f 3d
       0.02612904 -0.008058894 0.02252322 0.035111167
000060 a1 6f bf 3c de c3 2d 3a db 1f ce 3c 95 46 71 bd
       0.023368658 0.0006628613 0.025161674 -0.058905203
000070 ad 8a 9f bc 8a f6 5b bd f5 1f bc 3c dc 1d c3 bc
       -0.019475305 -0.053701915 0.022964457 -0.023817949
000080 5b c5 74 3c aa 7a 31 3c 29 d4 6c 3d 15 f8 7e bd
       0.014939631 0.010832468 0.05781952 -0.06224831
000090 7d a8 14 3c 59 86 db bd 7d cb a5 3d 34 41 8d 3d
       0.009073374 -0.10718984 0.08095453 0.06897202
0000a0 2e a3 24 bd 0d 40 64 bd ef 41 84 39 09 2a 5a 3d
       -0.040194683 -0.055725146 0.00025226126 0.053262744
0000b0 1a d3 81 bc ba 90 85 3c e5 f2 65 bc ee b4 0d 3e
       -0.015847731 0.016304363 -0.014034961 0.1383855
0000c0 ad de 08 bb 18 00 5b bc 65 d4 04 3b d5 1d a8 3d
       -0.0020884678 -0.013366722 0.0020268199 0.08208815
0000d0 ee 6f 31 bc a1 ab af 3c c7 22 08 3d 84 98 f2 3c
       -0.010829909 0.021444144 0.03323629 0.02961374
0000e0 49 61 d1 bd 33 61 3c bc bb ae e8 3d ae e5 a9 bc
       -0.10223634 -0.0114977835 0.11361452 -0.020739403
0000f0 d9 e5 8a 3d 11 f4 88 bc 54 34 9f bc fd fc 1d bd
       0.06782121 -0.016717942 -0.019434132 -0.038571347
000100 ae f1 9c 3d 31 45 1a 3c 94 e1 0f 3d 44 f2 1b bc
       0.07663284 0.009415911 0.035127237 -0.00951821
000110 7e e9 fc bc 3d 81 bc bd 37 e3 80 3b 2e 0f 97 3c
       -0.030873057 -0.09204338 0.003933336 0.018439855
000120 13 58 c1 3d 18 83 a4 3b 02 4b 1c bc 67 9b c9 3d
       0.09440627 0.0050205104 -0.009539368 0.09844094
000130 f0 2b de 3c 8b 76 4f 3c dc 7d 54 bd 8d d3 2d 3d
       0.02712056 0.01266254 -0.05187784 0.04243808
000140 25 74 9c 3b 8b 55 6e 3c b2 cf 08 3e fc b2 82 3d
       0.0047745877 0.014546762 0.1336048 0.06381795
000150 5c 02 c1 3b 19 49 c5 bb 6c 3f 9a 3d 9f cd 40 bc
       0.005890174 -0.006020677 0.07531628 -0.011767774
000160 4f dc 24 bd fd ad d9 bd ff 84 84 3d da 20 7a 3c
       -0.040249165 -0.10628889 0.064706795 0.0152666215
000170 65 99 06 ba b8 76 40 be 66 aa aa bc 7d 5f ed bd
       -0.0005134552 -0.18795288 -0.020833205 -0.115904786
000180 84 74 aa 3d 0b 1e 1c 3c 25 59 5f 3c 38 01 ff bb
       0.08323005 0.009528647 0.013632094 -0.0077821277
000190 0a 63 03 bc ec 09 84 bd 36 07 a3 3d 6a f9 8e bc
       -0.008019218 -0.06447205 0.0796036 -0.017452914
0001a0 9e 9f 91 3c df 2b 1f 3d 0b 30 e0 3d 1f 75 4f 3d
       0.017776307 0.038860198 0.109466635 0.050648805
0001b0 20 64 64 3c 77 1e df bc 8b 81 32 3d eb ad b1 3d
       0.013939887 -0.027236206 0.043580573 0.0867575
0001c0 0d 15 28 3a 80 35 b2 3d 7b ad 86 3b 1e 4a 88 bd
       0.0006411828 0.087016106 0.004110036 -0.06654762
0001d0 10 62 83 3e 23 ff 44 3d 70 eb 4f 3d 8f 65 86 3d
       0.25660753 0.04809488 0.05076164 0.065623395
0001e0 a2 7a 58 3c e7 0a 7e 3d 03 a3 14 3e 12 ec 92 3b
       0.013212832 0.062022116 0.14515309 0.004483708
0001f0 cd 71 a9 3d 29 24 d2 bd 79 48 81 bc 58 dd dc 3d
       0.08273659 -0.10260803 -0.015781628 0.107844055
